experiments/v3_simplified_game/MARLv1/models/attacker_agent_final_4.pth (torch, 385258 bytes, 33 tensors)

weight_ih_l0 f4 [256, 25]
00000000: 7f0f 9fbd 4bfd f73d 7e0a 47bd f7d5 8abc
00000010: e18a 0e3c 48db a73d bbd4 04bd bafc c0bd
00000020: 12f1 21bd 8c2b 10be bfb3 a63d 368d b0bc
00000030: 3d36 f63c 7822 29bd d3fd f53d 5b19 bf3d
00000040: 0fe4 0ebe 9feb 113e 63b5 fa3d d983 74bc
00000050: 5971 10bd a764 12bd 2750 e2bc 96ee d63d
00000060: 7cfc acbd ad61 a9bd 49eb c13d dd62 ccbd
00000070: 61ff 163c e1e2 de3d 865c 8cbd 0e35 9ebc
00000080: c211 403d 765a e1bd e7e8 b83d d74a df3d
00000090: c678 043e a2a3 11bd 3d5b f13c 2078 04bd
000000a0: 6299 c23d 20ed cabd 504f 34bd e0a4 5ebc
000000b0: c4ec a73d 6e92 90bd 57b0 72bd 2307 febc
000000c0: 5a57 353a 581a 223b f5a9 463d 15d0 2cbd
000000d0: 32dd a9bd a7a6 043c b73c c5bd 4fe6 a4bc
000000e0: 2952 e83d 0d92 f83d 3f58 0b3e c678 ec3b
000000f0: 68ae 7b3d 5aea 20bb 3fa5 15bd 189c 0dbd
00000100: ee48 07be 9ad1 ec3d cbff 08be fee2 69bd
00000110: 0345 d63d d2c8 bb3d ebb0 bb3d 0a94 3d3d
00000120: 23f7 a8bc 7fc4 d4bd 1200 cb3d d21d e0bb
00000130: 6de9 cbbd 5351 3ebc c0e2 23bd 9ebc fd3d
00000140: 72ab a2ba c57a 8ebc 6276 ea3d a46a a5bc
00000150: 7843 7b3d 049a c83d f911 a63d c85f 453d
00000160: 4495 9fbd 2a22 6e3d 6d2a 4d3d 5f66 0fbe
00000170: ea64 3d3c 9d6a 673d b19e 013e a93c 093d
00000180: a43a 09be 5e8d 2bbe ef0c f5bd 1bdc 763d
00000190: 20e4 f93d 780c 833c 8779 413d 1cc2 ce3d
000001a0: 1740 273e 5014 e23d 2c3d 953c c6ce dd3d
000001b0: 70cc fdbd 231a debd 7926 17bd 41bb 3d3d
000001c0: da01 82bd 1e18 aa3d 008e 6dbc 3169 84bc
000001d0: 9356 23be 5c8c 93bd c153 023e e295 093e
000001e0: ca9b b5ba acc1 13bc f2ad 823d 0772 3ebd
000001f0: 9563 6c3d 449c 933d bdec 32bd a2a9 1d3d
00000200: a52c 89bb 60e4 83bc 243b 543c 3049 1abd
00000210: 29c9 68bd 7f67 d2ba 9690 10be a8ed a6bd
00000220: a1b4 6ebd c210 c3bd 042a 813c 4536 f3bc
00000230: 4e94 a3bd 2d47 073b ed2b d43d c3d0 9a3d
00000240: 3d14 a6bd 20ba 383e ae4e dc3d a9de 0b3d
00000250: 6e10 533c 2c5f ccbb fd64 4dbc a98d 49bd
00000260: 1523 c83c 830d 95bd 114a cc3c 55d0 ae3d
00000270: d5d1 d0bc f09d 05be 2ec1 bb3d c1db 993d
00000280: 5450 b63d f48e 5c3c 8642 f7bc ec8d 76bc
00000290: 1a65 40bd c179 1abd d07c d9bc e19b 6dbd
000002a0: c98a b23d 4184 ed3d be4d 933d de98 183e
000002b0: 8522 e03d c3ee 373e 08ea 1bbd 679a fbbd
000002c0: f883 ee3d 39e8 863c af9a 95bd f862 e2bc
000002d0: b624 553c 09c7 9cbd f0ed bb3c 8a1c aa3d
000002e0: 1b23 a8bb abfa e23d c7be ed3c 8c40 fcbd
000002f0: 50bd 813d 5daf 91bd ef94 33bd 02ac 6d3d
00000300: 1a77 2dbd 6c3b c1bd 99a3 96bc 6fcd b83b
00000310: 95f2 2dbc c064 233d c8e5 0f3c 5f13 1e3e
00000320: 8358 b33d 3d13 013e 1167 fe3c 95a9 8bbd
00000330: 51b5 c4bd 6478 ca3d b4fe 013e d832 c8bd
00000340: c243 9abd e3d5 1cbd 4aa7 d43d 6ad3 623d
00000350: df95 893c 4585 98bd 257c 243d b800 83bd
00000360: 9941 7abc 2ea2 183d 655b 01bd db24 123e
00000370: 5b8f e23c 6841 fabd c3d8 9d3d 11fe 64bd
00000380: d51a 203e 2e9f b9bd bc7e a2bd 1433 443d
00000390: 2523 a23d c2c7 d03c de38 a9ba 965f 353d
000003a0: e7fe 833d 2074 cb3d b7d5 20be d8b2 d13d
000003b0: 45d4 03be 96ca 99bd 4387 0a3d 074a fabc
000003c0: 7e41 9c3c b415 e5bd 9b8e f93d e5eb 52bd
000003d0: 8a7b 79bc 5067 f73d 5159 1fbd 3e2a 0d3c
000003e0: a40c 2b3d 6233 bbbd f5a8 0a3e 40e8 443d
000003f0: 87b6 cebd 4e2e 40bd 2c01 423c c96d e2bd
-0.077666275 0.12108859 -0.04859399 -0.01694773 0.0087001035 0.081961215 -0.032429438 -0.09423204
-0.039536543 -0.14079112 0.081397526 -0.02155171 0.03005516 -0.041292638 0.12011304 0.09331008
-0.13954185 0.14250039 0.12241628 -0.014924013 -0.035264347 -0.03574052 -0.02762611 0.104947254
-0.08446595 -0.08270583 0.09468705 -0.09979794 0.0092161605 0.108831175 -0.06853585 -0.019312408
0.046891935 -0.11003582 0.090287976 0.109029464 0.12936696 -0.035556443 0.029462451 -0.032341123
0.09501912 -0.09908509 -0.04402095 -0.013589114 0.08199456 -0.07059179 -0.059250202 -0.031009262
0.00069176184 0.002473494 0.048501927 -0.04219063 -0.08294143 0.008096374 -0.09630721 -0.020129351
0.11343796 0.12137232 0.13607882 0.0072165458 0.061445624 -0.0024553747 -0.036534544 -0.03457269
-0.13211414 0.11563416 -0.13378827 -0.057101242 0.10462382 0.09169163 0.09164604 0.04628376
-0.020625656 -0.10389041 0.09912123 -0.0068394924 -0.09956632 -0.011616069 -0.040011168 0.123894915
-0.0012410714 -0.017392525 0.11448361 -0.020192452 0.06134364 0.09795001 0.08108897 0.048187047
-0.07792142 0.05813805 0.05008929 -0.14003895 0.011559704 0.05649816 0.12658192 0.033505116
-0.13401276 -0.16753146 -0.119653575 0.060268503 0.122017145 0.015997157 0.047235038 0.10095617
0.16333042 0.110390306 0.018217646 0.108304545 -0.12392509 -0.10844829 -0.036901925 0.046321157
-0.063480094 0.08305381 -0.0144991875 -0.01616344 -0.15950994 -0.07204506 0.12727262 0.13436082
-0.0013855633 -0.009018343 0.06380834 -0.046495464 0.057712156 0.0720754 -0.043682802 0.038491853
-0.0041862302 -0.016100109 0.012953553 -0.037667453 -0.056832466 -0.0016052573 -0.14117655 -0.08150798
-0.05827773 -0.09524681 0.015767105 -0.029688964 -0.07987271 0.002064179 0.10359941 0.075593494
-0.08109329 0.18039751 0.107571945 0.034147892 0.012882335 -0.0062369313 -0.0125362845 -0.049207363
0.02443079 -0.07277968 0.024937661 0.0853583 -0.02549068 -0.1304853 0.091677055 0.07512618
0.0890204 0.013461817 -0.030183088 -0.015048485 -0.046971418 -0.03771377 -0.026548773 -0.058009986
0.087178774 0.11597491 0.071925625 0.14902064 0.10944084 0.17962174 -0.038064986 -0.12285309
0.11646265 0.016468154 -0.07304894 -0.027635083 0.013009241 -0.076551504 0.022940606 0.08306225
-0.005131138 0.11082967 0.029021634 -0.12316999 0.063349366 -0.07113526 -0.043843206 0.058025368
-0.042349912 -0.09435162 -0.018388556 0.005639724 -0.010616918 0.039891005 0.008782811 0.15437077
0.08757117 0.12604995 0.031055005 -0.068194546 -0.09604896 0.09886244 0.12694818 -0.09775323
-0.07532455 -0.038289916 0.1038347 0.0553774 0.016795097 -0.07447294 0.040157456 -0.063966215
-0.015274429 0.03726404 -0.0315813 0.14271872 0.027656248 -0.122195065 0.0770736 -0.05590636
0.15635236 -0.09063564 -0.07934329 0.047900274 0.079168595 0.025485877 -0.0012910625 0.04428061
0.06445103 0.099342585 -0.15706526 0.1023919 -0.12873943 -0.07509343 0.033820402 -0.030552877
0.019074198 -0.1118578 0.12185403 -0.051494498 -0.015227208 0.12080252 -0.03890354 0.008616028
0.041760102 -0.0914066 0.13541014 0.048073053 -0.10093408 -0.04691916 0.0118411 -0.11056096

weight_hh_l0 f4 [256, 64]
00000000: 46dd 9a3d fe57 89bb 1939 abbc 597e 063d
00000010: f896 e0bd ca8f d33d cf79 663d d6e0 203e
00000020: 1cea 08be f5c2 e53d 1ef1 d8bd ce29 16bd
00000030: 2fe7 9f3d 6e3e f6bd 286c 963d 2e53 e73c
00000040: 09f4 adbd 3013 54bd f32d adbb 792b 5b3c
00000050: f642 77bd 61a9 b6bd a290 0cbd 75b4 c53c
00000060: 7ad4 84bd 0476 093d ace6 22be 0dfd cabb
00000070: f5b1 06be 442c 5bbd 4c60 00be 53ab ea3d
00000080: a280 a2bc 48f2 b73c 3464 003e 6fd3 343d
00000090: dcb6 083d 40b0 863d c323 683d ef71 4cbc
000000a0: 9af5 b1bd d93d 213d b12e 0c3c 6a7d ea3d
000000b0: f3dd a8bd 33bf 9bbd e2a0 49bd bc1c d33d
000000c0: e604 083e 8909 a9bc a923 2abd efc7 833c
000000d0: 1231 853c 8b62 513d c55c 9bbd 92b2 eb3c
000000e0: 5431 02bd 60c5 6b3d f951 85bd b43e fa3c
000000f0: 7af5 8c3a dc23 90bc bf73 8fbd c1cc 693c
00000100: 709a 83bd 6fe5 2cbd a3c0 94bd 6c18 9fbd
00000110: 2846 5f3c e02b b63d 0a10 32be 8b99 aa3d
00000120: 5806 aa3b 5f2f d3bb ef0d 27bc 89cb 003e
00000130: 1d18 a73d 160b 023d c3e5 9dbd ec00 1cbd
00000140: ed2f 503d 499e 30be 730c be3d 613c 10bd
00000150: 9458 0dbd c775 37bd cc6f e63b 6005 e43c
00000160: e9de 09bc ffdc 023c 799f 9d3c 1ee5 a6bc
00000170: 7038 5e3d 4e1e e3bd bcb9 443d f63e c9bd
00000180: 3ad5 623d 52c6 6d3d 4c0b 703d 61f1 503d
00000190: f665 8b3d e4c4 2abd 470f 91bd 2a83 eabd
000001a0: 048d 48bd 9616 043d 2c7f ebbd 1f04 01be
000001b0: 79b7 493d 89f8 4e3d 45cc 2bbd 8bb3 b23d
000001c0: 1c0a f5bd 86a4 9a3c 3492 eebd 45b8 94bd
000001d0: 950f 08be f140 03be 031f 62bd d731 a93d
000001e0: d8cb 4b3d 16bf 1d3d 8b1a 41bb 1b28 45bd
000001f0: 9638 0cbd 7744 d4bd b039 77bd 9115 d9bd
00000200: ebe5 e03d 1911 d43c ef22 c43d f2f9 42bd
00000210: c1db bcbd 6e13 343d f272 e7bd 6a51 233e
00000220: f0d6 6e3c 9697 0abc f17a eb3b 0511 b7bd
00000230: b9b0 e4bb 3c44 083d 01ca 333d cef5 363d
00000240: 74d6 e5bc 58ea d53b 7626 10bd 9286 c53d
00000250: 0619 f53c abe0 76ba 0e83 e03d 6fc0 953b
00000260: 0020 edbd afd7 e63d 35b5 ad3b b1ae 823d
00000270: 408a 9b3d ae39 9fbd 4b07 fdbd d15e b03c
00000280: d7e2 173d f257 793d 22e0 f03d f926 c63d
00000290: dfb1 1e3d 9c6d 983d 266f a3bd 14c6 68bd
000002a0: 5fd5 ebbd d925 2c3d 36a3 823d 4587 9a3d
000002b0: 1b38 b5bb 197e 9ebd 4d31 0fbd 43bc c2bd
000002c0: eaf4 a7ba febc 873d 73d7 0a3b cfcd 1cbd
000002d0: a014 013e 7285 5ebc 1dee d8bd 9f76 04be
000002e0: 1e2c 40bd a490 e9bd 05e7 c73c d348 1e3b
000002f0: ba35 c0bd 3204 cd3d 87a1 89bc 2eac 033e
00000300: 9988 94bd 20d4 513d d718 483d 2bee c6bb
00000310: 9800 b73d ea6c cdbb af44 15be 2321 cbbd
00000320: a020 5b3d 2b2a 573d 9cce cbbc b0a5 ac3d
00000330: 3ae1 a5bd 1d6d 143d 5c36 983d 2a0d 2dbc
00000340: 6880 a1bd 91af 2e3c ab10 61bd 64cb b339
00000350: 97dc a53c 5e7b d83d 95db dbba af3e 5dbc
00000360: f647 4e3c 287e 12be 28e6 48bb 4d6a a2bd
00000370: ee29 013b 564d b73c 3ad0 cfbd 50f1 5bbc
00000380: 90c7 bf3d 9711 05bd ced2 aa3d 9506 15be
00000390: 94c2 e53d dbc5 b0ba a48a 873d 3746 a3bd
000003a0: ef7d cb3c 4891 c83d 28fa e0bd 7b6c cbbd
000003b0: 2510 6ebd 102c 3e3d 3717 aebd 56b3 1bbc
000003c0: 0882 b7bd 8d74 353d c866 1cbd 8c82 c33a
000003d0: 7cc9 97bd 8cd5 5f3a 6d78 093e f4a6 833d
000003e0: 7834 4d3c 541e e43d 5279 3bbd bf04 8abd
000003f0: ead6 35bd 3e1d 793d d9d0 ae3d 12da 3c3b
0.07561736 -0.0041913977 -0.02090125 0.03283534 -0.10966295 0.1033016 0.05626851 0.15710768
-0.13370556 0.11218826 -0.105928645 -0.03666096 0.07807767 -0.12023626 0.07344848 0.028237905
-0.08493812 -0.05177611 -0.0052850186 0.013377064 -0.060366593 -0.08919025 -0.03431762 0.0241339
-0.06485839 0.033559814 -0.15908307 -0.006194717 -0.13153823 -0.053509012 -0.12536734 0.11458459
-0.019836728 0.022454396 0.12538224 0.04414695 0.033377513 0.06576586 0.05667473 -0.012478336
-0.08689423 0.039365623 0.008556054 0.11449702 -0.082454585 -0.07604828 -0.049225695 0.10308215
0.13283119 -0.02063443 -0.041537914 0.016086547 0.01625875 0.05111937 -0.07586054 0.028771672
-0.031785324 0.05756128 -0.06509776 0.030547477 0.001075431 -0.017595224 -0.07004499 0.014270009
-0.06425941 -0.042210992 -0.07263305 -0.0776833 0.013627566 0.08895087 -0.17388931 0.08330067
0.0051887445 -0.006444856 -0.010196193 0.12577643 0.08158896 0.031748854 -0.07709839 -0.038086817
0.050826956 -0.17247881 0.09279718 -0.03521383 -0.034508303 -0.044790056 0.00703237 0.027834594
-0.008414962 0.00798726 0.019241082 -0.020372923 0.05425304 -0.110897645 0.048028693 -0.09826462
0.05537913 0.05805046 0.058604524 0.051011447 0.06806557 -0.041691676 -0.07082992 -0.11450799
-0.048962608 0.032248102 -0.114988655 -0.12599228 0.04924724 0.05052999 -0.041942853 0.08725651
-0.11964819 0.018877279 -0.1164898 -0.07261709 -0.13287194 -0.12817742 -0.055205356 0.08261459
0.049754947 0.038512312 -0.0029465284 -0.04813395 -0.034233652 -0.10364621 -0.06035775 -0.105998166
0.10981353 0.025887059 0.095769756 -0.047601648 -0.09221602 0.043963842 -0.11301221 0.15949026
0.014577612 -0.0084589925 0.0071862866 -0.08938793 -0.006979075 0.0332682 0.043893818 0.04466801
-0.02805636 0.00652818 -0.03519293 0.09644808 0.029919159 -0.00094176334 0.10962497 0.004570059
-0.11578369 0.11271607 0.0053011426 0.06380976 0.075947285 -0.077746734 -0.12354907 0.021529587
0.037081566 0.060874887 0.117615 0.09675402 0.03874385 0.07442781 -0.07980184 -0.056829527
-0.11515307 0.04202828 0.06378786 0.07545332 -0.00553037 -0.07738895 -0.034959126 -0.09508564
-0.0012814079 0.06627844 0.0021185547 -0.038282212 0.12605524 -0.0135816205 -0.105922915 -0.12935875
-0.046917073 -0.11404541 0.02440215 0.0024152293 -0.093852475 0.10010566 -0.016800655 0.1285865
-0.072526164 0.05122769 0.048851814 -0.0060708723 0.0893566 -0.006269087 -0.14576982 -0.0991843
0.05349791 0.05253045 -0.024878792 0.0843004 -0.08099599 0.03623687 0.07432243 -0.010562221
-0.0788582 0.0106619755 -0.054947536 0.00034293078 0.020246787 0.105704054 -0.0016773815 -0.013503714
0.012590399 -0.14305937 -0.0030654762 -0.079304315 0.001970883 0.022375744 -0.10147138 -0.013424233
0.093642354 -0.032487478 0.08340989 -0.14553292 0.112187535 -0.00134867 0.066182405 -0.07972377
0.024840323 0.09793335 -0.109852135 -0.099328004 -0.058120865 0.04642874 -0.08500522 -0.009503206
-0.08960348 0.044300605 -0.038183957 0.0014916225 -0.07411477 0.0008538596 0.13424845 0.06428328
0.012524717 0.11138597 -0.045769997 -0.067391865 -0.04439441 0.060818903 0.08535928 0.0028816503

bias_ih_l0 f4 [256]
00000000: bf4c 0b3e a60f 9abd 1734 bbbc cd98 a8bd
00000010: 9733 04be 7868 d43c 00d4 4b3d 8400 ee3d
00000020: 0334 263b 9b7c 4a3c df02 223e 9e83 93bd
00000030: 8e86 e43b ba63 bb3d f598 9f3d 9b52 eebd
00000040: 8350 c33d 4cc8 fe3a ea81 f53d 8778 95bd
00000050: 5ea5 be3d 0215 80bc fd4a b53d fc61 b03d
00000060: 0864 253e 241e 1fbd 5311 173e 1df4 d9bd
00000070: 3759 b23c 9be4 94bd 3b89 533d 904f d0bd
00000080: 441a 02be c0ec ad3d b3a2 23bd 2d97 33bd
00000090: dbb8 02bd 938c 2e3e 0df0 033e b81e 6bbd
000000a0: 4743 b73d 57cd c9bd 2144 7b3a 378f 053e
000000b0: 4b0b 023e 5b1f 8fbd 4a02 063e 063d 133d
000000c0: 3c11 92bd f830 6a3d 5ab2 883d 04d0 c23d
000000d0: fcf5 8f3d 15bd 993d bca5 853d 9adf 9abb
000000e0: 53b8 b73d 3ebc 6cbc 4de1 febd 16b1 aabd
000000f0: 38c2 0f3e 6bd4 e13b 9918 febc 7d9c 083e
00000100: 34a2 f93d 0cf7 e0bc 7de6 29be 331a 683d
00000110: 2115 3f3c 2065 5f3d 19d9 b93c d0d3 053e
00000120: a060 febd 500e fc3d 3b03 e2bd bfe4 bcbd
00000130: 41f1 ab3d 56d0 46bd e802 e63d 7f02 a8bd
00000140: 6431 423c ddd4 80bb cdd8 e3bc e295 69bc
00000150: 9123 553d 647b 54bd 465c 193e 71f2 b93d
00000160: 875c 1abd b1fe adbc dabc 91bc 726d 7d3d
00000170: 7d8a 49bd f57e 823d df26 013e b300 b2bd
00000180: 04a9 d4bc 01bf 9e3d 420b 82bd 832e d63d
00000190: 18d8 84bd 4646 ab3c 71c9 3b3c 38f7 c2bd
000001a0: dbde 40bd cd6b 11bc 8d72 133e e537 da3d
000001b0: c8d6 a03d ef1c 14be f7ac 0d3d 031f 51bd
000001c0: 6201 8dbd 5363 833d b874 ce3c 9cd3 e3bd
000001d0: ef37 a7bd 388e 1a3e b2af b1bc 7376 ba3d
000001e0: 53d1 0c3e e46a 43bc 3168 203d 4d1b 153e
000001f0: ba7f 083e d300 7b3d 2411 03be f2c9 babd
00000200: 2d26 3e3d 3041 0fbe 05d0 af3d 66a7 a5bd
00000210: 853b f83d b714 c4bc 3551 1f3d bdb9 753d
00000220: f8ba e6bd 2d8a 9b3d 6825 bbbd a44d 1f3d
00000230: f27f 2f3e bcc2 c63c 2015 1a3c 1125 cebd
00000240: 2e56 3cbd c904 a1bd 11d4 21be 1023 e5ba
00000250: bb74 c83c e30b a9bd 37eb c23d e2a5 66bd
00000260: 9672 1abe 789d 4b3c a622 0bbe 6224 e63d
00000270: c800 d6bd ae94 8c3c c1a9 ffbd aa81 8d3c
00000280: e5d8 913d 4175 09be 433b e53d 9144 3f3d
00000290: 5a4e b4bd 41f9 f13c 73af b43d 06af c73d
000002a0: a448 2fba abf0 653c c314 c33d 5d15 6c3d
000002b0: c7ed 1abe 7ca3 3fbd a211 c3bd 7533 223e
000002c0: b1ab b13d 3452 9bbc d462 b4bd 01d9 5dbd
000002d0: a542 8a3d d72c b63c 4654 95bd 4f00 bebd
000002e0: 7d99 f7bd 0eb1 96bb a599 0a3d 96de e33d
000002f0: 7430 433e 7332 4d3d 8daa 1abe 707e a03d
00000300: 4e44 cebc f557 223d 3589 2c3b fb44 e83c
00000310: 375b ce3c 57ea 7f3d 9eb3 42bc 2b73 b63d
00000320: e005 c53d d097 ca3d 2342 a73d 0517 293d
00000330: da62 763c b4be f93d 47ca 223a aebf d83d
00000340: 472c 9b3d ccf4 a93d fc8a 84bd 1856 d73c
00000350: 7561 94bd 486c 99bc 412a a43d 8096 d8bc
00000360: 622d 9f3d 659f f3bc 58d4 143e 57a7 8cbd
00000370: ffef e83d 31d1 0e3d 658d 803d 3d4f cb3d
00000380: cba6 b53d ed03 2c3d 3319 b43d 8631 cbbc
00000390: d706 9e3d db17 a8bd 6103 73bc 7e88 bdbd
000003a0: 7535 f23c cfcf c63d 1704 7f3d 31c4 b7bb
000003b0: c350 a83d 489c b8bc aff3 8dbd 8e78 173e
000003c0: b059 5dbc 4b74 063e 3ae4 a3bd 0a41 a83c
000003d0: 22b3 833d cbd6 d53d da23 fe3d 449d 893d
000003e0: 590a c5bd 3c22 ed3c bcaf 243c a633 883d
000003f0: 9044 85bd df18 063b cd83 f6bc 7ca1 9d3c
0.13603495 -0.07522516 -0.022851987 -0.082322694 -0.12910305 0.02592872 0.049762726 0.11621192
0.0025360591 0.01235881 0.15821408 -0.07202838 0.006974048 0.09149881 0.07792846 -0.116368495
0.09536841 0.0019438355 0.1198767 -0.072983794 0.09308885 -0.015635017 0.088521935 0.08612439
0.1615144 -0.038847104 0.14752702 -0.10642264 0.021771057 -0.072701655 0.051644545 -0.10171425
-0.12705332 0.08492422 -0.039950084 -0.043845344 -0.031914573 0.17045812 0.12884541 -0.057402343
0.08948379 -0.098536186 0.0009585042 0.13042913 0.1269962 -0.069884025 0.1308681 0.03594687
-0.071321934 0.057175606 0.06674643 0.09512332 0.0702934 0.07506768 0.06525752 -0.0047263624
0.08970704 -0.014449177 -0.124453165 -0.08334558 0.14038932 0.0068917773 -0.031017588 0.13340946
0.12189141 -0.027461551 -0.1659183 0.05666561 0.011662752 0.0545398 0.022686528 0.13069081
-0.124207735 0.123074174 -0.110357724 -0.09223317 0.08395625 -0.04853853 0.11231023 -0.08203601
0.011852596 -0.0039316253 -0.02781334 -0.014256926 0.052035872 -0.051875487 0.14976606 0.09079445
-0.037685897 -0.02123961 -0.017790247 0.061871953 -0.04920434 0.063718714 0.12612484 -0.086915396
-0.0259595 0.07751275 -0.063498035 0.1045809 -0.06486529 0.020907532 0.011461602 -0.095198095
-0.04708753 -0.008875799 0.14399166 0.10655192 0.07853466 -0.14464162 0.03458878 -0.051054966
-0.068850294 0.06415429 0.02520214 -0.11124346 -0.08164965 0.15093315 -0.021690223 0.09104624
0.13751726 -0.01192734 0.039161865 0.14561196 0.13329974 0.061280083 -0.12799507 -0.09120549
0.046423126 -0.13989711 0.085845985 -0.08088569 0.121207274 -0.023935659 0.038895804 0.059991587
-0.1126613 0.07594714 -0.09137994 0.038892403 0.17138651 0.024262778 0.009404451 -0.100656636
-0.045980625 -0.07862241 -0.15803553 -0.0017481763 0.024469724 -0.0825422 0.0951752 -0.056310542
-0.15082774 0.01242768 -0.13587436 0.11237408 -0.10449368 0.01716074 -0.1248355 0.017273743
0.071214475 -0.13423635 0.11192944 0.04669625 -0.08804007 0.029537799 0.08822527 0.0975018
-0.00066865445 0.0140344305 0.09525444 0.05763756 -0.15129767 -0.04678677 -0.095248476 0.15839942
0.08675326 -0.018960096 -0.088079125 -0.05416203 0.06750993 0.022238178 -0.072914645 -0.092774026
-0.120898224 -0.0045987433 0.033837933 0.11126439 0.19061452 0.05009694 -0.15104122 0.07836616
-0.025179055 0.039634664 0.00263269 0.028353205 0.025189979 0.062479343 -0.011883644 0.08908685
0.09620261 0.09892237 0.081669115 0.04128172 0.0150382165 0.12194577 0.0006209951 0.10583435
0.075768046 0.082986444 -0.06471822 0.02628617 -0.07245151 -0.01872839 0.08015872 -0.026438951
0.07772328 -0.029739091 0.14534128 -0.06867855 0.113739006 0.03486747 0.06276969 0.09927223
0.08869704 0.04199593 0.08793869 -0.024803888 0.07716148 -0.08207675 -0.014832349 -0.092545494
0.029566506 0.09707605 0.06225976 -0.0056081046 0.08218529 -0.022535458 -0.069312446 0.14792082
-0.013510153 0.131303 -0.08002515 0.020538826 0.06430651 0.10441359 0.12409182 0.06719449
-0.09621114 0.028946988 0.010051664 0.06650476 -0.06507218 0.0020461602 -0.030092144 0.01924204

bias_hh_l0 f4 [256]
00000000: 985a 943c 5893 233d bc76 bc3d 7931 8ebc
00000010: 8734 6e3d 2bb3 2f3e a2c1 1c3e 0b26 073d
00000020: e2cb c1bd 609b a53d 5041 bebb bce1 bf3d
00000030: cbef 5ebd 6562 e93b ac0a 3b3d 4345 d43d
00000040: d2ce 08bd c8b3 3b3e 07ae 923d d6d1 513c
00000050: a1a5 c93a 6eed bb3d c540 c53d 3d87 8bbd
00000060: 1d52 093e 3e66 53bd b3f5 083e 9bbe 7a3d
00000070: e3ae 683c f42b 173d 7f91 033e 94b2 8d3d
00000080: fcb6 02be 5619 49bd df9e 203e 4847 0b3e
00000090: 8859 8e3d 290e 163e e7f4 723d eb76 05bd
000000a0: 0169 4e3d 2d82 dabd 1edd 2f3e e47f 5dbd
000000b0: 67e9 363e 978b c23d da16 fb3d 5874 fe3c
000000c0: 4855 0c3e 94b5 923d 3682 b83d 37eb 153d
000000d0: 62b1 093d 3bf9 243e 903b 183e 4b97 16bc
000000e0: d651 913d da66 c33d f287 af3d cfb4 863d
000000f0: 470a 3a3e 4a77 993d d8b1 b6bd 72bc 01bd
00000100: a06b 243e 67bd cdbc c249 0fbe 0142 973b
00000110: 01c4 3ebd 4b83 833d 88c4 8dbd a110 273e
00000120: 9060 75bc 7cbb ec3d 00f8 93bd bdb1 ca3d
00000130: f033 483d 5387 403c f505 68bd 8766 87bd
00000140: fc55 e13c 8c44 a1bd 53f9 3e3d d4dd b53b
00000150: ba37 193e dbe6 1dbc 8789 5bbd 2b50 edbd
00000160: bc9d 0d3e 4021 9a3d a8aa 81bd 3d5d ebbd
00000170: 293a 83bd 4a08 d4bd fb2e af3d c3cc 8f3d
00000180: 4928 ff3d 396d 253e d26e 8dbc 7718 81bd
00000190: a05f ef3d 7876 fbbc 1bce c63d 264a 7e3d
000001a0: 8248 9838 9ddc 833d d2a8 acbd bb6a 9a3d
000001b0: 80eb ee3d 7e7f c5bc d9f6 d73d 156b 23bd
000001c0: 1993 103d 2b48 eb3d 99f8 963d efed f73d
000001d0: b82d f33d 035b 81bd 8864 f73d 473c ca3d
000001e0: 234b f93d 2383 023e 1805 e7bd 240d 513d
000001f0: 1746 d93b 5fc9 eb3d 8689 b73c 0604 593d
00000200: 9139 b0bb f4bd b33c 6d5e 783d 0489 a43d
00000210: aae1 babd 91d6 96bd a6e9 633d 2c30 843d
00000220: 3526 033d 85a8 e43d 6dde 393d 9b6d 11be
00000230: cd44 273d 689a 383d 96cc 033d 9e9c 36bd
00000240: cfe6 1cbe a67b 033e 1f77 16be 4d37 643d
00000250: 809e c1bd 8e7a 303d 8fda e53c 93da e7bd
00000260: 95b5 e8bd 9192 063e a3b3 90bb bd69 143e
00000270: 49d3 0bbe 8c1b 023c 13a2 8e3d e739 6b3d
00000280: efce 9ebd d3d7 cebd 403f 3bbd 32d1 0d3e
00000290: 1333 1e3d 19a7 443d 2bae b63d 74a4 11be
000002a0: 34f9 00be 7794 0d3e 45c0 343d ef2f 483d
000002b0: 343a f93c 22dd a43d 748e abbb 1839 953d
000002c0: aab6 1f3e e70a 71bd 98d1 b03d 4f64 f03c
000002d0: cb39 923d 653f f13d 604e 1abe 17f5 893d
000002e0: 7b9c 203a 10d6 5ebd 5aad b3bd 7e11 663c
000002f0: a41f 733d 8ba1 35be 0a2b edbd 79e6 1a3d
00000300: 78c7 a8bd e03f afb8 86e3 2f3d 8178 64bd
00000310: 2ed4 353d b4a2 e93a db42 f53d 9886 0fbb
00000320: 127a 843d 17c0 77bd 213f 9b3d 7093 ec3d
00000330: 4a9a c8bd 99eb c5bd 5e93 fb3c f0e2 983c
00000340: 2ba3 e93d 76f4 4dbd a4bc 4b3d 112b 023d
00000350: ef19 acbc e881 41bb c963 3b3d 24f3 9fbc
00000360: 690b 10bd 6972 8cbd 1817 a63d 19e8 023e
00000370: 3b90 0b3e 749a 1a3e 2bfc 2dbd fb3d a4bd
00000380: 7342 c8bd 9761 223d 59fe dc3b 209c fb3c
00000390: d9b1 be3d f911 fe3d a928 a03d e02a 9c3d
000003a0: 295f c0bd 5875 edbc fe76 c4bd 81ea 94bc
000003b0: e165 4e3d 7bd9 1b3c 279b d63d 5fe3 97bc
000003c0: f614 6cbd 7662 173d 8f79 d33d 0170 033e
000003d0: a135 4f3d 9c53 9d3d cc4e 80bc 87ee 55bd
000003e0: d982 843d 2393 31bd 29f5 ea3d 4852 1c3e
000003f0: 2e0d 243e 551e bdbd 6d0f e1bc 015c 5ebc
0.018109605 0.03993544 0.09202334 -0.017357575 0.058155563 0.17158191 0.1530824 0.032995265
-0.09462716 0.08086276 -0.0058061257 0.09369227 -0.054427903 0.0071223252 0.045664474 0.10364773
-0.033400364 0.183303 0.07162099 0.012806376 0.0015384444 0.091761455 0.096314944 -0.06812904
0.1341023 -0.051611178 0.13374977 0.06121693 0.0142018525 0.03690715 0.12848471 0.06918827
-0.12765115 -0.049096428 0.15685605 0.1360141 0.069506705 0.14653839 0.05931559 -0.032584112
0.05039311 -0.1066936 0.17174193 -0.054077044 0.17862473 0.09499281 0.12260218 0.031061336
0.13704407 0.071635395 0.09009211 0.03660127 0.03361643 0.16110699 0.14866471 -0.0091913445
0.07095687 0.09541102 0.085708514 0.06577455 0.18167983 0.07493456 -0.0892064 -0.031673856
0.1605668 -0.025114728 -0.1399298 0.0046160226 -0.046573643 0.064215265 -0.06922251 0.16314937
-0.014976636 0.11559197 -0.072250366 0.09897182 0.048877656 0.011751014 -0.056646306 -0.066113524
0.02750682 -0.078744024 0.046624493 0.0055501256 0.14962664 -0.00963756 -0.053597953 -0.115875565
0.13829702 0.07525873 -0.06331378 -0.11492393 -0.064075775 -0.103531435 0.08553883 0.07021477
0.12458856 0.16154946 -0.017264757 -0.063034944 0.11688161 -0.030696139 0.0970728 0.062082432
7.2614304e-05 0.06438563 -0.084306374 0.075398885 0.11666012 -0.024108645 0.10545129 -0.039897043
0.035296533 0.11488374 0.07371635 0.12105929 0.118739545 -0.06316187 0.12079722 0.09874778
0.12172534 0.12745337 -0.112802684 0.051037923 0.00663067 0.11513018 0.022404443 0.052982353
-0.005377956 0.021941163 0.060636926 0.08033946 -0.09125073 -0.07365144 0.055642746 0.064545006
0.03201886 0.11164955 0.045378137 -0.14201967 0.040837098 0.04506913 0.03217753 -0.044582956
-0.15322421 0.12840137 -0.14693879 0.0557168 -0.094540596 0.043085627 0.028058318 -0.113209866
-0.11362759 0.13141848 -0.0044159456 0.14493461 -0.13654818 0.007941138 0.06964507 0.057428267
-0.07754313 -0.10099759 -0.045714617 0.13849333 0.038622927 0.04801092 0.08919939 -0.1422289
-0.12595063 0.13826166 0.044128675 0.048873838 0.030423261 0.0804999 -0.0052354876 0.072862804
0.15597025 -0.058848288 0.08633727 0.029344706 0.071399294 0.1177967 -0.1506896 0.067362
0.0006126833 -0.054403365 -0.087732986 0.014042256 0.059356347 -0.17737405 -0.11580475 0.037817452
-0.08241171 -8.356548e-05 0.042941593 -0.055778984 0.044391803 0.0017824979 0.11975642 -0.0021900292
0.064685956 -0.060485926 0.075804 0.11551559 -0.09795053 -0.09664077 0.030709919 0.0186629
0.11408075 -0.050281964 0.04974045 0.031779353 -0.02100846 -0.0029526893 0.04574946 -0.019525118
-0.03516713 -0.068577595 0.081098735 0.1278385 0.13629238 0.15097982 -0.042476814 -0.08019634
-0.09778299 0.03964385 0.006744188 0.030714095 0.093112655 0.12405772 0.07820255 0.07625365
-0.0939315 -0.028986618 -0.095930085 -0.018178226 0.050390128 0.009512301 0.10478812 -0.018541036
-0.057637177 0.036959134 0.1032592 0.12835695 0.050588254 0.07681963 -0.015662573 -0.05222943
0.0647027 -0.04335321 0.11472542 0.15265763 0.16020653 -0.09234301 -0.027473176 -0.01357174

weight f4 [32, 64]
00000000: 2b75 18be 65db e1bd 764e 6abd e2ab 83bd
00000010: bb55 5ebc fc78 01bd 3097 a13d 7344 983d
00000020: ff58 873d 2a94 5a3c bbac c3bd cd80 fe3c
00000030: 53ae 6dbb 4210 503c a360 02be 5ab3 0b3d
00000040: ae8f 8b3c 391d 6d3d aac0 06be cc38 d6bd
00000050: 7399 10be a2ec d93d 4b5b a03d 4ba7 3ebd
00000060: f695 f43b 465a 753c 9ff0 1dbe cbdd ba3d
00000070: 5715 2e3d dc4a 2b3e a1dc f5bd b002 b4bc
00000080: 5e0c aa3d 4a6d 55bd 89f7 c13d b642 70bd
00000090: 0895 10be ab87 f6bd 1b0f 8f3d ab51 333d
000000a0: 0400 cdbd 4673 03bd ffe1 083e 2100 5a3d
000000b0: 3bf2 0bbe 3ce5 ac3d cfa8 1cbe 9db7 2a3c
000000c0: b924 f13c ac5c a8bd 5070 e23b 0169 b1bc
000000d0: f6fc 303d 10d8 143e cb66 a7bd 63ac d7bd
000000e0: d227 a7bd 1591 e83c be3d 96bc 9ee9 223e
000000f0: ad19 0d3e 71e3 713d 994c 143d 63a7 52bb
00000100: 791d 9dbd 872a 5f3d e2f3 073e 9b6c 06be
00000110: 9b96 c3bd 7a3d 56bc 5833 0cbe fcf8 503d
00000120: 5992 b6bc 44ce cfbd e244 b5bd 021d b13d
00000130: 6858 71bd 40f9 edbd 5071 a73d e95f 0f3e
00000140: eb2c ae3b 5e65 cb3b 6fef 123d c219 e8bd
00000150: a624 5b3d ab9c cbbd 21ff 813d 6bff 5a3d
00000160: 366b e9bd cb95 debd df1b 843d dc51 913d
00000170: 34d0 51bc 5734 a53d 42e7 f3bc e9c1 9d3c
00000180: 030b babc 2c09 c33c 3e8b b9bc fa40 853d
00000190: 7baa efbc f0bc c93d 7776 463d 28e8 8bbd
000001a0: 9a76 a8bb a29e 853d 99aa 03bd 62b2 debc
000001b0: 7e3a ce3c 9058 953c 58b7 7b3c 8036 c13d
000001c0: 9377 55bc 0aae 123d a676 21be 8a7e adbd
000001d0: fe19 1fbb 3b87 f1bd 101f 6d3c 99e1 8b3d
000001e0: 82d5 f6bd f273 b4bc cdf5 2d3d 8d1e be3d
000001f0: c02c b73d 7492 b2bd 7198 dcbd 60c2 8dbd
00000200: 587d cc3d b00f 863d 40e4 01bb da3c dc3d
00000210: 1c61 1e3d 70eb 28bd f09b a23c 1e81 853d
00000220: 048d 24bd 305e 53bc fa98 c3bd d871 f23c
00000230: 66b9 9dbd c067 a4bd c2c7 cabd 9234 d43d
00000240: 3c02 7bbd d631 cfbd fa9a b4bd 14f6 5b3d
00000250: 4e5a d9bd c084 88bb 9297 ce3d 302d 60bc
00000260: b6d7 ae3d f258 cd3d 3ce5 fb3d 842b d73d
00000270: 4235 ba3d b031 b9bc acd0 97bd 0a6a a23d
00000280: 105b 313c 46cd aa3d c6cb bc3d ee5b c8bd
00000290: 8032 413c 9c76 d43d 7e66 c3bd 506a b93d
000002a0: 68f7 913c 9ae8 9dbd 502a 9abc 788c 703d
000002b0: 70b1 0cbc c487 b83d 3c48 ba3d 30f0 8dbd
000002c0: 36c3 e5bd 4087 a93c f0be 663c 1e1c b63d
000002d0: 5847 dbbc 2e7d 9dbd 343e a83d 2cfa a2bd
000002e0: 3aa3 e23d a873 913d da8c 98bd eafd d5bd
000002f0: bcca 08bd 34f2 c0bd c493 5bbd 200f d7bb
00000300: ab7f 14be 3e13 02be 102e b3bd 8dad d53d
00000310: 7d3d 6d3d 88df 10be 7eca a63d cd9c 7a3d
00000320: 642e fb3c dde7 afbc eb3d 2dbe df37 e3bd
00000330: a386 563d dde8 2ebe aa91 0cbe db99 023d
00000340: 60b6 febd 2fcb e0bc b29b 1cbe f076 fabd
00000350: 3e84 f4bd d274 01bd 3f93 1dbd ad65 e4bd
00000360: e7ff f3bc 8b8e dd3d 12c2 31bd 7e9d d4bc
00000370: 8e91 703c 907d 2e3d a5b7 dcbd 7ae2 133d
00000380: d2c6 553b ef3e 063d dc40 fb3d 1a27 7ebc
00000390: 7b3e 2d3d acab b8bd 3124 d03d 89b6 1ebd
000003a0: 1079 b43d 5c75 ae3d a611 f13d 530b 173e
000003b0: a279 e03c 3fde 023e 8f83 403a 75e2 9e3d
000003c0: dec4 b93d 37bd 16bd f7e1 4a3d 8388 6ebb
000003d0: 5e3a 733d f6ae a2bd 2233 9bbd 971f 9e3d
000003e0: 4f18 363c 1a28 c2bd e09f c93c 6983 193e
000003f0: 745b 573c feca 4bbd 6f2e 55bd af72 1fbd
-0.14888446 -0.11028174 -0.057203732 -0.064292684 -0.013570244 -0.03160952 0.07890165 0.07434931
0.066087715 0.013340989 -0.0955443 0.031067276 -0.0036267235 0.012699189 -0.12732176 0.03410659
0.017036285 0.057889197 -0.13159433 -0.10460052 -0.14121036 0.10640837 0.07829913 -0.04654626
0.007464166 0.014975136 -0.15423821 0.09124335 0.04250082 0.16727775 -0.12004972 -0.021973938
0.0830314 -0.05210618 0.09471042 -0.05865737 -0.14119351 -0.12037595 0.06985303 0.043779057
-0.100097686 -0.032092355 0.1336746 0.05322278 -0.13666622 0.084421605 -0.1529877 0.010419753
0.029436456 -0.08220801 0.0069103613 -0.021656515 0.043209992 0.14535546 -0.08173903 -0.10530927
-0.08161892 0.028389493 -0.018339988 0.1590943 0.13779326 0.059054796 0.03620586 -0.0032143227
-0.07671637 0.054483917 0.13276628 -0.13127367 -0.0955021 -0.013076181 -0.13691461 0.0510187
-0.02228658 -0.10146764 -0.08851029 0.08648111 -0.0589222 -0.11619806 0.081759095 0.1400143
0.0053154132 0.0062071523 0.035872873 -0.11333038 0.053501748 -0.099419914 0.0634749 0.05346624
-0.11397402 -0.108684145 0.064506285 0.070956916 -0.012805987 0.08066624 -0.029773358 0.019257503
-0.022710329 0.023808084 -0.022649404 0.06506534 -0.029256096 0.0985049 0.04845282 -0.0683139
-0.0051410915 0.065243974 -0.032145116 -0.027184669 0.025174376 0.018230706 0.015363537 0.09434223
-0.013028997 0.035810508 -0.15767917 -0.08471401 -0.0024276967 -0.11793371 0.014472738 0.06830139
-0.12052442 -0.022027943 0.042470742 0.09283171 0.08944082 -0.0871934 -0.107712634 -0.0692184
0.09984845 0.06545961 -0.0019819885 0.10753794 0.03866683 -0.041240156 0.019849747 0.06518768
-0.040173545 -0.012900874 -0.09550662 0.0295953 -0.077013776 -0.08027601 -0.09901382 0.103615895
-0.061281428 -0.10116927 -0.08818622 0.053701475 -0.106129274 -0.0041662157 0.100875035 -0.013682649
0.08537237 0.100267306 0.12299582 0.10506347 0.09092189 -0.0226067 -0.07412848 0.079303816
0.010824934 0.08339934 0.09218554 -0.09783159 0.011791825 0.103741854 -0.09541033 0.090534806
0.017818168 -0.07710381 -0.018819004 0.05872771 -0.008587226 0.0901027 0.09095809 -0.06930578
-0.11218874 0.020694375 0.014083609 0.08892082 -0.026767418 -0.07689892 0.08214989 -0.07957873
0.11066289 0.07102138 -0.0744874 -0.10448821 -0.033396468 -0.094211966 -0.053607717 -0.0065630823
-0.14501826 -0.12702653 -0.0874902 0.10433493 0.057919968 -0.1414777 0.08144091 0.061184693
0.03066177 -0.021472866 -0.16918151 -0.11094641 0.052374493 -0.17081018 -0.13727441 0.03188501
-0.12437129 -0.027440635 -0.15293768 -0.12229717 -0.11939286 -0.03160555 -0.038470503 -0.111522056
-0.02978511 0.108182035 -0.04339797 -0.025954004 0.01468314 0.042600214 -0.10777215 0.036104657
0.0032619727 0.032774862 0.1226823 -0.015512252 0.042295914 -0.09017119 0.10163153 -0.038748298
0.08812153 0.08518478 0.11770944 0.14750414 0.027401749 0.12780093 0.00073438225 0.07758037
0.090707526 -0.036801543 0.049531903 -0.0036397285 0.059381835 -0.079435274 -0.07578112 0.07720869
0.011114194 -0.09480305 0.024612367 0.14991535 0.013144363 -0.049754135 -0.052046236 -0.03892773

bias f4 [32]
00000000: 7a51 8f3d 8268 d9bd a48f edbd 55e6 a13d
00000010: cf15 e4bd 599f a03d de20 933a 0958 ae3d
00000020: 3853 d2bd 4660 2bbc 1972 c23d 0f3b 903d
00000030: b4be f33d 835f 2cbb e0f2 a7bd e83c b2bd
00000040: 820a 21bd e7c2 5a3d 6cc0 f6bd a8c2 963d
00000050: 8dac a43d 61c3 3bbc 0924 38bd 5557 7e3d
00000060: 3b17 dfbd 57d2 7e3b 1802 2f3d bb9f 363d
00000070: f7c5 42bd 0e12 363e 48a7 d63d 7f4e 223c
0.06997962 -0.106156364 -0.11599663 0.079052605 -0.11136972 0.07842893 0.0011225005 0.08512885
-0.10269779 -0.010459965 0.09494419 0.070425145 0.11901608 -0.0026302047 -0.082006216 -0.08703023
-0.03931666 0.05340853 -0.1204842 0.073613465 0.08040724 -0.011460156 -0.04495624 0.062095005
-0.10893103 0.0038882697 0.042726606 0.044585925 -0.047552075 0.17780325 0.10481125 0.00990641

weight f4 [6, 32]
00000000: 4ae7 033e e3ca 3fbd 56a4 be3d 6a8e 5e3d
00000010: c809 1ebc 43c6 293e f3c0 7ebc 1fad d5bd
00000020: 7f6c e73d 26df 0dbe fcc2 d2bd bd14 11be
00000030: 5d30 1a3d 16e7 fb3d 05df 9d3d dd03 0c3e
00000040: b25c fdbb 997e ec3d 569c 12be 603b e73d
00000050: 1b2e 92bd 302a 22be c9ac f4bd b51a 28bd
00000060: 1ee4 c13d 471a 193d f0e4 feba 9fe2 2a3e
00000070: 1a1a cbbd afb8 1c3c 7c52 bc3d c65b 42bd
00000080: adcc 26be ddae 4f3d f45f bcbd 32a2 893d
00000090: aedb 8b3d 95c4 fcbd 17f0 38be 0a72 053b
000000a0: ec0b 25be f463 02bb bae9 f8bd ad1f 10be
000000b0: 4622 8a3d a5e9 19be f177 11be 55ab 1d3e
000000c0: 9c0f babd 8e0c 7b3d c0db ee3b 89c8 423c
000000d0: ec94 21be a0b9 083d ae07 b8bd c984 11bd
000000e0: c20f 5bbd 7ba0 efbc 0461 34bd 5040 20be
000000f0: 0c13 94bd e5b4 8cbd 8e58 08be e913 ab3b
00000100: f025 c2bd ab0f d33d 4090 03bb dc58 2b3e
00000110: 0e30 1b3e 024e 25bd f133 863d 1225 aebc
00000120: 204c 07bd 0a27 153d 55f4 0bbe 531a 18be
00000130: 36ca f1bc cfa7 16be 7b64 c63d 23ec babd
00000140: 32bd eb3d fc16 df3d b0d6 28bc 3162 02be
00000150: e7d4 bf3d 22ad cabd ecd9 bfbd 6b24 e0bd
00000160: b605 a13d ecf7 7a3a 0f56 fc3d 247c 3f3e
00000170: f965 97bd 0a91 83bd 97f9 8fbd 5578 063e
00000180: bbed 23bc 580c e6bd 7027 3ebd 0de3 f2bd
00000190: 63fd 413e 5c47 49bd 8838 ff3d 1327 383d
000001a0: d434 fbbd 4751 b7bd dfb1 fb3d bb4f 1f3e
000001b0: 72f0 df3d 4be0 6d3d afbf 083d 3547 0ebe
000001c0: ed86 5ebd fe8c 0ebd b2cf f63d 928b 853a
000001d0: ec9d cfbd 3c3c e63d a3e2 0a3e a660 313e
000001e0: a8e4 06bd 2153 613c 16b9 f93c b759 ca3d
000001f0: 79d4 ee3d 4938 f93d 2fcd 973d 3ce4 82bd
00000200: c369 e4bc fe27 123e adec 013e 2472 633d
00000210: 0504 10be 19fc bbbd 99a4 b7ba 3fa7 45bd
00000220: 6cb8 ed3d ac51 53bc 9152 203e 0dfe 1b3e
00000230: 988b e9bd 9e0d e73d ff39 f73b 626e da3d
00000240: 2206 14be cda5 16be aaf6 debd 1883 24be
00000250: 7139 fdbb 1db7 aa3d 0a0f 193e 1e25 f03c
00000260: ba34 f23d 162c 49bd 6fa8 e13c 1214 eebd
00000270: 27e9 30bd 3eda ccbc 9a5f 9e3c 9532 9b3d
00000280: 16ae ac3b f386 3f3c ddbd 2b3e db58 f83d
00000290: 75f6 04be 70aa 8a3d 6987 00be c05b 9bbc
000002a0: 8d79 083e a82c 6dbc 4105 ddbc 5e10 5dbd
000002b0: 7da1 343e c410 b5bd 3571 b3bd 0087 f93b
000002c0: 1727 f43d 6454 223e 30ee a63c de4a 0abe
000002d0: 9bf8 66bd 2e00 153e 86c9 4f3d 2ae8 893d
000002e0: f720 e8bd 3f63 ad3c 47a1 8fbd 7258 553d
000002f0: db5f 98bd c794 2b3d ec89 81bd 731c 1fbd
0.12881199 -0.046824347 0.09308688 0.054335035 -0.009645887 0.16579537 -0.015548932 -0.10433411
0.11299991 -0.13854656 -0.102910966 -0.14168067 0.03764378 0.122999355 0.07708553 0.13673349
-0.0077319974 0.11547584 -0.1431745 0.11290622 -0.071377 -0.15836406 -0.11947019 -0.041041095
0.09467338 0.037378576 -0.0019446891 0.16688012 -0.09917088 0.009565516 0.0919542 -0.047450803
-0.16289015 0.050703872 -0.09197989 0.067203894 0.0682901 -0.123421825 -0.18060337 0.0020362162
-0.16117829 -0.0019896002 -0.12153955 -0.14074583 0.067448184 -0.15030535 -0.1420591 0.15397389
-0.090850085 0.06129127 0.00728938 0.011888632 -0.15779465 0.03338015 -0.0898584 -0.035527024
-0.053481825 -0.029251328 -0.044037834 -0.15649533 -0.072301954 -0.068704404 -0.13315031 0.0052208793
-0.09479892 0.10305723 -0.0020074993 0.16733116 0.1515505 -0.040357597 0.06552876 -0.02125791
-0.033031583 0.036414184 -0.13667424 -0.14853792 -0.029515367 -0.14712451 0.09687134 -0.09127071
0.115106955 0.10893056 -0.010305092 -0.1273277 0.0936678 -0.09896304 -0.09367737 -0.10944446
0.078624174 0.00095736864 0.12321102 0.186997 -0.073924966 -0.064241484 -0.07030027 0.1313184
-0.01000541 -0.11232823 -0.04642433 -0.11859713 0.18944316 -0.04914032 0.12461954 0.04495914
-0.122659355 -0.08951049 0.122897856 0.15557759 0.10934533 0.05807523 0.03338593 -0.13894351
-0.054327894 -0.03480243 0.120513335 0.001018869 -0.10137543 0.112419575 0.13563018 0.17322025
-0.032932907 0.01375273 0.030483764 0.09880393 0.1166162 0.12168939 0.074121825 -0.063911885
-0.027882462 0.14273068 0.12687941 0.055528775 -0.14064033 -0.09178943 -0.0014010846 -0.0482552
0.11607441 -0.01289789 0.15656497 0.15233631 -0.114035785 0.11281894 0.0075447555 0.10665585
-0.14455464 -0.14711685 -0.10886891 -0.16065633 -0.007727795 0.08335707 0.14947143 0.029314574
0.11826463 -0.04911431 0.027546136 -0.11624922 -0.0431911 -0.02500641 0.019332696 0.07578007
0.005269776 0.011689889 0.16771646 0.12126323 -0.12984641 0.067707896 -0.12551655 -0.018964648
0.13327618 -0.014475979 -0.026980044 -0.053970687 0.17639728 -0.088410884 -0.08761827 0.00761497
0.11921518 0.15852505 0.020377249 -0.13505122 -0.056389432 0.1455085 0.050729297 0.06733735
-0.113344125 0.021165488 -0.07013183 0.0520863 -0.07440158 0.041889932 -0.06325135 -0.03884549

bias f4 [6]
00000000: 64ca 723d 964b fe3d 2f2a 1b3e af19 25bd
00000010: 4d61 fdbd 54ed fd3d
0.059275046 0.124167606 0.1515281 -0.040307697 -0.12372074 0.12398782

weight f4 [2, 32]
00000000: 277b 103e 23f1 cc3d 2ce9 863d d909 1abc
00000010: 776e 96bd 8420 76bc d742 6fbd 3650 bbbc
00000020: feb4 4cbd c42e 5dbb 63c2 0cbd b4b2 c4bc
00000030: b698 cb3d 4030 533e f645 81bb b0f5 9cbc
00000040: 6a15 023e d0f7 abbd b23b 5dbd e8a3 22bd
00000050: f1b7 ad3d 57bb 1a3e b9d5 2e3e 8871 06be
00000060: 00d7 393b f596 503c b58f fdbc 006e f2bd
00000070: a372 26be ef99 17be 868f 85bd 4b8f abbd
00000080: cdcb 233e 0485 62bd b73b c4bd bd07 bcbc
00000090: dd13 5cbd 81ac a4bd f876 1ebe 0920 03be
000000a0: 71c6 4fbe 8429 c7bd b6c9 893d 75c6 01bd
000000b0: 307b 403d 74e9 3cbd d84c 443d fab4 af3d
000000c0: 22f9 363d f6a8 c93d 927e ae3d eea1 043e
000000d0: 43e6 09be 7c8c 0abe 491e e33d 1b49 36bc
000000e0: 32e0 853d ebb0 813d 46f0 7bbd 6c54 2c3e
000000f0: 5929 2d3e 9535 4fbc c2e4 2dbe 84c1 193d
0.14109479 0.10006931 0.06587443 -0.009401762 -0.07345288 -0.015022401 -0.058413353 -0.022865396
-0.049977295 -0.0033749798 -0.03436507 -0.024010994 0.09941237 0.20623875 -0.0039451076 -0.019160122
0.12703481 -0.08396876 -0.054012008 -0.039707094 0.0848235 0.15110527 0.17073716 -0.13129246
0.002835691 0.012731303 -0.030952314 -0.11837387 -0.16254668 -0.14804815 -0.065215155 -0.0837694
0.15995713 -0.055302635 -0.09581702 -0.022952909 -0.05372988 -0.08040715 -0.1547507 -0.12805189
-0.20290543 -0.09724715 0.067279264 -0.031683404 0.04699248 -0.046121076 0.047924846 0.085794404
0.044671185 0.0984668 0.08520235 0.12952396 -0.13466744 -0.13530153 0.11089761 -0.011125828
0.065369025 0.063325725 -0.06150844 0.1682908 0.16910304 -0.012647052 -0.16981795 0.037538067

bias f4 [2]
00000000: ca98 19be d35b 15be
-0.1499969 -0.1458581

weight f4 [1, 32]
00000000: ebd9 233e 518e 3c3e 38b8 673d 4d3d 563e
00000010: 49ac c4bd ad01 643d 3db9 843d ae41 c23d
00000020: 3250 25be 54bc 933d 9b78 e23d 0cc8 2fbd
00000030: f3bb dc3d 353b 94bc 443d 12be c36b 213e
00000040: c472 01be 012a 103e 665d 04be 4f3b ae3d
00000050: fe7b 463d 195c 1d3e de3f 033e 24d4 be3d
00000060: a907 e9bc 1202 24be bde5 b0bc 615c 1f3e
00000070: caf7 d73c 439b 913d b425 d3bd 8263 b9bd
0.16001098 0.18413664 0.05657217 0.20921822 -0.09603173 0.05566566 0.06480644 0.09485184
-0.16143873 0.07213655 0.1105816 -0.04291539 0.10778036 -0.018094638 -0.14281183 0.15763764
-0.12641436 0.14078523 -0.12926254 0.08507406 0.048458092 0.15367164 0.12817332 0.09317806
-0.028446035 -0.16016415 -0.021593923 0.15562584 0.026363272 0.07109692 -0.10309926 -0.09052183

exp_avg f4 [256, 25]
00000000: 794a 09b8 ad1a 6ab8 c998 bf37 f016 4836
00000010: fccf 42b6 b030 14b7 5c51 0837 c8e8 3b36
00000020: 22ed 0836 b11c b8b5 f40c 6db6 eef4 6736
00000030: f21f 3ab5 56d0 1837 e344 acb6 fa99 11b6
00000040: d983 3ab6 6784 dc37 a01d ca37 85c3 b437
00000050: 1cd4 65b7 6a71 8037 eaee c937 6e80 5eb6
00000060: 9e1a 9937 2ea8 9938 de00 4e3a c504 2f3a
00000070: 8c97 543a 8511 1aba 69b9 dbb9 6211 ebb9
00000080: 9b92 08b9 f930 8a38 4dcb 9438 2646 8538
00000090: 7f06 1839 1c2a 4db7 4394 b939 05d7 e338
000000a0: 371a 14b7 3f1e 14b7 adef b63a a18b 2e3a
000000b0: e94a de3a 1be8 3e3b 3084 463a 6715 8b3a
000000c0: bdec b63a d841 433a 39aa 42b7 ee80 a8b8
000000d0: 2956 8ab8 f087 81b8 56f5 3db8 d8ad 61b8
000000e0: ba20 98b8 760b f5b7 fb6b 7eb7 f02f 2036
000000f0: 1376 0fb7 af57 76b6 c194 0736 80a0 64b6
00000100: f125 36b8 d6aa 50b5 9b2d b0b6 0f0c c3b9
00000110: 1565 69b8 e4b6 bfb8 6bdb 50b8 f3e0 9bb7
00000120: 7a4b 5336 17c5 8db7 2b63 e8b8 f1da 59b8
00000130: f189 1737 e15d cfb8 8898 0eb8 5500 cbb7
00000140: 5be4 e9b8 c21f 1a38 2621 2139 ca74 feb7
00000150: 6f84 1d37 915c 19b7 8d16 8436 d397 3836
00000160: db26 bd37 7246 98b8 af5a 3eb5 a84f 16b7
00000170: 9317 77b9 22f0 dab7 d5b2 7cb7 b56a f7b9
00000180: 8b40 06b9 cdbf adb8 5ee1 67b9 0716 4bb8
00000190: eed8 70b9 5caa 8db9 2db1 67b9 fcba 0fb9
000001a0: e9c4 c1b8 852f acb9 6299 b4b8 3166 dfb8
000001b0: bb06 ddb7 303d 59b8 b7cf 2cb7 8285 d835
000001c0: be20 dc35 b328 6cb8 43d4 d2b8 e162 4c35
000001d0: 846c f2b6 5d21 78ba 1246 13b9 8aa0 b0b9
000001e0: 3d9c dab9 90e7 93b8 e4b3 aab8 f41f 77b9
000001f0: af0f 9ab9 3330 f6b7 8c0f 3ab8 64c1 7d34
00000200: f4e5 39b7 7b06 3cb7 9708 40b7 f7dd 6336
00000210: 5cba 11b7 3431 8536 a614 15b6 1148 39b6
00000220: fe58 e636 c99f cdb5 63f1 ab36 2951 c3b6
00000230: a7c6 12b6 0b03 13b6 f766 bf37 8220 ac37
00000240: 9577 8237 e169 c4b7 ad67 8ab6 edee df37
00000250: 8c66 89b7 a029 7a37 4c9e bd38 36a8 9439
00000260: b268 2e39 bff0 0c38 8736 bb38 235e f238
00000270: ef0c 5a39 260f 8337 3fc0 2538 77d4 01b7
00000280: d0d1 18b7 f8ab 1eb6 a78f 7036 3429 24b7
00000290: d98c 5137 2de8 a532 bbc7 3437 4eb7 143b
000002a0: 4007 8039 989f e439 d1ef 03ba c8fa f8b8
000002b0: e52b b638 98d9 d5b7 d8d8 3e3a 212a 45b9
000002c0: 848c 45b8 26c8 3039 98c1 3938 fc12 acb9
000002d0: 83a4 cdb9 6f84 6eb9 6701 d5b8 c263 f837
000002e0: 9be2 54b8 d511 a7b6 302f 4738 ebdb a7b7
000002f0: 750c 8538 d15f f1b8 917d 3ab7 9596 b237
00000300: 5825 8eb7 86f8 8939 3931 6d39 8365 ed39
00000310: 4e51 3b39 8560 8e39 cdc6 3539 315c 0639
00000320: 4c00 18b9 7f50 23ba a183 28ba 5242 15ba
00000330: ddc7 0ab8 c8ac 16b9 8266 16b9 4355 c4b9
00000340: 0ba8 ebb8 77b1 9337 e579 8eb7 6f0e 79b9
00000350: bb21 ce37 8083 9ab9 80a9 3838 7215 a337
00000360: 4ea6 c037 5403 daba 1b0f fdb9 4113 b6ba
00000370: 3aa6 a4ba 773f ffb9 eea4 8aba f7ce 2cba
00000380: 66bf 44ba 0f21 16b9 c13a 3139 ab8e 5239
00000390: e31c f438 e563 f3b9 7b41 24ba 13ad 0aba
000003a0: 1f12 ccb9 5c4f 0bb8 0007 01b8 bb3f 2b37
000003b0: 8c59 5ab7 32fa 42b7 4f9e 9c37 5616 90b8
000003c0: 201a 05b6 e931 9b37 5767 9c3a 38f3 9139
000003d0: cf22 0c3a a884 963a fab8 a839 fc79 84b8
000003e0: ed59 283a 8dd0 0a3a 1abe f3b7 fe7a abb8
000003f0: 6a31 b7b7 f11f e736 3e45 7a38 e7db 05b6
-3.2732703e-05 -5.581479e-05 2.284012e-05 2.9815674e-06 -2.9029316e-06 -8.832823e-06 8.125175e-06 2.8000668e-06
2.0403609e-06 -1.3717419e-06 -3.5323292e-06 3.456425e-06 -6.9336886e-07 9.108413e-06 -5.134019e-06 -2.169631e-06
-2.7792905e-06 2.6287698e-05 2.4094072e-05 2.1548718e-05 -1.3698849e-05 1.5311602e-05 2.407232e-05 -3.3155334e-06
1.8251416e-05 7.3269344e-05 0.00078584056 0.0006676431 0.00081097404 -0.00058772444 -0.00041909076 -0.00044835644
-0.00013024585 6.589475e-05 7.095058e-05 6.3550004e-05 0.0001449827 -1.22287565e-05 0.00035396413 0.00010864254
-8.827591e-06 -8.82853e-06 0.0013956927 0.00066583796 0.0016959581 0.0029130045 0.0007572798 0.0010611237
0.0013956052 0.0007448471 -1.1602934e-05 -8.034879e-05 -6.596401e-05 -6.17652e-05 -4.52896e-05 -5.3806085e-05
-7.2540206e-05 -2.9211613e-05 -1.5164721e-05 2.3869761e-06 -8.5509555e-06 -3.6707895e-06 2.0203154e-06 -3.406807e-06
-4.3427517e-05 -7.773464e-07 -5.250518e-06 -0.00037202283 -5.564567e-05 -9.141656e-05 -4.9795413e-05 -1.858219e-05
3.1485383e-06 -1.6900287e-05 -0.000110810935 -5.1940737e-05 9.032418e-06 -9.8880155e-05 -3.3997494e-05 -2.419964e-05
-0.0001115284 3.6746038e-05 0.00015366505 -3.0333544e-05 9.388764e-06 -9.141063e-06 3.936532e-06 2.750651e-06
2.254865e-05 -7.261046e-05 -7.091248e-07 -8.959243e-06 -0.00023564538 -2.6099446e-05 -1.5062008e-05 -0.00047191014
-0.0001280328 -8.2850085e-05 -0.00022113833 -4.8419486e-05 -0.00022968996 -0.00027020543 -0.0002209588 -0.000137072
-9.2396345e-05 -0.000328418 -8.6116386e-05 -0.00010652503 -2.6348387e-05 -5.1793817e-05 -1.0300361e-05 1.613211e-06
1.6400807e-06 -5.630469e-05 -0.00010053117 7.613981e-07 -7.224795e-06 -0.0009465421 -0.00014045116 -0.00033688947
-0.00041696607 -7.052638e-05 -8.139739e-05 -0.00023567659 -0.00029384854 -2.934793e-05 -4.4360335e-05 2.3632816e-07
-1.1080399e-05 -1.1207182e-05 -1.1446092e-05 3.3954836e-06 -8.686064e-06 3.969437e-06 -2.221475e-06 -2.7609096e-06
6.864894e-06 -1.5320194e-06 5.1242982e-06 -5.820901e-06 -2.1871326e-06 -2.1906478e-06 2.2816921e-05 2.0519135e-05
1.5552892e-05 -2.3414324e-05 -4.12479e-06 2.669493e-05 -1.6379425e-05 1.4910853e-05 9.0417074e-05 0.00028354087
0.00016632935 3.3602813e-05 8.9270114e-05 0.000115569936 0.00020794918 1.5623471e-05 3.951811e-05 -7.7384675e-06
-9.108757e-06 -2.3643934e-06 3.5846404e-06 -9.784755e-06 1.2490164e-05 1.931411e-08 1.0775339e-05 0.0022692266
0.00024419464 0.00043606455 -0.0005032989 -0.00011872273 8.686612e-05 -2.5492904e-05 0.0007280237 -0.00018803078
-4.7099325e-05 0.00016859229 4.4287735e-05 -0.0003282054 -0.00039223218 -0.00022746784 -0.00010156893 2.9610357e-05
-5.075578e-05 -4.9790638e-06 4.7489244e-05 -2.0010359e-05 6.3442545e-05 -0.00011509623 -1.11157e-05 2.1289374e-05
-1.6945109e-05 0.0002631584 0.00022620418 0.00045279795 0.00017863998 0.00027156263 0.00017335564 0.0001281358
-0.0001449596 -0.00062299514 -0.00064283056 -0.00056937814 -3.30879e-05 -0.00014369481 -0.00014343302 -0.00037447558
-0.00011236974 1.7606404e-05 -1.698448e-05 -0.00023751867 2.457282e-05 -0.00029471144 4.4026878e-05 1.94411e-05
2.2965625e-05 -0.0016633072 -0.00048267175 -0.0013891236 -0.0012561746 -0.00048684675 -0.0010577717 -0.00065921195
-0.0007505327 -0.0001431743 0.00016901923 0.00020080309 0.00011640207 -0.00046423 -0.0006265861 -0.00052900723
-0.00038923413 -3.321409e-05 -3.0762516e-05 1.0207233e-05 -1.3014662e-05 -1.1621554e-05 1.8670367e-05 -6.8706155e-05
-1.9833751e-06 1.8500681e-05 0.0011932653 0.00027837767 0.0005345763 0.0011483626 0.00032181275 -6.316972e-05
0.00064220914 0.0005295359 -2.905638e-05 -8.1768245e-05 -2.183831e-05 6.888055e-06 5.966913e-05 -1.9946544e-06
