experiments/v3_simplified_game/MARLv1/attacker_agent_final_2.pth (torch, 385682 bytes, 33 tensors)

weight_ih_l0 f4 [256, 25]
0	0xbdccf40f	-0.10007488
1	0xbd00f24c	-0.031481072
2	0xbda47500	-0.080301285
3	0xbd3abbb3	-0.04558916
4	0x3d9dbc57	0.077019386
5	0xbe05e251	-0.13074614
6	0xbdf2116d	-0.1181973
7	0x3d651715	0.055930216
8	0xbd8ffc40	-0.07030535
9	0x3e1dde64	0.15416867
10	0xbdcf4820	-0.101211786
11	0xbd94e153	-0.0726954
12	0xbd80ecaf	-0.06295144
13	0xbd8cbfa7	-0.06872492
14	0xbceefa85	-0.029172191
15	0x3ced9ecd	0.029006386
16	0xbe1210fc	-0.14264292
17	0x3df5e154	0.120058686
18	0x3e0b43ca	0.13600078
19	0x3e377255	0.17914708
20	0x3dd8dfd7	0.10589569
21	0x3c95db39	0.01829301
22	0xbd8ac247	-0.06775337
23	0x3c7e1c9b	0.01550975
24	0x3e47aa39	0.19498529
25	0x3d98e103	0.074647926
26	0xbd305ae2	-0.043055423
27	0xba25b8f7	-0.00063218124
28	0xbd533392	-0.051562853
29	0xbdfb9715	-0.12284676
30	0x3db73570	0.08945739
31	0xbdbc2627	-0.091869645
32	0x3d4e548a	0.05037359
33	0xbd17e64d	-0.037084866
34	0xbdb4e2b8	-0.08832306
35	0xbcb33f2b	-0.021880707
36	0xbdce92f1	-0.100866206
37	0xbdb1c82e	-0.08680759
38	0x3e0654be	0.13118264
39	0xbd6ef0cf	-0.05833512
40	0x3d4da3b1	0.050204936
41	0xbe084bdc	-0.13310188
42	0x3e1680a0	0.14697504
43	0x3a473318	0.0007598861
44	0x3b8fbbc9	0.0043863994
45	0xbbc4b736	-0.0060032858
46	0x3e04c8f7	0.12967287
47	0x3d6ff70f	0.058585223
48	0x3df9b39c	0.12192461
49	0x3da297cf	0.079391114
50	0xbdc46fd7	-0.09591644
51	0xbd3333a9	-0.04375044
52	0x3db0635a	0.086127
53	0xba9e6e13	-0.0012087248
54	0xbdb4b99a	-0.08824463
55	0x3ca10cb3	0.019659376
56	0xbdf86b37	-0.121298246
57	0x3da08b7a	0.07839103
58	0x3d8b7c23	0.068107866
59	0x3dc32c67	0.095299534
60	0xbdc8fca1	-0.0981381
61	0xbccecf87	-0.025245441
62	0xbd45d01f	-0.048294183
63	0x3dc50992	0.09620966
64	0x3dab8e85	0.08376793
65	0x3d77d808	0.060508758
66	0x3d8e3d5d	0.06945298
67	0xbb2acfd6	-0.0026063821
68	0xbe09fd43	-0.13475518
69	0xbd3704ff	-0.0446825
70	0xbd5b30cf	-0.053513344
71	0x3bb0f731	0.0054005613
72	0xbb77e45e	-0.0037825326
73	0xbc71a7bc	-0.014749464
74	0x3c919b0f	0.017774133
75	0x3c970d2e	0.018438902
76	0xbc941826	-0.018077921
77	0xbde05e84	-0.109555274
78	0x3c549cf5	0.012976875
79	0xbd949ba0	-0.072562456
80	0xbd8e65b0	-0.06952989
81	0xbe3bff32	-0.18359068
82	0xbcf73751	-0.030177744
83	0x3c1cf476	0.009579768
84	0xbe0cfae3	-0.1376758
85	0xbd1bcdf4	-0.03803821
86	0xbd2dec04	-0.04246141
87	0xbd0194a4	-0.031635895
88	0xbda04edc	-0.07827541
89	0xbdf87b68	-0.12132913
90	0x3dc7e3a3	0.09760215
91	0xbd74668b	-0.059668105
92	0xbc18ff53	-0.009338218
93	0xbe06a4a2	-0.1314874
94	0xbe1735d3	-0.14766626
95	0xbdbed675	-0.09318248
96	0x3d9c0512	0.076181546
97	0x3df40dc5	0.11916689
98	0xbd76b8b7	-0.06023475
99	0x3d0425b5	0.032262523
100	0x3da642bb	0.081181966
101	0xbdfa8ef3	-0.12234297
102	0xbcb17364	-0.021661468
103	0x3c7b6e06	0.015346056
104	0x3d90f434	0.07077828
105	0xbc994833	-0.018711185
106	0xbbd822e5	-0.0065959566
107	0x3d87981f	0.06620812
108	0xbde11929	-0.10991127
109	0xbdf4e212	-0.11957182
110	0x3c48f6b2	0.012265848
111	0xbdbfd347	-0.0936647
112	0x3dc05779	0.09391684
113	0xbdc6f4f7	-0.09714692
114	0xbdb99c10	-0.0906297
115	0x3c87cb74	0.016576506
116	0x3d9a7ce3	0.075433515
117	0x3dc0ca5a	0.094135955
118	0x3c075684	0.008260373
119	0xbe05aba4	-0.13053757
120	0x3d86cbbe	0.065818295
121	0x3dbc7444	0.092018634
122	0x3dbf2558	0.09333295
123	0xbd753386	-0.05986359
124	0xbe1b9bd8	-0.15196168
125	0xbb950a21	-0.0045483266
126	0x3c529f50	0.012855366
127	0xbda575a5	-0.080790795
128	0x3dadcf60	0.08486819
129	0xbde90e46	-0.113796756
130	0x3d6c7bea	0.05773536
131	0x3c88caa7	0.016698195
132	0x3d810164	0.06299093
133	0xbda1eecc	-0.07906875
134	0x3d5edc31	0.05440921
135	0xbe186fa0	-0.14886332
136	0xbd72c049	-0.05926541
137	0xbc835dc0	-0.016035914
138	0x3d9075b6	0.070537016
139	0xbd2f1bd3	-0.042751145
140	0xbd6ce022	-0.057830937
141	0xbe1159fc	-0.14194483
142	0xbd769933	-0.060204696
143	0x3d77f686	0.060537837
144	0x3c403266	0.011730766
145	0xbccaf5a2	-0.02477533
146	0xbd11307d	-0.035446633
147	0xbcd99f62	-0.026565257
148	0xbdfa6a5b	-0.12227317
149	0x3e03c546	0.12868223
150	0xbd2c19c9	-0.04201678
151	0x3d2fb6db	0.042898994
152	0x3d76bf33	0.060240936
153	0x3e16f218	0.14740789
154	0xbdfd412f	-0.123659484
155	0x3d9218af	0.07133614
156	0xbdbd6e39	-0.09249539
157	0xbcd865f5	-0.026415804
158	0xbc6a5c30	-0.014304206
159	0xbc3dff49	-0.011596509
160	0x3d5b7a44	0.0535834
161	0xbd0c7e0b	-0.03429989
162	0x3c7184e5	0.014741157
163	0x3dcd95aa	0.10038312
164	0xbae422f8	-0.0017405441
165	0x3d997d74	0.074946314
166	0xbd07e965	-0.033181567
167	0xbd4c027d	-0.04980706
168	0xbc24b615	-0.010053177
169	0x3d01b267	0.03166428
170	0xbbc8f6c4	-0.0061329324
171	0x3dd0f475	0.102028765
172	0xbd3fab75	-0.046794374
173	0x3e190ff2	0.14947489
174	0xbbc36a1e	-0.005963578
175	0xbd6fa025	-0.058502335
176	0xbd1baad5	-0.038004715
177	0x3e0f50f0	0.13995719
178	0x3d3f9b8f	0.04677921
179	0x3daed6a3	0.085370325
180	0x3d937d3c	0.07201621
181	0x3dba5b80	0.090994835
182	0xbd31bc89	-0.04339269
183	0xbcb75edc	-0.0223841
184	0x3ba07204	0.004896404
185	0x3d836abf	0.064168446
186	0x3b90e6f7	0.0044220644
187	0xbd9687a1	-0.07350088
188	0xbd686bec	-0.056743547
189	0x3de493ef	0.111610286
190	0x3dbe99f5	0.09306709
191	0x3d934753	0.071913384
192	0x3c399e06	0.01132918
193	0x3dfe1416	0.12406175
194	0xbcfbbe6a	-0.030730445
195	0xbd6c8731	-0.057746116
196	0x3db967b1	0.09052981
197	0x3e16a644	0.14711863
198	0x3de79fff	0.11309814
199	0xbc9efe46	-0.019408356
200	0xbdedff48	-0.11620957
201	0xbda0dbf1	-0.078544505
202	0x3dc3cc17	0.095604114
203	0xbe04fc27	-0.12986813
204	0xbc938374	-0.018007018
205	0xbd852104	-0.06500438
206	0x3ddb519a	0.10708924
207	0x3dc72644	0.097240955
208	0x3d822fd0	0.06356776
209	0xbd4a1bcf	-0.049342927
210	0xbe2381c6	-0.15967473
211	0x3d7726b3	0.06033964
212	0xbd896c41	-0.06710101
213	0x3cc570c5	0.024101624
214	0xbd51bb54	-0.05120404
215	0xbe020757	-0.12698112
216	0xbd0f8424	-0.03503813
217	0x3df1cf50	0.1180712
218	0x3e0a2678	0.13491237
219	0x3e10c4fc	0.14137644
220	0xbd86416f	-0.06555449
221	0x3d2cba5f	0.042169925
222	0x3cf1bb64	0.0295083
223	0x3d3c8f53	0.046035122
224	0x3db406a4	0.08790329
225	0xbc4efbfa	-0.012633318
226	0x3d6f39c6	0.058404706
227	0x3e1ba869	0.15200962
228	0x3cc0bbd1	0.023527058
229	0xbd39373f	-0.045218702
230	0x3d9eddb1	0.07757128
231	0xbd52e917	-0.051491823
232	0xbd7a47e0	-0.0611037
233	0xbd70828c	-0.05871825
234	0xbc48b873	-0.012251007
235	0x3e043994	0.1291259
236	0x3e07c58e	0.13258955
237	0x3e027682	0.1274052
238	0x3e001415	0.1250766
239	0x3dadfe7d	0.084958054
240	0x3c367285	0.011135702
241	0x3d846abd	0.06465671
242	0xbc973eea	-0.018462617
243	0xbc41f0c1	-0.011837185
244	0x3dfd42fc	0.12366292
245	0xbd64f075	-0.05589338
246	0x3dd2f383	0.103003524
247	0x3d9e90e7	0.07742482
248	0x3dd67802	0.104721084
249	0xbd8d3eb4	-0.06896725
250	0xbd9659cc	-0.07341346
251	0xbd98e22d	-0.074650146
252	0x3d8eb188	0.06967455
253	0x3e075e71	0.1321962
254	0xbe0edd1f	-0.13951539
255	0xbd42da76	-0.04757162

weight_hh_l0 f4 [256, 64]
0	0x3dcbecb2	0.099572554
1	0xbd2eb3d9	-0.042651985
2	0xbd073291	-0.03300721
3	0x3e2e2356	0.17005667
4	0xbd293061	-0.041305903
5	0x3dbf5df9	0.09344096
6	0x3e291aa9	0.16514076
7	0x3cd21aea	0.0256476
8	0x3d8d7a37	0.06908076
9	0x3da3ef61	0.08004642
10	0x3d8bf997	0.06834715
11	0xbe2ed69c	-0.17074054
12	0xbc946dd9	-0.018118786
13	0xbddd1aa3	-0.10796096
14	0xbb35b5d7	-0.0027726793
15	0xbc0f415b	-0.008743609
16	0xbc77867e	-0.015107749
17	0x3d3503f1	0.044193212
18	0x3b3bcc9c	0.0028655892
19	0x3ce4fd8f	0.027952937
20	0x3d07ad9b	0.033124547
21	0xbe2973e9	-0.16548122
22	0xbe254ec6	-0.16143331
23	0x3da0c6c1	0.07850409
24	0x3e2aa892	0.16665867
25	0x3dae1da9	0.08501751
26	0x3da4978d	0.080367185
27	0x3d64846a	0.055790342
28	0xbd936ed9	-0.07198877
29	0x3db090fe	0.08621405
30	0xbe2c27d2	-0.16812065
31	0xbe0c1d89	-0.13683142
32	0xbd60660f	-0.05478483
33	0xbd459d7a	-0.048245884
34	0xbd432c77	-0.047649827
35	0x3e1bb452	0.15205505
36	0xbe324732	-0.17409971
37	0x3d298939	0.04139063
38	0x3ce35091	0.027748378
39	0x3d43fb42	0.04784704
40	0xbde3907a	-0.11111541
41	0x3e289cd7	0.1646608
42	0xbc97678b	-0.01848199
43	0x3cdfc6a4	0.027316399
44	0x3dde8af0	0.10866344
45	0x3e2bde07	0.16783915
46	0x3c8b8aaf	0.017033903
47	0xbd8b8b7b	-0.06813713
48	0x3c3d3aaa	0.011549631
49	0xbd1d096e	-0.03833907
50	0x3db3ef93	0.087859295
51	0xbca2e59d	-0.019884879
52	0xbd02bc51	-0.031917874
53	0xbd0b058c	-0.033940837
54	0x3dd803a7	0.10547572
55	0x3e063bea	0.13108793
56	0xbe032f73	-0.12811069
57	0xbdaa8898	-0.083268344
58	0xbd2f183f	-0.042747732
59	0xbd804ca7	-0.0626462
60	0x3da15289	0.078770705
61	0xbdfaad67	-0.12240105
62	0xbdfd71d0	-0.12375224
63	0x3cf06302	0.029344086
64	0x3d9ed931	0.0775627
65	0x3daa05d0	0.0830189
66	0x3b1a9b54	0.0023591118
67	0x3d78ad73	0.06071229
68	0xbc43a1f8	-0.011940472
69	0x3e13c6c3	0.1443129
70	0x3de22a11	0.1104318
71	0xbc6cd5cb	-0.014455269
72	0xbe1119a5	-0.14169939
73	0x3def595f	0.11686968
74	0x3e0ac5ea	0.1355206
75	0xbdf11935	-0.11772386
76	0xbda9e5f4	-0.08295813
77	0x3cb7a5e4	0.02241797
78	0x3d80ca44	0.06288579
79	0x3df0267c	0.1172609
80	0x3d1e54de	0.038655154
81	0xbd7ad80f	-0.061241206
82	0x3df8565a	0.12125845
83	0x3e2aff21	0.16698886
84	0xbcef6f41	-0.029227855
85	0x3c792a1a	0.015207792
86	0xbe127f97	-0.14306484
87	0xbd10fc49	-0.035396848
88	0x3db8d9c8	0.090259135
89	0x3ddb391b	0.107042514
90	0xbd6235e8	-0.05522719
91	0xbe301ea5	-0.1719919
92	0xbe1bb520	-0.15205812
93	0x3d86d285	0.06583122
94	0xbe1db7ed	-0.15402193
95	0x3d0c77af	0.034293827
96	0x3e27454b	0.16335027
97	0xbd26964c	-0.040670678
98	0xbce367a9	-0.02775939
99	0x3d6c5a90	0.057703555
100	0x3d705963	0.058678996
101	0xbd55b444	-0.052173868
102	0xbe07a5be	-0.1324682
103	0x3dba15ac	0.09086165
104	0xbcd17569	-0.02556868
105	0xbd0a91b7	-0.03383037
106	0xbdcb0f1b	-0.099149905
107	0xbcf4152b	-0.02979525
108	0xbd92eb9e	-0.07173847
109	0x3db6ea07	0.08931356
110	0xbd4512c2	-0.048113592
111	0xbd48c6cf	-0.049017724
112	0x3e1d9736	0.15389714
113	0xbcb99ffa	-0.02265929
114	0x3e2f62c1	0.17127515
115	0xbc9923e6	-0.018693876
116	0x3d872b17	0.066000156
117	0x3c29f3e1	0.010373087
118	0xbd9192fd	-0.07108114
119	0x3d0f81a0	0.03503573
120	0xbe161a48	-0.14658463
121	0xbd8f75f9	-0.070049234
122	0x3e0640ae	0.13110611
123	0xbd9c0634	-0.07618371
124	0x3cbd8c13	0.023138082
125	0xbdd15d9d	-0.102229334
126	0x3d77b0cf	0.060471352
127	0xbcc2e8ff	-0.023792742
128	0xbdf0951f	-0.117471926
129	0x3cd83038	0.02639018
130	0x3d5819f9	0.052759144
131	0x3d8f0f3f	0.0698533
132	0x3c4aafa3	0.012370977
133	0xbdf18011	-0.11792005
134	0x3c878a11	0.016545327
135	0xbdbc14b3	-0.091836356
136	0xbe0637ab	-0.13107173
137	0xbdf96dec	-0.12179169
138	0xba98286c	-0.0011608726
139	0x3e0f330c	0.13984317
140	0xbd8a08bf	-0.067399494
141	0xbd5bb0a7	-0.053635266
142	0xbdbfcf19	-0.093656726
143	0x3dabd363	0.08389928
144	0x3d1a8de1	0.037732963
145	0x3e14c813	0.14529447
146	0xbd9bfbc9	-0.076163836
147	0xbd55fd56	-0.052243553
148	0x3d75712a	0.059922375
149	0x3d9b894b	0.07594546
150	0x3c5a6507	0.013329751
151	0xbc1fc585	-0.009751682
152	0xbd820fcf	-0.063506715
153	0x3d216d2b	0.03941075
154	0x3db0f3e0	0.086402655
155	0x3c9c6757	0.019092245
156	0x3d80ae8c	0.06283292
157	0xbd425a18	-0.0474492
158	0x3d42c270	0.04754871
159	0x3d3bcdf0	0.045850694
160	0x3e47ee29	0.19524445
161	0x3da9960e	0.08280574
162	0x3c4b1c72	0.012396919
163	0xbcab755f	-0.02092999
164	0xbd92bd35	-0.071649946
165	0xbde5aa18	-0.112140834
166	0x3e053da1	0.13011791
167	0x3cc76783	0.02434135
168	0xbd468b7d	-0.04847287
169	0xbd9831c7	-0.07431369
170	0xbd8876f1	-0.06663311
171	0xbc0d8d35	-0.008639623
172	0xbdccd708	-0.100019515
173	0xbc71af4a	-0.014751265
174	0x388f08d5	6.8204165e-05
175	0xbcf1fc1a	-0.029539157
176	0xbd83fb29	-0.064443894
177	0xbdf7066b	-0.12061771
178	0x3d8d5a79	0.06902022
179	0x3dde4784	0.10853484
180	0x3db00203	0.08594134
181	0xbd827dcf	-0.06371652
182	0xbd065e09	-0.032804523
183	0xbdaf28db	-0.085527144
184	0x3e0b6304	0.1361199
185	0x3d6aa170	0.057282865
186	0xbbbd0282	-0.005768121
187	0xbe169188	-0.14703953
188	0xbcaccfcc	-0.021095179
189	0x3df77375	0.120825686
190	0xbd750c8a	-0.05982641
191	0x3d5d67c2	0.05405403
192	0x3e02c08d	0.12768765
193	0x3dcd316a	0.100191906
194	0xbe0137ce	-0.12618944
195	0xbdf076ff	-0.11741447
196	0x3cd33d76	0.025786143
197	0xbd835ebb	-0.06414553
198	0xbdd94332	-0.106085196
199	0xbdda28b4	-0.10652295
200	0xbd50431a	-0.050845243
201	0x3d04e8ab	0.032448452
202	0xbe03fb25	-0.12888773
203	0xbd864de2	-0.06557824
204	0x3dea885b	0.11451789
205	0x3d7d5787	0.06185105
206	0xbda00626	-0.07813673
207	0xbdd09cd2	-0.10186161
208	0xbd6fe56d	-0.058568407
209	0x3cdca8af	0.026935903
210	0x3d6eca61	0.058298472
211	0xbde49040	-0.11160326
212	0xbdd26daa	-0.10274823
213	0xbc8bdef4	-0.017074086
214	0x3df364dd	0.118844725
215	0xbe0963c8	-0.1341697
216	0x3dd07665	0.10178832
217	0x3dfd0968	0.1235531
218	0x3c1c3294	0.009533543
219	0x3d1c5bbb	0.03817342
220	0x3d270d94	0.040784433
221	0xbda8bf2f	-0.082395904
222	0xbd91e650	-0.07124007
223	0xbd7b53a0	-0.061359048
224	0x3df411f0	0.11917484
225	0x3e5b9aa8	0.21445715
226	0xbd494ff8	-0.04914853
227	0x3e3e5a64	0.18589169
228	0xbd863273	-0.06552591
229	0x3d66e985	0.056375045
230	0x3d3876e9	0.045035277
231	0xbd14b77b	-0.036307793
232	0xbd184eca	-0.037184514
233	0xbb230199	-0.0024872778
234	0xba80d1ee	-0.0009828189
235	0xbbad7f9f	-0.0052947546
236	0xbdb576bd	-0.08860538
237	0xbdc2e7b0	-0.09516847
238	0xbe006abd	-0.12540717
239	0xbc6a4911	-0.014299647
240	0xbe048508	-0.12941372
241	0xbd1161cc	-0.035493657
242	0x3d48a13b	0.048981886
243	0x3dd0d48f	0.10196792
244	0xbe0bd81d	-0.1365666
245	0xbcf51c27	-0.02992065
246	0x3e21a077	0.15783869
247	0x3da15f46	0.078795
248	0xbde0e79d	-0.10981677
249	0x3ce8f68f	0.02843788
250	0xbd5e1611	-0.054220263
251	0xbe20fad8	-0.1572069
252	0xbe1c8e31	-0.15288617
253	0x3d9837ef	0.074325435
254	0x3d1129b5	0.035440166
255	0x3d86f4f0	0.06589687

bias_ih_l0 f4 [256]
0	0xbd2213b9	-0.03956959
1	0x3b4fddb7	0.0031717846
2	0xbc427eec	-0.011871081
3	0x3dd14132	0.10217513
4	0xbd4caf03	-0.04997159
5	0xbd2d598e	-0.042321734
6	0x3ddcfe67	0.10790711
7	0xbd290303	-0.041262638
8	0xbdbc060f	-0.09180843
9	0xbd74c8ea	-0.05976192
10	0x3e410e0f	0.18853019
11	0xbd7f8570	-0.062383115
12	0x3dc0ea29	0.094196625
13	0xbde6512f	-0.11245953
14	0xbd045249	-0.032305036
15	0x3c7fd895	0.015615602
16	0x3def525a	0.11685629
17	0x3b8ac482	0.0042348513
18	0x3df98ffe	0.121856675
19	0xbc9be431	-0.019029709
20	0xbc3eabb6	-0.011637619
21	0x3d3ba482	0.045811184
22	0x3e0badd3	0.13640527
23	0x3de39d4c	0.111139864
24	0x3c58fde4	0.013244126
25	0xb994c8a6	-0.00028378255
26	0xbd37070f	-0.044684466
27	0xbdf717c4	-0.1206508
28	0x3dd327fa	0.10310359
29	0x3cbfe42a	0.023424227
30	0x3d115726	0.0354835
31	0x3de5f227	0.112278275
32	0x3e094500	0.13405228
33	0x3de8d5d8	0.113689125
34	0x3d0e4edb	0.03474317
35	0x3e1bfde6	0.15233573
36	0x3a37adb6	0.0007006781
37	0x3e1ea902	0.15494159
38	0x3d96d723	0.07365253
39	0xbdfe42c8	-0.12415081
40	0x3da33592	0.07969202
41	0xbdad38df	-0.08458113
42	0xbd9f43ab	-0.077765785
43	0xbc9f9a71	-0.019482823
44	0xbda87575	-0.08225528
45	0x3ce8ef88	0.02843453
46	0x3ddfaec0	0.10922003
47	0x3d858a35	0.065205015
48	0xbdb1ff51	-0.08691276
49	0xbd9d0cf7	-0.076684885
50	0x3c9a22c0	0.018815398
51	0xbd35296a	-0.04422895
52	0x3cf40b35	0.0297905
53	0x3e03810f	0.128422
54	0x3dbe68e4	0.0929735
55	0xbcdd3a2d	-0.02700528
56	0x3d2c573f	0.04207539
57	0xbde252cc	-0.110509485
58	0x3db4303a	0.08798261
59	0x3dc7c502	0.09754373
60	0x3e06ab44	0.1315127
61	0xbc56102e	-0.013065381
62	0x3deb2bab	0.114829384
63	0x3c760849	0.015016624
64	0xbd4bd071	-0.049759332
65	0x3de04467	0.10950547
66	0x3b41ce4f	0.0029572432
67	0x3df08e4c	0.11745891
68	0x3df86f16	0.12130563
69	0x3cea72f2	0.028619263
70	0x3d3177a7	0.043327
71	0xbd883bbf	-0.06652021
72	0xbe0d8545	-0.1382037
73	0xbd2e3c43	-0.04253794
74	0xbd2b4608	-0.041814834
75	0xbdef0f1a	-0.11672802
76	0x3e27683d	0.16348357
77	0xbcf5525f	-0.029946504
78	0xbcd0aff9	-0.025474535
79	0x3b64bc31	0.003490221
80	0x3e050982	0.12991908
81	0x3c62fd5f	0.013854354
82	0x3ca15669	0.019694524
83	0x3d5b0294	0.053469256
84	0x3e12820f	0.14307426
85	0xbd3a03a8	-0.045413643
86	0x3e1ee2a8	0.1551615
87	0x3d8ba310	0.06818211
88	0x3e097fb6	0.13427624
89	0xbd853888	-0.06504923
90	0xbdb14a1f	-0.086567156
91	0x3b5b7f82	0.0033492749
92	0xbd1f9849	-0.03896359
93	0x3d933879	0.07188506
94	0x3d8baef0	0.06820476
95	0x3c913046	0.017723214
96	0x3d25abed	0.040447164
97	0xbd2a0df2	-0.041517206
98	0x3829204c	4.032282e-05
99	0xbc6a5342	-0.014302077
100	0xbd8043c0	-0.06262922
101	0xbd95ecc0	-0.07320547
102	0xbc8653bc	-0.01639735
103	0x3d353424	0.04423918
104	0x3cbfc794	0.023410596
105	0x3d5e454d	0.05426531
106	0x3de8a941	0.113604076
107	0xbd0ff6fb	-0.03514765
108	0x3d5fb6ab	0.054617565
109	0xbd5bc13f	-0.05365109
110	0x3c86c049	0.01644911
111	0xbd57628c	-0.052584216
112	0xbc0a5686	-0.00844348
113	0xbcc5764c	-0.02410426
114	0x3da24d18	0.07924861
115	0x3dd3d3b1	0.10343111
116	0x3d0f8d45	0.035046834
117	0x3d029312	0.03187854
118	0x3cd7cbee	0.026342358
119	0x3aece2dd	0.0018072982
120	0x3d640dad	0.055677105
121	0xbda9b569	-0.08286554
122	0xbd7022b3	-0.05862684
123	0xbdb2ac84	-0.08724311
124	0xbca8bac2	-0.020596866
125	0x3ba26989	0.0049564284
126	0x3db4220a	0.08795555
127	0xbccb9164	-0.024849601
128	0xbe2428c1	-0.16031171
129	0xbda331dc	-0.07968494
130	0x3d974a91	0.07387269
131	0xbd6a8c00	-0.05726242
132	0x3dad0160	0.08447528
133	0x3dadf8d4	0.08494726
134	0x3e021fc5	0.12707432
135	0xbe03796c	-0.12839288
136	0x3dbaf911	0.09129537
137	0x3c8d9fb3	0.017288065
138	0x3de8421b	0.113407336
139	0x3bdb014b	0.0066835037
140	0xbdde1b2f	-0.108450286
141	0xbba11a5f	-0.0049164738
142	0x3d2e49e3	0.042550933
143	0x3e2e40c5	0.17016895
144	0x3d84d375	0.06485645
145	0xbd837c8e	-0.06420241
146	0x3dc6f688	0.09714991
147	0x3e276f43	0.16351037
148	0xbdc5303e	-0.09628342
149	0xbdfe8683	-0.12428
150	0xbdd384e9	-0.10328085
151	0xbbed02da	-0.007233006
152	0xbd88fbff	-0.066886894
153	0x3d96e37f	0.0736761
154	0x3d04e493	0.032444548
155	0xbdfa1aaa	-0.12212117
156	0xbd4738f0	-0.048638284
157	0xbb01ad18	-0.001978701
158	0xbd4b7348	-0.049670488
159	0xbd7f2d7c	-0.062299237
160	0x3e007f2b	0.1254851
161	0xbca0e1b1	-0.019638868
162	0xbc5bfa4b	-0.013426374
163	0xbe3ea8a1	-0.18619014
164	0xbe052de0	-0.13005781
165	0x3ca68136	0.020325284
166	0xbd9c0565	-0.076182164
167	0x3de2d8af	0.11076485
168	0xbdea840e	-0.11450969
169	0xbd578c90	-0.052624285
170	0x3d7072e8	0.058703333
171	0xbe38a0e7	-0.1803013
172	0xbc3e6f57	-0.011623225
173	0x3d0f9cb8	0.035061568
174	0x3ca91e96	0.020644467
175	0x3d3557be	0.04427313
176	0xbd4ec18a	-0.050477542
177	0xbd43054b	-0.04761247
178	0x3e2d64f7	0.16933046
179	0xbe330423	-0.17482047
180	0x3d9dd957	0.0770747
181	0xbdab1315	-0.08353249
182	0xbdeeb01b	-0.11654683
183	0x3d83d248	0.06436592
184	0xbc51ea67	-0.0128122335
185	0x3ce9aa96	0.028523725
186	0xbd6ee9ac	-0.058328316
187	0xbd94d78b	-0.07267674
188	0xbdd0e5b2	-0.10200061
189	0xbd00e83a	-0.03147147
190	0xbdd41ee4	-0.103574544
191	0xbe22cd86	-0.15898713
192	0x3e2a6e1a	0.16643563
193	0x3bf5e5c6	0.007504198
194	0x3db70b8e	0.08937751
195	0xbd6c9a65	-0.05776443
196	0x3dc33511	0.09531606
197	0xbdb846ea	-0.08997901
198	0x3e27baa0	0.16379786
199	0x3def515f	0.11685442
200	0xbddf61ed	-0.1090735
201	0x3c81caf7	0.015843851
202	0x3db6d3ab	0.08927091
203	0xbccdaab2	-0.025105808
204	0x3ddfe0fc	0.10931584
205	0x3d85f1eb	0.06540283
206	0xbd0d419d	-0.0344864
207	0xbd1f758b	-0.038930457
208	0x3d3e5de6	0.046476267
209	0xbd3c2ddd	-0.045942176
210	0x3d98fcf6	0.074701235
211	0x3d8e34c9	0.06943662
212	0x3de3c3a6	0.11121301
213	0x3c8a68c3	0.016895657
214	0x3ddec577	0.10877507
215	0x3d42a06f	0.047516283
216	0x3e1ec268	0.15503848
217	0xbd7f3269	-0.062303934
218	0xbd555fbe	-0.05209326
219	0x3d8a50a8	0.06753665
220	0x3e088019	0.13330115
221	0xbdcaafd1	-0.098968156
222	0x3d1e0269	0.038576517
223	0x3de42a29	0.11140854
224	0xbd970504	-0.073740035
225	0xbd35e145	-0.044404287
226	0xbd3014b3	-0.04298849
227	0x3e00f793	0.12594442
228	0xbc1b1272	-0.009464847
229	0x3dbb4317	0.09143656
230	0xbd33e531	-0.043919746
231	0x3d447dc2	0.047971494
232	0x3d43e52b	0.047825973
233	0x3d5c91ea	0.053850092
234	0xbdc80a69	-0.097676106
235	0xbcc73dd6	-0.024321478
236	0xbd9c5d50	-0.076349854
237	0x3cc9971b	0.024608186
238	0x3de74a2b	0.11293443
239	0x3e18ef2a	0.14934984
240	0x3d8d445b	0.068978034
241	0x3d584e72	0.052809186
242	0x3dfd0bf3	0.12355795
243	0x3e00197b	0.1250972
244	0x3e15c952	0.14627579
245	0x3e10900a	0.14117447
246	0x3dafffd3	0.085937165
247	0xbd9a3347	-0.075293116
248	0xbcd85cb6	-0.026411396
249	0x3d17afae	0.037032776
250	0x3de00c60	0.1093986
251	0x3c969985	0.01838375
252	0x3dc455a9	0.09586651
253	0xbd03ee5e	-0.032209747
254	0x3adb603e	0.0016737056
255	0x3cf78c6a	0.030218322

bias_hh_l0 f4 [256]
0	0xbcb007a5	-0.02148802
1	0x3d875b90	0.06609261
2	0xbd294160	-0.041322112
3	0xbbf3f257	-0.0074446606
4	0xbdc525ad	-0.09626327
5	0xbbb513e8	-0.0055260547
6	0xbd0affc0	-0.03393531
7	0xbab13040	-0.0013518408
8	0x3df673c1	0.12033797
9	0xbd795355	-0.060870487
10	0x3e4571a5	0.19281633
11	0xbdc3268d	-0.09528837
12	0xbc858fef	-0.016303984
13	0xbd677c96	-0.0565153
14	0x3d16ae7b	0.03678749
15	0x3e218807	0.15774547
16	0x3e0a5176	0.13507637
17	0x3dc08794	0.094008595
18	0xbd628112	-0.055298872
19	0x3e2d172a	0.16903368
20	0x3d703eb2	0.05865354
21	0xbdf26993	-0.11836543
22	0x3e379542	0.17928031
23	0xbdb392ca	-0.08768232
24	0x3e231ee3	0.15929751
25	0xbd08c55d	-0.033391345
26	0xbd37be68	-0.04485932
27	0xbdc00ffc	-0.09378049
28	0xbd3e7c19	-0.046505067
29	0x3dd94263	0.106083654
30	0x3e15f04f	0.14642452
31	0x3d373726	0.044730328
32	0x3dda217e	0.106509194
33	0x3e1013ec	0.140701
34	0x3d6cd7a9	0.057822857
35	0x3e166a2d	0.1468894
36	0xbdcbb97b	-0.09947487
37	0x3d8508a4	0.06495789
38	0x3e0a6c28	0.13517821
39	0xbda8dc82	-0.082451835
40	0x3d2e5be3	0.0425681
41	0xbd384229	-0.04498497
42	0x3de64d71	0.112452395
43	0x3d055591	0.032552306
44	0xbc919a74	-0.017773844
45	0xbd180c63	-0.037121188
46	0x3e1dbc74	0.1540392
47	0xbd8fc336	-0.070196554
48	0x3d8481e7	0.064700894
49	0x3dda7c0b	0.106681906
50	0x3d87d08f	0.06631576
51	0x3da6abfb	0.081382714
52	0x3db61afd	0.08891866
53	0x3de667d8	0.112502754
54	0xbd83a4f4	-0.06427947
55	0xbd856b2d	-0.06514583
56	0x3e0493fc	0.12947077
57	0x3d31aa91	0.043375555
58	0x3e2ac8fa	0.16678229
59	0xbd6c61f4	-0.057710603
60	0xbd21ad94	-0.039472178
61	0x3dc95416	0.09830491
62	0xbd2c6d08	-0.042096168
63	0x3e23ebcb	0.16007917
64	0x3d713b2d	0.058894325
65	0x3be02809	0.00684071
66	0x3a8906df	0.0010454318
67	0xbc8fac3a	-0.017538179
68	0xbddf9106	-0.10916333
69	0x3da1393f	0.07872247
70	0x3d1e9a19	0.038721178
71	0x3d825867	0.06364518
72	0x3d363eb3	0.04449339
73	0x3d69ec81	0.057110313
74	0x3bec7e2c	0.0072171893
75	0xbad8cce3	-0.0016540553
76	0x3de06dfd	0.109584786
77	0xbe0cc288	-0.13746083
78	0xbc880e8c	-0.016608499
79	0xbd9eea19	-0.07759494
80	0x3d17f594	0.037099436
81	0x3d6e198f	0.058129843
82	0x3e13b803	0.14425664
83	0x3d993098	0.07479972
84	0x3d05da7d	0.03267907
85	0xbd39c287	-0.04535153
86	0x3defbe9d	0.117062785
87	0xbd8c382e	-0.06846653
88	0xbda2518b	-0.07925709
89	0x3d8e414d	0.06946049
90	0xbe04c0ce	-0.12964174
91	0xbe010a6b	-0.1260163
92	0xbcd73a37	-0.026272876
93	0xbe1d1ce0	-0.15343046
94	0xbd8f92c5	-0.07010416
95	0xbdc792aa	-0.09744771
96	0xbdfe1238	-0.12405819
97	0x3d9ac1b6	0.07556479
98	0xbdb4f1c1	-0.088351734
99	0x3c78139e	0.015141396
100	0x3dba437b	0.09094902
101	0xbc7778d5	-0.015104492
102	0xbd04466d	-0.032293726
103	0xbd306aec	-0.04307072
104	0xbda8ea61	-0.08247829
105	0x3de204a2	0.1103604
106	0x3d87cbee	0.066306934
107	0x3dcea520	0.10090089
108	0xbd92a388	-0.07160097
109	0xbd5c4991	-0.053781096
110	0x3e0be33a	0.13660899
111	0xbdbfbf09	-0.09362609
112	0xbdcde62a	-0.10053666
113	0xbc620a39	-0.013796383
114	0x3c461251	0.012089328
115	0x3db3f315	0.087865986
116	0x3dd4ca5f	0.10390162
117	0x3d791057	0.0608066
118	0x3e0087fd	0.12551875
119	0xbd98b978	-0.0745725
120	0x3dfa927a	0.122349694
121	0xbd7faa63	-0.062418353
122	0x3da91613	0.082561634
123	0x3d86e7a7	0.06587153
124	0x3dccf1e4	0.100070745
125	0x3dce9102	0.10086252
126	0xbd28256b	-0.04105131
127	0x3d1e05c1	0.038579706
128	0xbe00fb6b	-0.12595908
129	0xbe079731	-0.13241269
130	0x3d819fd9	0.06329317
131	0x3e0f824e	0.14014551
132	0x3daa7924	0.08323887
133	0xbd5ff6a2	-0.054678567
134	0x3e0e34e8	0.1388737
135	0x3c9b8f64	0.018989272
136	0xbda912a5	-0.08255509
137	0x3e26d4cf	0.16292118
138	0x3e27c0c1	0.16382124
139	0xbe12bf27	-0.14330731
140	0x3d058fe6	0.032607935
141	0x3e19d895	0.15024026
142	0x3bb1e86c	0.005429318
143	0x3dd7cd14	0.105371624
144	0xbd98526b	-0.07437595
145	0xbe1a20f4	-0.15051633
146	0xbd90db6c	-0.070731014
147	0xbc8c8a82	-0.01715589
148	0xbd989661	-0.074505575
149	0x3d565efa	0.05233667
150	0xbd1f0279	-0.038820717
151	0x3ccc74ca	0.024958033
152	0x3d6d1a9a	0.057886697
153	0xbdad1666	-0.08451538
154	0x3d1ef5e9	0.038808737
155	0x3dcda6b1	0.100415595
156	0xbe2ddfc3	-0.1697989
157	0x3d5b9bb2	0.05361528
158	0xb9f661f9	-0.00046993772
159	0xbe12c84a	-0.14334217
160	0x3dd426aa	0.10358937
161	0x3d8390e1	0.06424118
162	0x3d858c8c	0.06520948
163	0x3d4be3e1	0.04977787
164	0x3d83cbc4	0.064353496
165	0x3dfcb7b9	0.1233973
166	0xbde29d7f	-0.11065196
167	0x3e2bcc01	0.1677704
168	0xbd16ef9b	-0.0368496
169	0xbcd83d6d	-0.026396478
170	0xbddcbc21	-0.1077807
171	0x3c709ba2	0.014685543
172	0x3cc34a77	0.023839219
173	0x3e032668	0.1280762
174	0x3d1aea8f	0.03782135
175	0xbd90474c	-0.07044849
176	0x3d6efae9	0.058344755
177	0x3db07ee7	0.08617955
178	0x3da6b38f	0.08139717
179	0xbdac7698	-0.084210575
180	0x3cc84204	0.024445541
181	0xbdf9fd9d	-0.12206576
182	0x3dc98dc3	0.09841492
183	0x3c16bdba	0.009200508
184	0x3d19bd69	0.03753415
185	0x3e0a4283	0.13501935
186	0x3d0e4e4c	0.03474264
187	0xbd1d586f	-0.038414415
188	0xbdf4731c	-0.11936018
189	0xbc90e17f	-0.01768565
190	0xbe3c6f7d	-0.18401904
191	0xbdc28395	-0.094977535
192	0x3db8dbab	0.09026273
193	0x3cbe85f6	0.023257237
194	0x3dddd01c	0.10830709
195	0xbb959a17	-0.004565488
196	0xbd915feb	-0.07098373
197	0x3d06e0dc	0.032929286
198	0xbd6b08a6	-0.057381295
199	0x3dbbf93b	0.09178396
200	0x3d45b507	0.048268344
201	0x3d29ee97	0.041487303
202	0xbdb43715	-0.087995686
203	0x3da5400b	0.08068856
204	0xbc0d65d6	-0.008630237
205	0xbd976ed1	-0.073941834
206	0x3d3dee46	0.046369813
207	0xbd930ce1	-0.07180191
208	0xbdc5b1e1	-0.09653068
209	0xbd1e4e69	-0.038648997
210	0xbd1962a1	-0.037447575
211	0x3b98f2b7	0.0046676057
212	0x3e08a555	0.13344319
213	0x3d33b1d7	0.043870773
214	0x3d6f01eb	0.05835144
215	0xbd7e01ad	-0.062013317
216	0xbc1414c6	-0.009038156
217	0xbd042fea	-0.032272257
218	0xbd6be012	-0.057586737
219	0x3dc28a6d	0.09499059
220	0xbc986030	-0.018600553
221	0x3d8e38ed	0.069444515
222	0x3cc2a4cb	0.02376022
223	0x3d7c573c	0.06160663
224	0xba813344	-0.0009857197
225	0xbcd43ceb	-0.025907954
226	0xbd99b3e0	-0.075050116
227	0x3ac4714b	0.0014987377
228	0xbd9bd357	-0.07608669
229	0xbd97f737	-0.07420199
230	0xbd868f33	-0.06570282
231	0x3dce54da	0.10074778
232	0x3df7d644	0.12101415
233	0x3e282522	0.16420415
234	0xbdb2647b	-0.087105714
235	0xbcad36cb	-0.021144291
236	0x3ce48598	0.027895734
237	0xbdb855ab	-0.09000715
238	0xbd8e1c7d	-0.069390275
239	0xbd37c76a	-0.04486791
240	0xbd1bc602	-0.03803063
241	0x3cf9456c	0.03042861
242	0xbd6c4758	-0.057685226
243	0x3deb40de	0.11486982
244	0xbb23f8b5	-0.0025020067
245	0x3e13ee3c	0.14446348
246	0x3d9e5387	0.07730775
247	0x3dc48203	0.0959511
248	0xbd5ffc8e	-0.054684214
249	0xbdca8b25	-0.09889821
250	0xbd918cc4	-0.07106927
251	0xbc7af3ca	-0.015316913
252	0x3c93076b	0.017947873
253	0x3cdf07c2	0.027225379
254	0xbc891df7	-0.016737921
255	0xbd8e4f58	-0.06948727

weight f4 [32, 64]
0	0xbd54625b	-0.05185161
1	0xbdabb674	-0.083844095
2	0xbd962e73	-0.07333078
3	0xbdbbb39c	-0.09165117
4	0xbdbd23b8	-0.092353284
5	0x3d736161	0.05941904
6	0x3d6465e5	0.055761237
7	0xbdb0ecd2	-0.0863892
8	0x3de09fa8	0.10967952
9	0xbdfbc572	-0.12293519
10	0xbc1b68f5	-0.009485473
11	0x3d989177	0.0744962
12	0x3c05e065	0.008171176
13	0xbc8845cc	-0.016634844
14	0xbd53d4c4	-0.05171658
15	0xbc1bd1ef	-0.009510501
16	0xbc5fa198	-0.013649367
17	0xbd74f17f	-0.05980062
18	0x3da69cff	0.081354134
19	0xb9fbd68e	-0.00048034306
20	0x3d8301be	0.06396817
21	0x3d134cf9	0.03596208
22	0xbd60fb7c	-0.054927334
23	0xbdf3a85c	-0.118973464
24	0x3c615e03	0.013755324
25	0x3ba21f2f	0.004947565
26	0x3c80a060	0.015701473
27	0xbdec1bc9	-0.11528737
28	0xbd6199de	-0.05507838
29	0xbd52005a	-0.051269867
30	0xbd74a75f	-0.05972993
31	0xbbcc7bcf	-0.006240345
32	0xbddef6cf	-0.10886919
33	0x3dbd54f7	0.092447214
34	0x3cd7d02b	0.02634438
35	0x3c93f4e3	0.018061107
36	0x3db7d742	0.08976604
37	0xbd90c9bc	-0.07069728
38	0xbd82eb14	-0.06392494
39	0x3d579d66	0.05264034
40	0x3dd3256f	0.10309874
41	0x3dca35b6	0.09873526
42	0x3d6d585f	0.057945605
43	0x3d589570	0.05287689
44	0x3d85786a	0.06517108
45	0x3d665ab4	0.056238845
46	0xbd6152be	-0.05501055
47	0xbde8a74c	-0.11360034
48	0x3d5ba87a	0.05362747
49	0xbd90d138	-0.07071155
50	0xbdbe90d0	-0.093049645
51	0xbdae570e	-0.08512698
52	0xbd934a02	-0.0719185
53	0x3d95f93b	0.073229276
54	0xbdbba28b	-0.09161862
55	0xbddebb36	-0.108755514
56	0xbdac6101	-0.084169395
57	0xbdf8edb8	-0.12154716
58	0x3b6e2ba4	0.003634193
59	0xbb7e75ee	-0.0038827616
60	0xbd986d43	-0.07442715
61	0x3e03aa25	0.12857874
62	0xbcdd9d15	-0.027052442
63	0x3cb86885	0.022510776
64	0xbd57cce6	-0.05268564
65	0xbd357714	-0.044303015
66	0xbd945995	-0.07243649
67	0xbd786c02	-0.06064988
68	0xbd9da8eb	-0.07698234
69	0x3d216db4	0.03941126
70	0x3e06da93	0.13169317
71	0xbdeda82d	-0.116043426
72	0xbd1a2b38	-0.037638873
73	0x3df8bb2d	0.12145076
74	0x3e29ee87	0.16594897
75	0xbd1a2f0a	-0.037642516
76	0xbe039cdf	-0.1285281
77	0x3da3df9e	0.08001636
78	0xbddce510	-0.10785878
79	0x3c57233b	0.013130958
80	0xbdd1c4a0	-0.10242581
81	0xbdd1b1c7	-0.102389865
82	0x3e21bcc4	0.15794665
83	0x3e23d25e	0.15998217
84	0x3d004864	0.031319037
85	0x3d2c5489	0.042072807
86	0xbe33f23c	-0.17572874
87	0x3e1b58fb	0.15170662
88	0x3dc35a9e	0.09538768
89	0xbde39af4	-0.11113539
90	0xbcc46709	-0.023974912
91	0xbd99cdd4	-0.07509962
92	0xbd73f911	-0.0595637
93	0x3d7e05ae	0.062017135
94	0xbe2cecf9	-0.16887273
95	0xbdcf4e20	-0.10122323
96	0x3dfb8300	0.12280846
97	0x3b25c90c	0.0025296835
98	0xbc76b2ea	-0.015057305
99	0xbde9f53b	-0.11423727
100	0xbc8bead0	-0.01707974
101	0xbd9d66be	-0.07685612
102	0xbe125194	-0.14288932
103	0x3df757eb	0.12077316
104	0xbd0033b0	-0.031299293
105	0x3e06a19a	0.13147584
106	0xbdfe71a6	-0.124240205
107	0xbe0e8c13	-0.13920622
108	0xbd9de0b3	-0.077088736
109	0x3e1c2132	0.15247038
110	0x3e2b1aba	0.16709414
111	0xbce9d4ae	-0.028543796
112	0x3d2c6dec	0.042097017
113	0x3cf65a8f	0.030072479
114	0x3e24f3b3	0.16108589
115	0x3c578ef0	0.013156638
116	0x3c8c0758	0.017093346
117	0xbe3417c0	-0.17587185
118	0xbd96c2ec	-0.07361397
119	0x3dff39d0	0.12462199
120	0xbe24ee95	-0.16106637
121	0x39f736bc	0.00047152292
122	0x3d817553	0.06321206
123	0x3d80de0e	0.062923536
124	0xbc9cb1d3	-0.019127762
125	0xbc5c01ac	-0.013428133
126	0xbd1058dc	-0.035240993
127	0xbe0c2436	-0.13685688
128	0x3de96bd1	0.113975175
129	0x3d0fb3d2	0.0350836
130	0xbd7718b0	-0.06032628
131	0xbb158c13	-0.0022819086
132	0xbd84a705	-0.06477169
133	0xbd74bf6b	-0.059752863
134	0xbd624644	-0.05524279
135	0xbdb5b116	-0.08871667
136	0xbc1a1a05	-0.009405618
137	0x3d248e23	0.040174615
138	0xbca1f616	-0.019770663
139	0x3c7b9a4f	0.015356614
140	0x3d237e4e	0.039915375
141	0xbccc9814	-0.02497486
142	0xbe298487	-0.16554461
143	0xbbdaf6d9	-0.0066822586
144	0xbdf55be0	-0.119804144
145	0x3d23bffc	0.039978012
146	0x3d391bb6	0.045192443
147	0x3c9ba34b	0.018998763
148	0xbe253a30	-0.16135478
149	0x3d7c8c7f	0.061657425
150	0x3c03698f	0.008020773
151	0x3d17f0d2	0.0370949
152	0x3c4f57cb	0.012655209
153	0xbe098e65	-0.13433225
154	0x3cad1298	0.02112703
155	0xbe168fc9	-0.14703287
156	0xbd942511	-0.07233632
157	0x3da86474	0.08222285
158	0xbdb3475e	-0.087538466
159	0xbd8cfa78	-0.068837106
160	0x3cc354b5	0.023844102
161	0x3d80cc2b	0.06288942
162	0x3dda51ed	0.10660157
163	0xbc91908c	-0.01776912
164	0xbd8fbbcf	-0.070182435
165	0x3e1052ee	0.14094135
166	0x3cc337fe	0.02383041
167	0xbd9e838d	-0.07739935
168	0xbd94cc99	-0.072655864
169	0xbd2d3717	-0.042288866
170	0xbcd02fcb	-0.025413414
171	0xbe1615dc	-0.14656776
172	0xbdacf047	-0.08444267
173	0x3c020a10	0.007936969
174	0xbc58a938	-0.013223939
175	0x3a934015	0.0011234308
176	0x3e080355	0.13282521
177	0x3d8e575d	0.06950257
178	0xbcad877c	-0.021182768
179	0xbdddd651	-0.10831893
180	0x3e0d7d2f	0.13817285
181	0x3cd60e72	0.026129935
182	0xbd37865b	-0.044805866
183	0x3ddd3394	0.10800853
184	0x3d02fd15	0.03197964
185	0xbc320058	-0.01086434
186	0x3d700041	0.058593992
187	0x3d1aacdc	0.037762508
188	0xbdade6bc	-0.08491275
189	0x3b116b6d	0.0022189275
190	0x3ca3846b	0.019960603
191	0x3d645a19	0.055749986
192	0xbd00566d	-0.031332422
193	0xbcbbde36	-0.022933107
194	0x3da741e4	0.081668645
195	0x3dbdcaa4	0.09267166
196	0x3d5bd806	0.053672813
197	0x3b7bf5f9	0.0038446172
198	0xbd961ab1	-0.0732931
199	0xbd744f44	-0.059645906
200	0x3d3b2dc8	0.045697957
201	0xbd8c9fa1	-0.06866384
202	0xbdb0c856	-0.08631961
203	0xbabb3b1c	-0.0014284584
204	0xbd6e5f61	-0.05819643
205	0x3d352a4b	0.044229787
206	0xbcb2c419	-0.021822022
207	0x3cfe6d8f	0.031058101
208	0x3d33c0df	0.043885108
209	0x3dc87544	0.09787992
210	0xbd739253	-0.059465718
211	0x3deceddf	0.11568808
212	0x3db657ab	0.0890344
213	0xbdd9a308	-0.10626799
214	0xbdcb8600	-0.09937668
215	0xbbb30930	-0.0054637417
216	0x3c6bb87c	0.014387246
217	0xbd0cafe3	-0.034347426
218	0xbdd726e9	-0.105054684
219	0xbd2d3c0b	-0.04229359
220	0xba47eb46	-0.0007626306
221	0x3d45aeb4	0.048262313
222	0x3cb7de77	0.022444947
223	0x3d470b4c	0.048594758
224	0xbb73cff0	-0.0037202798
225	0x3ce5ce06	0.028052341
226	0xbd3562ed	-0.044283796
227	0x3ccba893	0.024860656
228	0xbd1ad8d5	-0.037804443
229	0x3c0bac74	0.008525003
230	0x3dcd9a4d	0.10039196
231	0xbdf74aa7	-0.12074786
232	0x3dbbf526	0.09177618
233	0x3d198344	0.0374787
234	0x3d302d25	0.043011803
235	0x3d71dd46	0.059048913
236	0x3dc5476f	0.096327655
237	0x3cfbd605	0.0307417
238	0x3dacba05	0.08433918
239	0x3def6236	0.11688654
240	0x3cce26cc	0.025164984
241	0xbc5ac7cd	-0.0133533
242	0x3c1d6fdd	0.00960919
243	0x3db09541	0.08622218
244	0x3d930d3f	0.07180261
245	0x3dcc518c	0.09976491
246	0xbcec5a36	-0.02885161
247	0xbb48ffac	-0.003066997
248	0xbdb94dbe	-0.09048031
249	0xbc5dd681	-0.013539911
250	0xbc0e7ab7	-0.00869625
251	0x3ddbc9fa	0.10731883
252	0x3d8fcb64	0.070212156
253	0x3c1077de	0.008817641
254	0x3de2d54a	0.11075838
255	0x3cf5274d	0.029925967

bias f4 [32]
0	0xbdf2c9f2	-0.11854924
1	0x3d005855	0.03133424
2	0x3d688697	0.05676898
3	0xbda52d21	-0.08065248
4	0x3d7d48be	0.06183695
5	0x3d05b448	0.032642633
6	0x3d1637e8	0.03667441
7	0xbd33d81f	-0.04390728
8	0xbcea1d22	-0.028578345
9	0xbc85c3e9	-0.016328769
10	0xbd3e3596	-0.046437822
11	0xbd1afd41	-0.037839178
12	0x3d20ec7c	0.03928803
13	0x3d848283	0.06470206
14	0xbdecbc1e	-0.11559318
15	0xbde29f1e	-0.110655054
16	0x3d9b91d9	0.075961776
17	0xbd496450	-0.04916793
18	0x3c47de6c	0.012199026
19	0x3d884bed	0.06655107
20	0xbcf6922e	-0.030099
21	0xbda156e6	-0.07877903
22	0x3dd70f45	0.10500959
23	0x3dfdb341	0.123877056
24	0x3e1c2aa9	0.15250649
25	0xbdc7a176	-0.09747593
26	0xbca2e09b	-0.01988249
27	0xbe003291	-0.1251929
28	0x3d1c52c1	0.038164858
29	0xbd962c03	-0.07332613
30	0xbda0314c	-0.07821903
31	0x3d8be90f	0.06831562

weight f4 [6, 32]
0	0x3ddc9822	0.107712045
1	0x3df0a182	0.11749555
2	0xbd66725a	-0.056261398
3	0xbdc67cc2	-0.096917644
4	0x3dc7f50b	0.09763535
5	0xbe14ff48	-0.14550507
6	0x3c2c1515	0.010503073
7	0x3db5843d	0.08863113
8	0x3e581a60	0.21103811
9	0xbdbea002	-0.09307863
10	0xbe39049a	-0.18068162
11	0xbcacab4d	-0.021077776
12	0xbcc910d4	-0.024544157
13	0xbdbe3f65	-0.09289435
14	0xbdd5152b	-0.10404428
15	0xbdeaf906	-0.11473279
16	0xbdffba2b	-0.124866806
17	0x3def9915	0.1169912
18	0xbd3ce07c	-0.046112522
19	0xbdda8ea6	-0.10671739
20	0x3e079907	0.13241969
21	0xbe08f8a2	-0.13376096
22	0x3dcbb33b	0.09946295
23	0xbdaae8be	-0.08345173
24	0xbba89f29	-0.0051459265
25	0xbde67f9b	-0.112548076
26	0xbd133a81	-0.035944466
27	0x3c38e680	0.011285424
28	0x3d89938b	0.06717595
29	0x3e0862e5	0.13318975
30	0xbe53d7a5	-0.2068773
31	0x3dc34681	0.09534932
32	0x3cd1e7e0	0.025623262
33	0xbda581a2	-0.08081366
34	0x3cb8af6e	0.022544589
35	0x3d9179ed	0.071033336
36	0x3dd75b60	0.10515475
37	0x3e3d967a	0.18514434
38	0xbccc79ba	-0.024960387
39	0x3e26e155	0.16296895
40	0x3e20499c	0.1565308
41	0xbdada043	-0.08477833
42	0xbda10b01	-0.07863427
43	0x3dabae4b	0.08382853
44	0x3e1542b7	0.14576231
45	0x3e2ef804	0.17086798
46	0x3e197397	0.149855
47	0xbdf79020	-0.120880365
48	0x3e0b8cb4	0.13627893
49	0xbe1b8ea5	-0.15191133
50	0x3e0c6287	0.1370946
51	0x3dcf0802	0.10108949
52	0xbe13f082	-0.14447215
53	0x3e08212a	0.13293901
54	0xbdf0a7e6	-0.11750774
55	0xbda7be15	-0.08190552
56	0xbd46887a	-0.048469998
57	0xbd6d1902	-0.057885177
58	0x3dccde8d	0.10003386
59	0x3e0c4cdf	0.13701199
60	0xbdb0e9fa	-0.086383775
61	0x3dd4695d	0.10371659
62	0x3e3474be	0.17622659
63	0xbe10df1b	-0.14147608
64	0x3c2a15a0	0.010381132
65	0xbd921d56	-0.07134502
66	0xbe473a42	-0.19455817
67	0x3d870ad0	0.06593859
68	0x3e1ca497	0.15297161
69	0x3ca20bf4	0.01978109
70	0x3d35dc3c	0.044399485
71	0x3e0021b8	0.12512863
72	0xbe21bc75	-0.15794547
73	0x3d8357f3	0.06413259
74	0xbe339152	-0.17535904
75	0xbcf34e51	-0.02970043
76	0x3e067da8	0.13133872
77	0xbd41848d	-0.04724555
78	0xbddc56d2	-0.10758747
79	0xbd62b60c	-0.055349395
80	0x3d8102b1	0.062993415
81	0x3e069d6e	0.13145992
82	0x3e22d13e	0.15900132
83	0xbd71bb05	-0.059016246
84	0x3bcb7f14	0.0062102173
85	0xbe2b87bd	-0.16750999
86	0x3d5539da	0.052057125
87	0xbc9775c6	-0.018488776
88	0x3d4a5f6d	0.04940741
89	0x3dd370fe	0.10324286
90	0xbcccc039	-0.024994003
91	0x3dbf208e	0.09332381
92	0x3c802a9d	0.01564532
93	0xbce361f0	-0.027756661
94	0xbb510510	-0.0031893887
95	0x3e1c8e8f	0.15288757
96	0xbde0fc3c	-0.1098561
97	0x3a1aeec2	0.00059102115
98	0x3e339c5b	0.17540114
99	0x3de2938a	0.11063297
100	0xbd811718	-0.06303233
101	0xbd7c96e7	-0.06166735
102	0x3d39bf01	0.04534817
103	0xbe2942d7	-0.16529404
104	0x3e11fba0	0.14256144
105	0x3da728c4	0.08162072
106	0x3d81029b	0.06299325
107	0x3d523ce1	0.05132759
108	0x3e149735	0.14510806
109	0x3e32c6b2	0.17458609
110	0x3be95cad	0.0071216435
111	0xbd9016ed	-0.07035623
112	0x3d9fa970	0.077959895
113	0xbd65cecf	-0.05610543
114	0x3de5a504	0.11213115
115	0x3e0eb248	0.13935196
116	0x3dec3e75	0.1153535
117	0xbe0127c8	-0.12612832
118	0xbe153d16	-0.14574084
119	0xbe12c630	-0.14333415
120	0x3dd48393	0.10376658
121	0x3d446498	0.047947496
122	0x3de5f0bc	0.11227557
123	0x3df86536	0.121286795
124	0xbe00bdbe	-0.12572381
125	0x3cf9ce21	0.030493798
126	0x3dc58410	0.096443295
127	0xbe37b21d	-0.17939039
128	0x3e071393	0.1319106
129	0x3e2c994c	0.16855353
130	0x3cbf154a	0.023325581
131	0x3d08e71f	0.03342354
132	0xbd07bc96	-0.033138834
133	0x3d381613	0.044942927
134	0x3db91d45	0.09038786
135	0xbb774ab1	-0.0037733729
136	0x3e49fe9b	0.1972603
137	0x3d1f625c	0.038912162
138	0x3d1ad7b7	0.037803378
139	0x3dda9ccd	0.106744386
140	0x3d619052	0.055069275
141	0x3e0ce51a	0.1375927
142	0x3b6d614f	0.003622133
143	0xbdc053e4	-0.09391001
144	0xbe0953e4	-0.13410908
145	0xbd37f933	-0.04491539
146	0xbdf42be9	-0.11922438
147	0xbd04e854	-0.032448128
148	0xbcd61315	-0.026132146
149	0x3d140fa4	0.03614773
150	0x3d8fdb5b	0.070242606
151	0xbe0103c5	-0.12599094
152	0xbde6e8be	-0.11274861
153	0xbda55aea	-0.08073981
154	0x3e5bf312	0.21479443
155	0x3e013f3b	0.12621777
156	0x3d898899	0.06715507
157	0x3ccca89f	0.024982749
158	0x3cc9915c	0.024605446
159	0x3dc2c7eb	0.095107876
160	0xbdad829d	-0.08472178
161	0x3d8c666f	0.06855475
162	0x3d1dc126	0.03851428
163	0xbe1a6af4	-0.15079862
164	0xbdb9c906	-0.09071545
165	0xbddc971e	-0.10771011
166	0x3d25426c	0.040346548
167	0x3e0eb1da	0.13935032
168	0xbc63e297	-0.013909004
169	0xbd6198a8	-0.055077225
170	0xbe39e641	-0.18154241
171	0xbdacca8e	-0.08437072
172	0x3d904d13	0.07045951
173	0xbda6eb98	-0.08150405
174	0xbda304a5	-0.0795987
175	0x3b44b404	0.0030014524
176	0x3e1e8bb8	0.15482986
177	0xbc21a8dc	-0.009866919
178	0xbd95baa7	-0.07310992
179	0xbe0a1db2	-0.1348789
180	0x3cc0de7f	0.023543594
181	0x3df53270	0.11972511
182	0xbd8a2d8e	-0.0674697
183	0xbdc6fe45	-0.09716467
184	0x3e1c7724	0.15279824
185	0x3e1ff4a9	0.15620674
186	0xbdc444c4	-0.095834285
187	0xbde72f42	-0.112883106
188	0xbe0ba290	-0.13636231
189	0x3d93bf3f	0.07214212
190	0x3d58dd03	0.05294515
191	0x3dbce57e	0.0922346

bias f4 [6]
0	0x3e0d6a4b	0.13810079
1	0xbdf058dc	-0.117356986
2	0xbda883a4	-0.082282335
3	0xbda83bc0	-0.082145214
4	0x3d044cdc	0.03229986
5	0xbd12e339	-0.035861228

weight f4 [2, 32]
0	0x3cb6f53b	0.022333732
1	0xbd021578	-0.031758755
2	0x3dc1107b	0.094269715
3	0x3afb0cce	0.0019153596
4	0x3d19de08	0.03756526
5	0xbe31cb12	-0.17362621
6	0xbe1b0a6e	-0.15140697
7	0x3e219c13	0.15782194
8	0xbe4b5049	-0.19854845
9	0x3e34d9b7	0.17661177
10	0xbb9ba7a3	-0.0047502085
11	0xbd5642c0	-0.05230975
12	0x3deb48be	0.11488484
13	0xbb15d3da	-0.002286187
14	0x3c870565	0.016482065
15	0x3e2a5e6d	0.16637583
16	0xbe1c5a91	-0.15268923
17	0x3e4b2615	0.19838746
18	0xbd994047	-0.07482963
19	0xbe3e163e	-0.18563172
20	0xbd287219	-0.041124437
21	0xbd19808a	-0.0374761
22	0x3dd27c15	0.10277573
23	0x3e0267a4	0.12734848
24	0x3e1ccab1	0.15311696
25	0x3e2fa35b	0.17152159
26	0x3d841a27	0.06450301
27	0x3e22f2d6	0.15912947
28	0x3e0d532b	0.13801257
29	0xbe2e842a	-0.17042604
30	0xbe0f6240	-0.14002323
31	0xbc3f18bc	-0.011663612
32	0xbdb6ca90	-0.089253545
33	0xbd1da508	-0.038487464
34	0xbc03223e	-0.008003769
35	0xbe1373b8	-0.14399612
36	0xbe1eadeb	-0.15496032
37	0x3cb458ad	0.02201494
38	0x3d71e294	0.059053972
39	0xbd0133f4	-0.031543687
40	0x3d8d9fc3	0.06915238
41	0x3e1526a7	0.14565526
42	0xbd96b3f0	-0.07358539
43	0xbe152e21	-0.14568378
44	0xbcb6c8e0	-0.022312582
45	0xbc2a859d	-0.010407832
46	0x3e18da79	0.1492709
47	0x3c242d1a	0.010020519
48	0xbdc67a9f	-0.09691357
49	0xbe34970f	-0.1763575
50	0xbd98a338	-0.074530065
51	0x3e220c25	0.15824945
52	0x3d718f9d	0.05897485
53	0x3e0bb7d3	0.13644342
54	0xbe0980f0	-0.13428092
55	0xbdce3a85	-0.100697555
56	0x3d09d0e0	0.033646464
57	0xbc303d80	-0.01075685
58	0x3df42430	0.11920965
59	0x3c0f0f17	0.008731625
60	0x3e299488	0.16560566
61	0xbcd47c95	-0.025938312
62	0x3e301394	0.17194968
63	0xbdcd62f5	-0.1002864

bias f4 [2]
0	0x3e094b65	0.13407667
1	0xbe022cc7	-0.12712394

weight f4 [1, 32]
0	0xbd284a73	-0.041086625
1	0x3e5a779b	0.21334688
2	0x3da6145c	0.08109352
3	0xbcdb29cf	-0.026753334
4	0x3c607b31	0.013701246
5	0x3d7c42f1	0.061587278
6	0x3de531b1	0.111911185
7	0xbd837c5d	-0.06420205
8	0x3b70c7f9	0.0036740287
9	0xbe2f2056	-0.17102179
10	0xbd95567b	-0.072918855
11	0xbdf6cc48	-0.12050682
12	0xbde5c3f3	-0.11219015
13	0xbcd50d31	-0.026007267
14	0xbdbe06e1	-0.09278656
15	0xbdfaa52e	-0.12238537
16	0x3db93f19	0.09045238
17	0xbe17dddd	-0.14830728
18	0xbe251967	-0.16122971
19	0xbd9b08b0	-0.075700164
20	0xbdbc6cf7	-0.09200471
21	0x3c8e5e26	0.017378878
22	0xbe11a2d3	-0.14222269
23	0x3e596b9c	0.21232456
24	0x3e370c2e	0.1787574
25	0xbdffafca	-0.12484701
26	0x3d5dcbcc	0.054149434
27	0xbe29fb83	-0.1659985
28	0x3da4519e	0.0802338
29	0xbe2b36cd	-0.16720124
30	0x3df53d46	0.119745776
31	0xbe0a5784	-0.13509947

exp_avg f4 [256, 25]
0	0x38f6b36b	0.00011763613
1	0xb9776022	-0.00023591568
2	0x383e252e	4.5334156e-05
3	0x3955ce54	0.00020390126
4	0xb81654ec	-3.5841877e-05
5	0xb95f121d	-0.00021273685
6	0xb8ddf7a0	-0.00010584225
7	0xb7b82f0f	-2.1956423e-05
8	0xb84918db	-4.7945283e-05
9	0xb6a63e60	-4.954447e-06
10	0xb81c8a61	-3.7322174e-05
11	0x382e4884	4.155237e-05
12	0x389d5bb5	7.503425e-05
13	0xb7ab6a2e	-2.0434232e-05
14	0xb8b38c4e	-8.561519e-05
15	0xb5ad9a9d	-1.2934503e-06
16	0x36529b25	3.1382745e-06
17	0x37170bb7	9.003029e-06
18	0x384482c6	4.6851834e-05
19	0xb8e9053a	-0.00011111279
20	0xb921ed4c	-0.00015442556
21	0xb7da55e5	-2.6027623e-05
22	0xb8e1d103	-0.000107677675
23	0x38b72955	8.733819e-05
24	0x36bd6e5c	5.6454865e-06
25	0x381b2be7	3.6995767e-05
26	0xb8ab5796	-8.1702296e-05
27	0x37ecf6bc	2.8248287e-05
28	0x37f2c338	2.8939554e-05
29	0xb810e80c	-3.4548386e-05
30	0xb885cf79	-6.380579e-05
31	0xb6c42476	-5.8455e-06
32	0xb7a6f211	-1.9901463e-05
33	0x372a3efa	1.01474525e-05
34	0xb6ee2128	-7.0968126e-06
35	0xb78338ba	-1.5642832e-05
36	0x38492423	4.795579e-05
37	0x3847ae88	4.7607842e-05
38	0xb724419f	-9.79044e-06
39	0xb72bb60f	-1.0234783e-05
40	0xb4bbbb30	-3.496766e-07
41	0xb349ee2e	-4.7015583e-08
42	0x38b173e5	8.461605e-05
43	0x37f0f59b	2.8724598e-05
44	0xb8e7f164	-0.00011059901
45	0x37aa3b58	2.0293213e-05
46	0x36be7f4e	5.6772615e-06
47	0xb7ab1ebd	-2.0399102e-05
48	0x38902114	6.872616e-05
49	0xb77ada41	-1.4951977e-05
50	0xb80e4f6b	-3.3929402e-05
51	0xb856a15c	-5.1171854e-05
52	0xb7e8dde8	-2.7759888e-05
53	0x372a9cae	1.0169269e-05
54	0x37b9abaa	2.2133656e-05
55	0xb73c9409	-1.124014e-05
56	0xb6b29fa5	-5.3233985e-06
57	0x38037d29	3.13494e-05
58	0xb7f5db5c	-2.9308423e-05
59	0xb6a72d38	-4.982252e-06
60	0xb6b432ce	-5.3703325e-06
61	0xb81a9a04	-3.68599e-05
62	0xb5551981	-7.9385796e-07
63	0xb69a085a	-4.59053e-06
64	0xb7a22156	-1.9327428e-05
65	0x339879bc	7.100195e-08
66	0x36f19c9d	7.200592e-06
67	0xb9b3d0e0	-0.00034297165
68	0xb632793d	-2.6594637e-06
69	0xb81a6312	-3.6808728e-05
70	0xb7ec341d	-2.815766e-05
71	0xb89c1790	-7.4430485e-05
72	0xb8a02f97	-7.638259e-05
73	0x373a4852	1.1103302e-05
74	0xb8973ef5	-7.211968e-05
75	0xb9db886f	-0.00041872586
76	0xba08b754	-0.00052153063
77	0xba04868f	-0.0005055451
78	0x3a28c9d8	0.00064387685
79	0x37868dcb	1.6040072e-05
80	0x397bc4f3	0.00024010595
81	0xb6f82b28	-7.396e-06
82	0x39c94c52	0.0003839457
83	0xb8f31acf	-0.000115921364
84	0xb8033fba	-3.1292184e-05
85	0xb88dd67c	-6.763355e-05
86	0x37576663	1.2838837e-05
87	0xb847ce6f	-4.7637554e-05
88	0xb81a1771	-3.6738293e-05
89	0xb94dd43c	-0.00019629387
90	0x3589d546	1.0269366e-06
91	0x3892f132	7.006749e-05
92	0xbb73965a	-0.0037168474
93	0xb7f58b07	-2.9271016e-05
94	0xb986728f	-0.00025643824
95	0xba23ce13	-0.0006248664
96	0xba717bfe	-0.00092118967
97	0xba117028	-0.00055480236
98	0xba022a14	-0.00049653766
99	0xba6b5688	-0.0008977433
100	0x360251ca	1.9419117e-06
101	0xb966a0b0	-0.0002199437
102	0x374f5ac6	1.2359296e-05
103	0x38c8141d	9.5404896e-05
104	0xb8644982	-5.4427896e-05
105	0x36d246c8	6.2667277e-06
106	0xb83ddcf5	-4.5266894e-05
107	0xb4242ef4	-1.5290772e-07
108	0xb8107383	-3.4439854e-05
109	0xb6a660bb	-4.9584464e-06
110	0xb55749f1	-8.020134e-07
111	0x37e70f10	2.754436e-05
112	0x380cfc92	3.3613826e-05
113	0xb7b94ce7	-2.2089529e-05
114	0xb8806289	-6.121869e-05
115	0xb378a3ba	-5.7890908e-08
116	0x36a3099d	4.8588977e-06
117	0xb77a48bc	-1.4918096e-05
118	0x37804121	1.5289117e-05
119	0xb84a1b17	-4.8185782e-05
120	0xb90b5e3f	-0.00013291182
121	0xb555957c	-7.956621e-07
122	0xb86aabc2	-5.594991e-05
123	0xb8033e31	-3.1290754e-05
124	0x362351bb	2.4336466e-06
125	0x36e94b7b	6.952728e-06
126	0xb8d86b86	-0.000103197104
127	0x37caab16	2.4159945e-05
128	0x37d8a443	2.5825697e-05
129	0x380d17c4	3.3639153e-05
130	0x393c1e0e	0.00017940273
131	0x38fab883	0.00011955297
132	0x389bfa64	7.437615e-05
133	0x38683a9e	5.5367702e-05
134	0xb6cfeb09	-6.1964424e-06
135	0x3851f1ee	5.0054798e-05
136	0x38880559	6.4859814e-05
137	0x388738c3	6.447874e-05
138	0xb6fe0965	-7.5708836e-06
139	0xb81e5960	-3.7753372e-05
140	0xb5ab982e	-1.2784783e-06
141	0x36ce30c2	6.1449546e-06
142	0xb9742270	-0.00023282482
143	0x384c1302	4.8655093e-05
144	0xb85f0b79	-5.3178028e-05
145	0x3881e674	6.1941246e-05
146	0xb7ef9ed8	-2.8564988e-05
147	0x378a4681	1.6483713e-05
148	0xb92636ea	-0.00015851451
149	0xb8df0f8b	-0.00010636364
150	0xb8b661ef	-8.696678e-05
151	0xb95ae5b1	-0.00020875667
152	0xb91eb4a7	-0.00015135352
153	0x38b9cfa2	8.860162e-05
154	0xb7987093	-1.8172233e-05
155	0xb5bb7a18	-1.396812e-06
156	0xb8121d97	-3.483667e-05
157	0x38f3ef64	0.00011631733
158	0xb8005429	-3.059596e-05
159	0xb730106d	-1.0494242e-05
160	0xb7a4ae88	-1.9631596e-05
161	0xb7b2bcc3	-2.1307153e-05
162	0xb70ec5c4	-8.5099055e-06
163	0xb68926aa	-4.0874193e-06
164	0xb895bb43	-7.139754e-05
165	0x34db10f3	4.080426e-07
166	0x35a339cf	1.2161271e-06
167	0xba975335	-0.0011545183
168	0xb82edab0	-4.16885e-05
169	0xb939a2c5	-0.00017703611
170	0xb97e165a	-0.00024231654
171	0xb98a9c16	-0.00026437704
172	0xb9399219	-0.000176974
173	0xb91cc5c5	-0.00014950994
174	0xb99e720e	-0.00030221086
175	0xb9c3a7b4	-0.00037318247
176	0xba1f75f6	-0.0006082946
177	0xba1fcc57	-0.00060958177
178	0x3a1fed91	0.0006100769
179	0x38cd76f3	9.797318e-05
180	0x39bab911	0.0003561457
181	0x3916aeb6	0.000143702
182	0x3a0f6bd0	0.00054710824
183	0xb8b6a6e8	-8.709525e-05
184	0xb82c3110	-4.105369e-05
185	0xb8c1cd57	-9.241205e-05
186	0x383ce7ef	4.5038698e-05
187	0xb840ab86	-4.593611e-05
188	0xb831eab0	-4.241866e-05
189	0xb92d8ab0	-0.00016550231
190	0x35f04320	1.7900929e-06
191	0x387a846e	5.972798e-05
192	0xbbafeaeb	-0.0053685806
193	0xb924b3b7	-0.00015707208
194	0xba548a2d	-0.0008107748
195	0xba35bac0	-0.000693243
196	0xba950698	-0.0011369763
197	0xba0cf46f	-0.00053769996
198	0xba154607	-0.0005694334
199	0xbac393f7	-0.0014921416
200	0xb9bb514a	-0.00035727985
201	0xb9897611	-0.00026218643
202	0xb93c9d43	-0.00017987662
203	0x394033e2	0.00018329875
204	0xb99dcbec	-0.00030097307
205	0xb88bffb5	-6.675666e-05
206	0xb98a9c6e	-0.0002643796
207	0xb916776d	-0.00014349604
208	0x362ab97b	2.5439938e-06
209	0xb7131b83	-8.768288e-06
210	0xb713f044	-8.817824e-06
211	0x37f63956	2.9352184e-05
212	0x34f224f7	4.5102908e-07
213	0xb7201517	-9.5416535e-06
214	0xb8d4e765	-0.00010152048
215	0xb482a12b	-2.4331652e-07
216	0x388b783c	6.650432e-05
217	0xb9019476	-0.00012357705
218	0x38ae1408	8.300698e-05
219	0x392adba2	0.00016294283
220	0x37c4680b	2.341347e-05
221	0xb74d8cc9	-1.2251731e-05
222	0x380ad891	3.3103457e-05
223	0xb799163d	-1.8249377e-05
224	0x381fd0ff	3.8103197e-05
225	0xb7cf920a	-2.4744328e-05
226	0xb88c73ae	-6.697267e-05
227	0xb87adfb5	-5.981299e-05
228	0x383e99c3	4.544273e-05
229	0xb79d11ce	-1.872415e-05
230	0x374b5b28	1.2120967e-05
231	0xb5e1ac62	-1.6813976e-06
232	0x3819a11c	3.6628087e-05
233	0xb7374a90	-1.092501e-05
234	0xb61b51b1	-2.314435e-06
235	0xb68cf1af	-4.200461e-06
236	0x37442569	1.1691221e-05
237	0xb5afba7b	-1.3092789e-06
238	0xb5d5c064	-1.592573e-06
239	0xb7b987ca	-2.211695e-05
240	0x34d7bec8	4.0185682e-07
241	0x36657cd9	3.419633e-06
242	0xb9a25731	-0.0003096401
243	0xb645542c	-2.9404282e-06
244	0xb826ec4d	-3.9797556e-05
245	0xb80b78d7	-3.3252723e-05
246	0xb8cbce77	-9.7182514e-05
247	0xb8a17f17	-7.7007506e-05
248	0xb7c79014	-2.378974e-05
249	0xb8aa9ec0	-8.135801e-05
250	0xb9e523e8	-0.00043705036
251	0xba35a7ea	-0.0006929623
252	0xba108a5f	-0.0005513783
253	0x39912ffc	0.00027692306
254	0xb93c7292	-0.00017971758
255	0x38e4f05d	0.00010916658
