experiments/v3_simplified_game/MARLv1/attacker_agent_final.pth (torch, 193730 bytes, 11 tensors)

weight_ih_l0 f4 [256, 25]
00000000: ac48 d0bd c0a6 893c d888 87bc 3eed bdbd
00000010: 8a99 a2bd 6496 55bd f037 16bd c661 9fbd
00000020: 96bf acbd 8c65 bb3d f0ca 7c3d 1256 a33d
00000030: 8646 e23d 3e54 8f3d 02dd 9b3d f29e 8abd
00000040: 001c 5b3d e8d1 a93c bc05 09bd ccdd 60bd
00000050: 9686 f43d 006c 32bb bca8 cdbd 4081 4d3c
00000060: 4a13 acbd 3a05 a5bd 14e2 debd 00e3 473a
00000070: f66f 9a3d 0461 bbbd ac71 573d 00c5 82bb
00000080: 4c70 093d be81 873d b05f ca3d f441 793d
00000090: 00b8 e33a 6049 713c be80 f03d 2252 db3d
000000a0: 50f9 dc3d 5a34 a23d 2e5a e2bd 5087 c2bc
000000b0: 7415 f7bd f62a efbd c0be 10bc 0079 1fbc
000000c0: 9083 d1bd c2e7 91bd f668 a23d a092 eabb
000000d0: d8e0 acbc 0464 84bd cc93 edbd 4a59 963d
000000e0: 7cff ddbd 94a0 2c3d 4a69 a4bd f4d1 473d
000000f0: e0d5 40bc 80f5 cb3d 2891 c5bd 02b0 b2bd
00000100: 7eda 9cbd f2eb 943d e8a8 213d 182e 023d
00000110: 8689 f3bd cede 8cbd ac49 ed3d b868 9b3c
00000120: 9027 f93d 12c7 c7bd 00eb 10ba f807 6dbd
00000130: b0ed fc3c 20c9 e8bd 906c 8abd 08a4 c53c
00000140: 563f a5bd 60ef cebd 1e2a d4bd 2ef2 b13d
00000150: f2eb b7bd 0c72 a5bd 00f2 6b3d 4042 6c3c
00000160: 2016 09bd 3e33 993d 344b 883d e04c 9dbd
00000170: 0cbf d8bd e02e fe3c 1874 663d 54c4 683d
00000180: 8405 b5bd 76a8 f03d ce18 943d 8ec9 84bd
00000190: c076 3b3c d013 3a3d 909e 2d3d 34d0 1fbd
000001a0: 9046 c93d ba85 c8bd b0c9 77bc e000 5b3d
000001b0: 06a7 dabd 086d 33bd e233 e63d 24f7 42bd
000001c0: a070 a5bd fe6e 853d d834 b33d f4a5 dfbd
000001d0: ac83 833d b075 123d 946b 52bd e034 713c
000001e0: 5643 f13d 74ed 46bd c0a7 063b 5421 3bbd
000001f0: 6002 fabc 2084 3a3d 6e4a d8bd c096 c3bb
00000200: e445 0ebd 5c64 3b3d d82b 92bc 20e3 ed3b
00000210: 38db 4d3d f803 6bbd 7081 7c3c 3299 d3bd
00000220: f2f5 c03d 2806 9dbc 8cc8 ea3d 9cfb 653d
00000230: 703f 003d 202c e43c 508b afbc a47f dfbd
00000240: dccc 4fbd 08ea 28bd 86be b03d 286e c0bc
00000250: 2e4b c73d 600c 0dbd 00ee 413d 688f cdbd
00000260: 90f9 7b3c e804 43bd 0883 bb3c a458 193d
00000270: f468 41bd 5840 aa3c 886e eb3d c4ed 953d
00000280: 90fa 773c c449 ea3d 4eb6 b2bd 509e c73c
00000290: 1ea8 abbd c619 bf3d 542f 993d 08b4 c4bd
000002a0: a8ec a1bd 6e2c 92bd a8c1 12bd 4afd e23d
000002b0: 9a7a f1bd 9431 95bd faba 80bd 68b5 10bd
000002c0: ecdc 41bd a07f 6b3c 2479 08bd 8823 63bd
000002d0: ac0e 213d a01c 1abc d2e5 f2bd 2084 25bd
000002e0: ccdf 3e3d 1210 d5bd 00cf 73bd 96a7 a73d
000002f0: c0d2 eb3c 7a68 b53d 8441 f23d d493 31bd
00000300: 9071 0c3c 04ae 243d a414 93bd 0c70 e0bd
00000310: 00ab 683d bc32 4f3d fc96 023d 44fc 183d
00000320: 902a 8d3c 304c 973c 04ab 7d3d 7cc5 c73d
00000330: 303e 5dbd 9c12 06bd cc52 32bd 0076 d8bd
00000340: 0060 2abd f8ae 6f3d 26ee c8bd fefd cebd
00000350: c89a 843c 22e0 c9bd cef0 843d 4a32 e3bd
00000360: e461 4c3d f448 1cbd d028 17bd ec09 3bbd
00000370: 98ef e03d de38 ddbd b0ef d5bd 60d3 8b3c
00000380: 2009 87bd d894 63bd 821b efbd 7841 9a3d
00000390: f24a 9ebd a867 88bd c036 14bb fece f13d
000003a0: 86a0 ac3d f4bf 5d3d 105a 88bc c0a0 37bc
000003b0: e074 313c fa9f c7bd ba6d dcbd 9a4a f1bd
000003c0: 069c dd3d 40b9 e93c d024 e93c a608 d7bd
000003d0: 70cd 7fbd a624 cc3d e438 003d 204b 8d3b
000003e0: 087d 393d 72e7 9bbd bcf8 30bd 007e 52bc
000003f0: f28d adbd ec22 8a3d 6a37 e73d 5811 79bd
-0.10170111 0.016803145 -0.016544744 -0.09273766 -0.079394415 -0.052145377 -0.03667444 -0.07782321
-0.084349796 0.09150228 0.061716974 0.07975401 0.110486075 0.0699849 0.07610513 -0.06768598
0.0534935 0.020729974 -0.033452734 -0.054899022 0.11939733 -0.0027225018 -0.10041949 0.012543023
-0.084021166 -0.080576375 -0.10882965 0.0007625073 0.07540886 -0.09149364 0.05259864 -0.0039907694
0.03355436 0.06616543 0.09881532 0.060853913 0.0017373562 0.014726967 0.117433056 0.10709025
0.1078974 0.079201415 -0.11052357 -0.023746163 -0.12064639 -0.11678116 -0.008834541 -0.0097334385
-0.10230172 -0.071242824 0.07930176 -0.0071585923 -0.021103308 -0.06464389 -0.11600456 0.07341249
-0.108397454 0.042145327 -0.08027895 0.04878421 -0.011769742 0.09958935 -0.09646827 -0.08724977
-0.076588616 0.072715655 0.039467722 0.03178224 -0.11891465 -0.06878434 0.115863174 0.018970832
0.12165749 -0.097547665 -0.0005528182 -0.057868928 0.030875057 -0.113664865 -0.06758988 0.024126068
-0.08068721 -0.10104251 -0.10359596 0.0868877 -0.0898055 -0.08078393 0.057603836 0.014420092
-0.033468366 0.07480477 0.06654969 -0.07680678 -0.10583314 0.031028211 0.05626306 0.056827858
-0.08838943 0.117508814 0.072312936 -0.06483756 0.011441886 0.04542905 0.042387545 -0.039016917
0.09827912 -0.09791131 -0.01512377 0.05346763 -0.106763884 -0.043805152 0.112403646 -0.047598973
-0.08078122 0.06515311 0.087503135 -0.10920325 0.06421599 0.035756767 -0.051372126 0.014722079
0.117804214 -0.048566297 0.0020546764 -0.04568608 -0.03051871 0.04553616 -0.10561071 -0.0059688985
-0.03473462 0.045750007 -0.017843172 0.0072597414 0.05025789 -0.05737683 0.01541172 -0.10331954
0.0942191 -0.019167975 0.114640325 0.056148157 0.0313105 0.027853072 -0.021428734 -0.109130174
-0.05073248 -0.041238815 0.086300895 -0.023490027 0.09731136 -0.03443563 0.047346115 -0.10037118
0.015379325 -0.0476121 0.022889629 0.03743805 -0.04721923 0.020782635 0.114956915 0.07320741
0.015135422 0.11439851 -0.08726178 0.024367481 -0.08381675 0.09331088 0.0747973 -0.09604651
-0.07906467 -0.071373805 -0.035829216 0.11083467 -0.117909625 -0.07284847 -0.06285663 -0.035329252
-0.04732983 0.01437369 -0.033318654 -0.055453807 0.039320633 -0.009406239 -0.11860241 -0.040409207
0.046600148 -0.10403456 -0.059523582 0.08186261 0.028787017 0.08857818 0.11828902 -0.04335387
0.008571997 0.040205017 -0.07181671 -0.10958871 0.056803703 0.050585493 0.03188227 0.037349954
0.01723221 0.018468946 0.06193067 0.09754464 -0.054014385 -0.03273259 -0.043535993 -0.10569382
-0.04159546 0.058516473 -0.09811048 -0.10107039 0.016187087 -0.09857203 0.06491242 -0.11093576
0.049898043 -0.03815551 -0.036904156 -0.04566376 0.10983199 -0.10801862 -0.104461074 0.017068565
-0.06593537 -0.05556187 -0.116751686 0.075320184 -0.077291384 -0.06660396 -0.0022615641 0.11807059
0.08429055 0.05413814 -0.016644508 -0.011207759 0.010831088 -0.0974731 -0.10763116 -0.11781807
0.10820775 0.028530717 0.028459936 -0.104996964 -0.06245178 0.09967928 0.031304255 0.004311934
0.045285255 -0.07612504 -0.04320596 -0.012847424 -0.084743395 0.06744942 0.11289866 -0.060807556

weight_hh_l0 f4 [256, 64]
00000000: 187c d43c 0041 8fba 00d0 3d3d 1a71 d9bd
00000010: 1499 b93d 00e4 a3bc 8a77 e2bd 24b2 b8bd
00000020: cac9 f0bd 609d 8d3d 1ad4 95bd 5081 893c
00000030: 8002 84bd 50cb debd ba81 b53d 5037 923d
00000040: ccfd e13d 40a0 aa3d 8481 193d a02b e43d
00000050: de38 eebd 28ef bb3d a4c0 91bd f019 5abc
00000060: e83d 8dbc 301b b13c 80d4 3e3b 305b 763d
00000070: 5647 eabd e423 14bd 9087 debd d44b 3abd
00000080: 804e e7bb 10e8 54bc 844f 263d 68ea d63c
00000090: 284c b2bd 5c68 7abd 3c46 efbd 384d f23d
000000a0: 08de fdbd 8028 a2bb 9015 89bc ec5b 3a3d
000000b0: 72fd c1bd 2c80 8f3d 8078 f73c d076 a4bc
000000c0: c08d a13d c850 483d f08c fa3d 7656 c13d
000000d0: 50d5 ad3d f05c e83c 2057 b53d 0cc5 d93d
000000e0: 5acb b83d b653 a7bd 2c04 b23d c866 8bbd
000000f0: a071 b93d 00eb 46ba 2053 81bd 108f 01bd
00000100: 2082 f3bb 80d2 0b3b a027 e5bd 9490 893d
00000110: 0c81 cdbd 1671 bebd 88e0 d5bc 0048 eaba
00000120: 9e81 8f3d 7012 393d b05e ac3c ec5f ae3d
00000130: 023c f8bd 58b7 46bd 001e f13d 0c4b 873d
00000140: e8f4 adbc f0fc 6b3c 8a84 9a3d 005e 6e3a
00000150: 2cfa 9bbd 74ab 3a3d 9406 f43d d8ac ea3d
00000160: 6848 cebd 0067 633c ec37 103d aa29 b2bd
00000170: 00f4 41b9 a090 90bb c0e3 d33c 0088 533a
00000180: f8a7 9e3c 549e d53d 8c8d 04bd 80b3 68bb
00000190: 8cfb f9bd 1c8f 6bbd 609e af3d 905b 6dbc
000001a0: 38c3 a83d 1cd9 d1bd 4e71 9d3d 5ec2 b53d
000001b0: d0b0 f0bd ec18 983d fc4d 65bd bc48 2fbd
000001c0: b0e0 40bd 48b2 23bd f051 563c 82fe 89bd
000001d0: 202c c2bb 6034 c0bb b8b7 133d 7020 d9bc
000001e0: 4c2c 9c3d 94e4 713d 80a7 47bc 808d 6abb
000001f0: 745b 72bd 1004 f83d fe33 9bbd ac82 1bbd
00000200: dae5 fa3d 4ee1 c8bd 740c 133d 00c3 73bc
00000210: ac8f 46bd eefb ed3d 0017 f13b b8be 27bd
00000220: c697 8dbd e841 a73c b8b6 53bd 1008 163d
00000230: 1c33 afbd 7e01 933d a888 873d 7078 d63d
00000240: 70fc 02bd 1a0f e8bd 2020 b4bc 20c1 ccbd
00000250: d8c3 debd 1ac9 8bbd 5cfa ae3d 4cf7 31bd
00000260: 9480 f53d 308b 523d d845 85bc 6047 bdbd
00000270: 4c7e 843d 102a 10bc 004c 83bc 6a96 d6bd
00000280: fe42 853d 40bd 45bd c600 db3d 604c 8a3b
00000290: 904e 18bc 2084 b33d e6fb bd3d b23e bbbd
000002a0: f889 bc3d 98fe 233d d010 363d bc09 263d
000002b0: 409d f0bd b466 993d 5c39 823d 3e13 9e3d
000002c0: 6ca8 4dbd 6091 b2bd e80a 8bbc 3668 f93d
000002d0: b078 d33c 6073 ed3c 063d ec3d 4c7b d2bd
000002e0: 9c03 38bd a8c1 e63d 2855 efbc e01e f7bb
000002f0: f851 ff3d 4e01 92bd 4290 90bd 4c1c d53d
00000300: 1401 d2bd 7eb2 8ebd f803 103d eec9 ccbd
00000310: 4093 423c b018 6d3d daad acbd aa65 c83d
00000320: 909f 4bbd 9a86 b93d e435 37bd 00e4 43bc
00000330: b4be a0bd a839 0f3d 00a4 4a3a 600c afbb
00000340: bca6 0a3d e281 b63d 120b 9fbd 00bc 4c3a
00000350: 1095 b4bd c08b 283c 0463 e3bd 6267 93bd
00000360: c010 513d 401f c5bd e0b5 e83b 10e7 41bd
00000370: 58f7 52bd 8636 bdbd 848c 51bd ce6b 94bd
00000380: ee9d d1bd d067 8abd 00fa 3e3b fc44 633d
00000390: 5c87 763d b827 5ebd 44dd c2bd be38 81bd
000003a0: 381d 173d 54e9 603d 3cb9 573d 8069 c9bb
000003b0: a082 833b 8486 c83d a0bb 5bbc e0b0 343c
000003c0: a886 6fbd 00b8 a2b8 98b3 94bc 54d7 c3bd
000003d0: 54fa b23d 2035 ea3d e8e3 1dbd 286a c23d
000003e0: f874 dc3d de10 993d 04f1 d23d e0d1 8c3b
000003f0: eacf b4bd 8e1c dd3d 8041 37bd 8051 5e3d
0.025938079 -0.0010929406 0.046340942 -0.106172755 0.090624005 -0.02000618 -0.110579565 -0.09018353
-0.11757238 0.069147825 -0.07315846 0.016785294 -0.06445789 -0.108786225 0.08862634 0.07139456
0.11034736 0.083313465 0.03747703 0.11141133 -0.1163194 0.09176475 -0.071168214 -0.013311848
-0.017241433 0.02161941 0.002911836 0.060145557 -0.114393875 -0.03616704 -0.108657 -0.04548247
-0.0070589185 -0.012994781 0.040603176 0.02623482 -0.08705932 -0.06113468 -0.11683318 0.118311346
-0.12395865 -0.0049486756 -0.016733915 0.04549782 -0.09472169 0.07006869 0.030208826 -0.020076185
0.07888365 0.048905164 0.12233913 0.09440319 0.08487952 0.028364629 0.088545084 0.10633287
0.09023161 -0.081702635 0.08692202 -0.06806713 0.090548754 -0.00075881183 -0.06314683 -0.031630576
-0.0074312836 0.0021335185 -0.111891985 0.06717029 -0.10034379 -0.09298913 -0.026108041 -0.0017874241
0.070071444 0.0451836 0.021041244 0.085143894 -0.121208206 -0.048514694 0.117733 0.06606111
-0.021234944 0.014403567 0.07544811 0.00090929866 -0.07616076 0.045573667 0.11915317 0.114587486
-0.10072404 0.013879538 0.03520958 -0.08699353 -0.00018496811 -0.004411772 0.025865436 0.0008069277
0.019367203 0.10430589 -0.032361552 -0.003550738 -0.12206182 -0.057509527 0.085751295 -0.014487162
0.0824036 -0.102464885 0.07687627 0.08874963 -0.11752474 0.074266285 -0.055982575 -0.042793974
-0.04708928 -0.039964944 0.013081059 -0.06737997 -0.0059256703 -0.0058656186 0.03606388 -0.026504725
0.076256365 0.05905588 -0.012185931 -0.0035789907 -0.059169248 0.1211015 -0.07578276 -0.037966415
0.12250872 -0.098085985 0.035900548 -0.014878035 -0.04847686 0.116203174 0.007357478 -0.040953368
-0.06913714 0.020417169 -0.051687926 0.036628783 -0.0855467 0.07178019 0.06617862 0.104721904
-0.031979024 -0.113310054 -0.021987975 -0.09997773 -0.10877198 -0.068254665 0.08543846 -0.04344873
0.11987415 0.05140227 -0.016268656 -0.09242129 0.06469402 -0.008799091 -0.01602745 -0.10477908
0.06506918 -0.048276186 0.10693507 0.0042205304 -0.0092960745 0.08765435 0.092765614 -0.091428176
0.09206003 0.04003772 0.044449627 0.040536627 -0.11748743 0.07490292 0.06358597 0.07718514
-0.050209448 -0.08719134 -0.016972974 0.1217808 0.025814384 0.02898568 0.11535077 -0.10277423
-0.044925317 0.11267406 -0.02921541 -0.0075415224 0.12466806 -0.07129155 -0.07058765 0.10405788
-0.10254112 -0.069676384 0.035160035 -0.099994525 0.011875927 0.057884872 -0.08431597 0.09785016
-0.049712718 0.09058876 -0.04472913 -0.011956215 -0.07848874 0.034967095 0.00077301264 -0.0053420514
0.033850417 0.08911492 -0.07765783 0.00078099966 -0.08817494 0.010287225 -0.1110287 -0.07197453
0.051041365 -0.09625101 0.0071017593 -0.0473395 -0.051505417 -0.09238915 -0.051159397 -0.072471246
-0.10235201 -0.06758082 0.002914071 0.05548571 0.060187683 -0.054237098 -0.09514859 -0.06309651
0.0368931 0.05491002 0.052666888 -0.00614661 0.0040133744 0.09791282 -0.0134114325 0.011028498
-0.058478028 -7.7590346e-05 -0.018152043 -0.09562555 0.087391526 0.11435914 -0.038547426 0.09492904
0.107644975 0.0747392 0.10299876 0.00429748 -0.08828719 0.10796462 -0.0447402 0.054276943

bias_ih_l0 f4 [256]
00000000: 04fc ea3d fe31 ef3d 58cd b73c 0ead e8bd
00000010: ecc6 1bbd 085c babc 6072 8dbd e671 e03d
00000020: f013 7abc 9898 d1bc 8253 8a3d 0829 48bd
00000030: 44fb ce3d 266b 8fbd 46af f03d 6818 aabd
00000040: 162f 8d3d d4f9 b03d c80a 44bd 6435 d33d
00000050: 0c8b 4dbd 6025 6dbd 12f7 813d 20f7 563c
00000060: c0cc 11bb b4f4 a4bd 1866 3dbd c40b 3dbd
00000070: 3e2d e3bd 4cc0 42bd 2887 8bbc 28a9 173d
00000080: 0430 8cbd 905a 5ebc a016 803d 74aa bdbd
00000090: f801 a4bd a027 16bc 68a7 f93d ca19 f13d
000000a0: 1296 eebd 20c2 febc bcae 7e3d 9e19 833d
000000b0: 189c 6abd a8fc bcbd 8cf7 ad3d 3cea 983d
000000c0: 0ab6 a53d 9c1d b83d de42 a23d f0c2 653d
000000d0: 1447 cf3d b859 c5bc b264 f33d 20eb 5c3c
000000e0: d6d1 963d 0882 d23c 80e2 38bd e6bb dabd
000000f0: 6076 c13b c0fa 683d 6eb8 afbd 60bf 953b
00000100: f036 82bd 1806 84bc 3211 e23d 3012 51bc
00000110: e049 f1bb 6061 b83c 06bd 9bbd 26b9 853d
00000120: 1028 ef3c e0a2 d8bb f457 01bd 266e 93bd
00000130: 240b 71bd b881 a53c c635 f43d 58d4 fabd
00000140: e89c 13bd ec6f 0abd 40dd 0a3b 96a3 abbd
00000150: 5294 d4bd 0c16 50bd 1222 f5bd 306f 67bd
00000160: b04c 48bc f463 85bd a0b2 a83b 929e e13d
00000170: 308a b73c d4f6 c53d 3617 8dbd 6013 293d
00000180: 6478 bd3d 2ec2 88bd d880 babd cec6 cdbd
00000190: 9081 453c f89a b63d dc2a ccbd c0e4 983b
000001a0: 0048 ed3d 58b3 c2bc d4a0 e9bd b24e d8bd
000001b0: 801d 1a3b ea5e babd 503a d9bd 0877 e0bc
000001c0: 98a2 83bd 2441 e5bd c67b 8cbd d0eb 043c
000001d0: 22bd 95bd 48e6 e13c 3c5f 953d aa2a e13d
000001e0: 8887 6abd 9874 283d f053 863d 26fa f63d
000001f0: 5866 85bc 1c97 0fbd 7aae f8bd f8da 233d
00000200: d00f 203c 5463 d8bd ea7c cebd c8d8 debc
00000210: a0b1 993c b289 fcbd fc5c 2d3d e2c6 d5bd
00000220: b4a3 593d f89e 7dbd 14a1 ab3d 62ff 8d3d
00000230: a099 df3b 306a 0cbd 404c cabd e00e 6c3d
00000240: 7ac5 c53d c01b 64bd 6898 a5bd 88da 8a3c
00000250: 2c67 033d 266f e9bd 4849 8dbc 602d 50bd
00000260: 242a 34bd 628a cc3d dc6d 563d ae8d dd3d
00000270: e80b 0b3d 48c8 053d 7025 f13d 28ef aa3d
00000280: 4cc5 703d 9218 e9bd f0e4 e13c 60eb 89bc
00000290: 38c6 323d 8479 983d c233 a73d 689a bd3d
000002a0: 94e4 b13d a0a5 913b 806f b7bb b863 8b3c
000002b0: 48c1 b23d f0f4 263c b0e9 543d 9816 c33c
000002c0: b209 febd 8058 6bbc 6084 ff3b fe4f b2bd
000002d0: 00e0 a9b9 8216 cfbd 20fa 3c3c 9019 d83c
000002e0: c254 c83d 1c6c 75bd 3a23 82bd 48fc 34bd
000002f0: c4c4 dfbd e44c 953d fc61 71bd 123b d83d
00000300: 567f b13d fa69 d0bd 7c20 b9bd 201d 21bd
00000310: 60e2 61bd ac5b 053d 881f 5ebd d47a 813d
00000320: b8a7 98bc 1664 b83d 687e 3f3d 8020 413c
00000330: c043 2fbc ea7e 933d 0071 1bbc 9878 91bd
00000340: 40a9 8b3c 38e0 a1bd 8042 92ba f057 633c
00000350: 2e51 aabd 96f6 f73d 566b b5bd 0816 bdbc
00000360: 9058 3bbc eeb8 8b3d 08e4 66bd a8d7 03bd
00000370: 9c37 2c3d 621f fa3d e02b a03c 10a8 343c
00000380: 1cd0 db3d 6017 b2bc 0c76 9c3d dc09 b0bd
00000390: 68ca 6dbd 7089 15bc 0220 cc3d 6c42 d3bd
000003a0: 0cb1 303d 347a 72bd 3812 ffbd 342a 6a3d
000003b0: b800 ab3d b4b4 233d a08d 813b 46ad b13d
000003c0: e095 47bc b8b2 50bd 3827 ea3c 94af 0abd
000003d0: 0010 b1b9 b88b 983c b0c2 be3d ca2f cebd
000003e0: d07f 8ebd b41d 323d 163d e13d 40cf 8ebd
000003f0: 2cc6 303d cc99 673d a642 fb3d 1039 f4bd
0.114738494 0.11679457 0.022436783 -0.113611326 -0.038031504 -0.022748962 -0.06906581 0.109592244
-0.0152635425 -0.025585458 0.06754209 -0.048867255 0.10106519 -0.07002859 0.11752181 -0.083054364
0.068937466 0.08641401 -0.047861844 0.10312918 -0.050181434 -0.05789697 0.06345953 0.013120443
-0.0022247285 -0.08054486 -0.046239942 -0.0461538 -0.11092614 -0.04754667 -0.017032221 0.037026554
-0.06845096 -0.0135713965 0.062543154 -0.09261027 -0.08008188 -0.009164721 0.12190133 0.11772497
-0.116497174 -0.031098425 0.06217836 0.064013705 -0.05727777 -0.09227878 0.084944814 0.07466552
0.08091362 0.089900225 0.0792291 0.05609411 0.10120979 -0.024090633 0.118844405 0.013483793
0.07364242 0.02569677 -0.045137882 -0.1068037 0.005904004 0.05687976 -0.08580099 0.004569933
-0.06358135 -0.016116187 0.11038436 -0.012760684 -0.007363543 0.02250737 -0.07604413 0.06529455
0.029193908 -0.006611213 -0.03157802 -0.071987435 -0.058848515 0.020203456 0.11924319 -0.122475326
-0.03603831 -0.033798143 0.0021189004 -0.08380811 -0.10379852 -0.050802276 -0.11969389 -0.05650252
-0.012225315 -0.06513205 0.005148247 0.11016573 0.02240476 0.09666219 -0.06889193 0.041278243
0.09251478 -0.06677662 -0.09106606 -0.100476846 0.012054816 0.08916277 -0.09969112 0.004665941
0.115859985 -0.023767158 -0.11407629 -0.10561885 0.0023516119 -0.09100135 -0.10606825 -0.027400509
-0.06427497 -0.11194065 -0.068595454 0.008112863 -0.07311465 0.027575627 0.07293555 0.10994466
-0.05725816 0.041126817 0.065589786 0.12059431 -0.016284153 -0.03505622 -0.12142654 0.040003747
0.009769395 -0.1056582 -0.10082419 -0.027202979 0.018761456 -0.12330951 0.042325005 -0.104383245
0.053134635 -0.061919183 0.083803326 0.06933476 0.0068237334 -0.034280956 -0.09877825 0.057631373
0.09656806 -0.055690527 -0.0808571 0.016949907 0.032080814 -0.11398153 -0.017246857 -0.050824523
-0.0439855 0.09987332 0.052350864 0.10818039 0.0339469 0.032661706 0.11774719 0.08346397
0.058781907 -0.113816395 0.027574986 -0.016835868 0.043646067 0.07445052 0.08164169 0.09257966
0.08686176 0.004444793 -0.0055980086 0.017015323 0.08728272 0.010190234 0.051980674 0.023814484
-0.12404193 -0.014364362 0.0077977628 -0.087066635 -0.00032401085 -0.10111715 0.011534244 0.026379377
0.09781791 -0.059917554 -0.06354375 -0.044185907 -0.10926202 0.07290056 -0.058931336 0.10558142
0.086668655 -0.101764634 -0.09039399 -0.039334416 -0.05514753 0.03255813 -0.05422929 0.06322256
-0.018634662 0.09003465 0.04675141 0.011787534 -0.010697305 0.07201941 -0.0094873905 -0.071030796
0.017048478 -0.079040945 -0.0011158735 0.013875946 -0.08316265 0.121075794 -0.08858363 -0.023081794
-0.011434689 0.06822382 -0.05636981 -0.032188088 0.04204522 0.12213017 0.019552171 0.011026397
0.10733053 -0.021739662 0.07639703 -0.085956305 -0.058054358 -0.009127006 0.099670425 -0.10315403
0.043137595 -0.059198573 -0.12454647 0.057169154 0.083497465 0.039967254 0.0039536506 0.086756274
-0.012181729 -0.05095169 0.028583154 -0.03385885 -0.00033771992 0.01862131 0.093144774 -0.10067709
-0.06957972 0.04348536 0.10997979 -0.069731236 0.04315774 0.056543157 0.122685716 -0.11924946

bias_hh_l0 f4 [256]
00000000: da72 e0bd 4ce3 ffbd 7cb6 023d da67 9b3d
00000010: 181b adbc e82c c83d 4c40 adbd 40dd 183d
00000020: 787f bf3d bcf7 48bd 7098 11bd fefd 943d
00000030: 98c5 b53d fa3f fd3d 601e 8ebd be13 a13d
00000040: 6034 8dbc 906d f23c 48cc 00bd 16c3 b4bd
00000050: 2cad 5a3d c490 92bd 28bf d9bc d8fa 533d
00000060: 60fc f6bb a068 203c f0f0 383d 5cdf 913d
00000070: f816 a0bc 38ab 23bd 5895 ff3d fc6f c2bd
00000080: fc04 72bd cc75 6d3d 58f6 e63c 0477 bcbd
00000090: 5467 6dbd 8015 473b 403f 48bb 30e6 343c
000000a0: c2a7 9dbd d830 2e3d e00a 9fbd 68f6 c23c
000000b0: 0eb8 ca3d 9012 c7bc 1085 90bd a8cf 143d
000000c0: 20e6 29bd 64e8 5a3d 60f6 f1bb d0b1 4fbc
000000d0: 600b 833d 90a7 dcbd 7c15 363d 68f4 a43d
000000e0: ac07 40bd 147f a33d de30 db3d 70ba 963c
000000f0: ec12 5b3d 4057 673b d8f3 fcbd 80cd 04bb
00000100: 185b 1d3d 2896 043d 16f2 893d 3853 47bd
00000110: 6049 d13d d8f4 8bbc 9c8d ec3d ecf8 133d
00000120: 5c2f 12bd c0c8 fc3b 18c1 02bd d2e3 f03d
00000130: a0f9 69bc aad0 c3bd e813 b83d b82c b83c
00000140: f486 9a3d 1c47 303d 9a7a c2bd e62c d03d
00000150: a40e 56bd d8e9 e4bd 68de b2bc 68c7 fb3d
00000160: bc5c b3bd 0803 093d b039 53bd a85e cb3d
00000170: 68e6 a2bd c071 9b3b 6012 4c3d a41d 8b3d
00000180: a27b bfbd f8dd b9bc d0f9 0e3c 30d3 bebd
00000190: da45 a53d 00c2 8b3d 4e52 d63d 986e acbd
000001a0: 50c8 83bc 6c66 9e3d 3440 773d 44bd dd3d
000001b0: 6089 c93b c0fa 5fbd 062f b0bd 782d a43d
000001c0: 809c 623c f4e5 61bd e8ee 6e3d d8de adbc
000001d0: ccf5 71bd c02d 7c3c e046 af3b 28b9 a23d
000001e0: cc82 a53d 80f5 ed3b 8696 973d 30cf 033c
000001f0: 040a 22bd e247 a5bd 029e f53d c01f 113b
00000200: 4031 7dbd 90dd 4d3c 6cd7 99bd 3c0d 7ebd
00000210: 3ecf f63d a014 e33d 381c b93c f0fb fa3c
00000220: b014 4f3c 0031 513d 1c03 6f3d 9c35 463d
00000230: 806f b5bc d44a d03d 8029 3fbb b426 b83d
00000240: f8ad 38bd 60c9 843b 04a9 823d 847d c63d
00000250: 3c96 cd3d be6d edbd 442a 6d3d 109c 7fbd
00000260: baac 93bd e462 11bd ba9e a4bd 02eb 9cbd
00000270: 308b ebbd 588a 853c 6287 ec3d 10d7 673c
00000280: 9cf6 47bd 640d f63d 7c26 e03d 3036 233c
00000290: 08aa 4fbd 64d4 4e3d b4dc 993d 209f 1a3c
000002a0: d0d7 38bc 6c3b 5cbd 7622 f0bd 3297 a93d
000002b0: 40c5 c23b 9e45 d63d 4229 af3d 50b8 23bd
000002c0: 28ab 783d 04d2 013d 3cb6 f1bd ae08 bb3d
000002d0: 4e38 a1bd 7050 c7bd 4c25 debd 2ccb a23d
000002e0: 3444 60bd 0806 11bd 944d 6b3d 4897 6f3d
000002f0: d032 f53c fc6b 663d 2412 473d 168a a53d
00000300: faf5 cbbd c275 f73d d455 08bd 480b a9bc
00000310: 106d 9b3d 6eae f8bd a099 d23b 10b7 db3c
00000320: 3248 9d3d dcdc 13bd 344f 8c3d c264 903d
00000330: 2ca1 08bd c8f5 913c f01b 9bbd 2832 a8bd
00000340: d0e9 47bd 3217 d83d 20e4 da3d acee 7abd
00000350: 162e 82bd 7c36 413d 6065 e03b 3025 413d
00000360: f033 863d 309b 31bc a0af 26bc 5201 a6bd
00000370: 50b6 d2bc 5847 67bd 1457 94bd 4418 b9bd
00000380: 945c 21bd c0e4 cc3b d09b 7bbc 50ea 8a3d
00000390: 80de cdba 80a1 e5ba 06e5 d3bd 80f6 fabd
000003a0: a829 763d 2c96 d03d 9ea0 c53d 4cff 6abd
000003b0: 684c 9cbd 9471 cbbd 88e9 c2bc 0029 0a3c
000003c0: 904e db3d 6215 833d 20cb 0d3d 6891 1ebd
000003d0: d0ad 603c b244 b6bd a0da eabd a831 633d
000003e0: 3e86 d03d fee4 a6bd 628d af3d 8865 ffbc
000003f0: c07b 973c a0d2 58bc 20f7 b6bd fe1c 9cbd
-0.10959406 -0.12494525 0.031912312 0.075881675 -0.021131083 0.0977419 -0.08459529 0.037320375
0.093504846 -0.049064383 -0.035545766 0.07275008 0.08875579 0.12365718 -0.06939387 0.07865094
-0.017236888 0.02959326 -0.031444818 -0.08826272 0.053387806 -0.07156518 -0.026580408 0.051752895
-0.0075374097 0.00979057 0.04515165 0.071226805 -0.019542202 -0.03995821 0.12479657 -0.094940156
-0.059086785 0.057973668 0.028193638 -0.09202388 -0.05795987 0.0030377805 -0.0030555278 0.011041209
-0.07698013 0.04252705 -0.07765746 0.023799136 0.09898387 -0.024300843 -0.0705663 0.03633085
-0.04147923 0.05344428 -0.0073841065 -0.012676671 0.06398654 -0.107741475 0.044454083 0.08054429
-0.046882316 0.079832226 0.1070268 0.018399447 0.053484842 0.0035299808 -0.12351197 -0.002026409
0.038416952 0.032369763 0.06735627 -0.048663348 0.10219073 -0.017084524 0.11550447 0.036126062
-0.035689697 0.007714361 -0.03192243 0.11762203 -0.014280707 -0.09561284 0.08988172 0.022482261
0.075452715 0.043036565 -0.09496041 0.10164814 -0.052260056 -0.11177415 -0.021834567 0.12293893
-0.08757922 0.033450156 -0.051568687 0.099301636 -0.07954103 0.0047437847 0.04982221 0.06792763
-0.09349753 -0.02268885 0.008726552 -0.093176246 0.08069964 0.06824112 0.10464917 -0.084195316
-0.016086727 0.07734379 0.060363963 0.10827115 0.0061504096 -0.054682493 -0.08602719 0.08016485
0.013831258 -0.05515094 0.058333308 -0.021224424 -0.0590723 0.015391767 0.005349025 0.07945472
0.08081588 0.007261932 0.07401757 0.008045003 -0.039560333 -0.08070351 0.11993028 0.0022144169
-0.061814547 0.012565032 -0.075117916 -0.06202434 0.12051247 0.11087918 0.022596464 0.030637711
0.01263921 0.05107212 0.058352575 0.04839097 -0.022147894 0.10170522 -0.0029169023 0.08991757
-0.045087785 0.004052326 0.063798934 0.09691909 0.100384206 -0.11593197 0.057901636 -0.062404692
-0.07210679 -0.0354947 -0.08038087 -0.07662012 -0.11501157 0.016301319 0.1154926 0.014150396
-0.04881917 0.12014273 0.1094484 0.00996165 -0.050699264 0.05049552 0.07512799 0.009437352
-0.011281922 -0.053767607 -0.11725323 0.08280791 0.005943924 0.10462497 0.08552791 -0.039970696
0.060710102 0.031694427 -0.118023366 0.09132515 -0.078720674 -0.09732139 -0.108469576 0.07948908
-0.054752544 -0.035406142 0.05744703 0.058493882 0.029931456 0.056255326 0.048601285 0.080829784
-0.09959026 0.120830074 -0.033284977 -0.020635262 0.075891614 -0.12142645 0.006427005 0.02682069
0.07679786 -0.0360993 0.06851044 0.07050468 -0.03335683 0.017817393 -0.07573688 -0.082126915
-0.048806965 0.10551299 0.10688043 -0.06126277 -0.063564464 0.0471711 0.0068480223 0.047154605
0.06552875 -0.010840222 -0.010173708 -0.081057206 -0.025721699 -0.056464523 -0.07243171 -0.090378314
-0.03939493 0.006252855 -0.015356973 0.06782973 -0.0015706569 -0.0017519444 -0.10346417 -0.122540474
0.06009832 0.10184893 0.09649776 -0.057372376 -0.07631761 -0.09933773 -0.023792997 0.008432627
0.10708344 0.06400563 0.034617543 -0.03871289 0.013713315 -0.08899821 -0.11467481 0.055467278
0.10181855 -0.081491455 0.085718885 -0.031176344 0.018491626 -0.013233811 -0.08933854 -0.07622717

weight f4 [32, 64]
00000000: fc26 333d 9024 ca3c 666e a23d 768a a1bd
00000010: f4fc fdbd ac7d 453d e4ad 87bd 8612 abbd
00000020: 00e6 233c 801a 3dbd 6065 4abc c48a 4f3d
00000030: 6ae7 fa3d b0ad 75bd ba87 f2bd 204e 5b3c
00000040: 66dc 9dbd 8052 f93b f03b 973d 949a ebbd
00000050: 109c b03d e203 a8bd cc85 4cbd 761b f2bd
00000060: cc5c 543d b81e 14bd 0c49 66bd 0021 9d3d
00000070: 3842 483d 0022 c7bc 369c c7bd e019 7fbd
00000080: 28df c3bc a80c 123d 60ac ddbd b4fb d53d
00000090: 101e 12bd 4410 333d ae5c a9bd 0a26 81bd
000000a0: d454 8a3d 30e8 1ebc ccfa e03d 40ba c6bd
000000b0: 4293 843d e8c4 9d3d 58c7 b7bc 00fc 183d
000000c0: 88e0 fdbc 78d7 523d a03c f03b e414 5cbd
000000d0: e6eb a03d fa9b 86bd 6425 123d d843 263d
000000e0: 00af 923d c8a5 a0bc c02b 173c 24c6 9abd
000000f0: e2e1 ccbd 8ce8 eb3d c0ae d6bc 12bc e43d
00000100: e87d 793d c02e 653c 9826 e03d 4cc9 6bbd
00000110: 2810 403d f4b8 e7bd a0ce 64bc e09e a43d
00000120: d0ef f43c b8e4 33bd 12e9 f5bd 80cd 58bb
00000130: e055 17bc 3473 7a3d 945e 3dbd 3ce7 82bd
00000140: 0854 a3bd f0ea d13c aada ff3d 0080 e93a
00000150: b4b2 c93d 90c1 663d 0c46 d63d 04c9 e6bd
00000160: 4404 91bd 6080 8ebd f87b 2fbd a0ea 223c
00000170: 2a7c 9dbd a076 503c b2fd df3d 881a 12bd
00000180: 4010 2cbb 8618 d6bd d2de ec3d 40f1 1bbc
00000190: f8a1 bdbd 627e f7bd b01f 113c f80c f2bc
000001a0: 3049 273d 00e6 c83c 1086 d2bc 6cf4 1f3d
000001b0: 0e62 fdbd cc6a b63d 88b6 c7bd 80e6 ad3d
000001c0: f843 dfbc 6644 8e3d 926e 8bbd d6c2 e2bd
000001d0: 90cf fdbd f043 0e3c 5a68 843d 0cb2 30bd
000001e0: 58fe 7b3d 7c10 cb3d d626 8f3d 10a0 1d3c
000001f0: 683e 823c d0ee 4bbc 4ae9 ab3d 68d6 543d
00000200: 2ae4 ec3d c020 6fbb d840 d53d 881d b73c
00000210: 0aad e13d 86c6 e3bd f2f1 ca3d 3ed6 99bd
00000220: 202e f03c c6f7 afbd 806f 5fbc ace7 5b3d
00000230: 902a 413d 080c 753d 54be bc3d 8c4c fdbd
00000240: c09e 173d 9475 003d 829e bdbd 643a c83d
00000250: a0ad a3bb 00ae 7b3d 201b 29bd 8cc7 383d
00000260: 50cd 1c3d 540d 2bbd 0036 17bc 88b6 eabd
00000270: d857 b03d da6c bfbd fa56 f63d 1828 f2bc
00000280: babd 873d 6ae9 aabd 806a b43d c87b af3c
00000290: d8f6 d83d 583a afbc 949b 173d 9004 b03c
000002a0: 5cac 5e3d f019 2c3d 004d f23b fe24 e73d
000002b0: 589b e23d b4fb 9bbd ca7d 933d eadf acbd
000002c0: 2651 ed3d a091 b1bc f020 c5bd 2049 a63c
000002d0: 14b6 203d 124b d43d c01a bbbb b8d6 e93d
000002e0: 2405 983d 62a9 84bd 00c8 aa3a 02d1 97bd
000002f0: 861e d13d 041d efbd 60db 6a3d 982d 31bd
00000300: f4e6 7a3d 64b7 18bd a20e 8d3d 2a35 9dbd
00000310: 00de d6bc 001a ba39 b029 9a3d ae74 b43d
00000320: 242d ee3d 90a4 0fbd 60d6 f2bb 0269 a2bd
00000330: e402 f53d 3ec9 e3bd 28dc c73d 38f8 82bc
00000340: 4065 45bd f09a b0bc 8e5f d23d 005e 9eb9
00000350: b6a6 b33d 40f4 e43b e8d9 d9bc fc8f f43d
00000360: 1492 513d a035 233c 9a81 c23d 26e9 e83d
00000370: b856 77bd 200d 53bd 5862 353d 7688 9c3d
00000380: 98a1 eebc dc22 70bd c014 a1bd a865 4ebd
00000390: f8c1 8cbd 0c22 eabd 5af7 ba3d a43b 1cbd
000003a0: a8ac ae3d 60cc e03d 20d5 73bd 8433 b93d
000003b0: 6876 cbbd d2eb b1bd c0ff 26bb 383e 0abd
000003c0: 4085 debd fc9d 87bd 0038 e3bb 3085 b7bc
000003d0: c0d9 6ebb 2000 0c3d c27d 813d e885 523d
000003e0: 76fb bf3d b451 53bd f07a 7cbc ac82 35bd
000003f0: 002e bc3a 4280 b0bd f83e ddbc 2885 ef3d
0.04373835 0.024675637 0.07931213 -0.078877375 -0.124017626 0.048215553 -0.06624964 -0.083531424
0.010003567 -0.04616785 -0.012353271 0.050669447 0.1225117 -0.059980094 -0.11842294 0.013385326
-0.07708053 0.0076087117 0.07384479 -0.11504093 0.086235166 -0.082038656 -0.049932286 -0.11821644
0.05184631 -0.03616211 -0.056222007 0.0767231 0.048891276 -0.024308205 -0.09746592 -0.062280536
-0.02391012 0.0356566 -0.108238935 0.10448399 -0.0356732 0.043716684 -0.0826963 -0.063060835
0.06754461 -0.0096989125 0.10985336 -0.09703493 0.064734 0.077035725 -0.022433922 0.0373497
-0.030990854 0.05147502 0.007331446 -0.05373086 0.07857494 -0.06572719 0.03568019 0.040592045
0.07162285 -0.0196103 0.009226739 -0.075573236 -0.10004021 0.11518964 -0.026206374 0.11168684
0.06091109 0.013988197 0.10944861 -0.05756502 0.046890408 -0.11314574 -0.013965279 0.080381155
0.029899508 -0.043919295 -0.12007345 -0.0033081472 -0.009236783 0.061145023 -0.046232775 -0.06391761
-0.07975012 0.025624722 0.12492879 0.0017814636 0.09848538 0.05633694 0.10462579 -0.112688094
-0.07080892 -0.06958079 -0.042842835 0.009943634 -0.07689698 0.012723595 0.109370604 -0.035669833
-0.0026254803 -0.10453896 0.11565937 -0.009517968 -0.09259409 -0.120846525 0.008857653 -0.0295472
0.04084128 0.024523735 -0.025698692 0.03905146 -0.12372218 0.08907089 -0.09751612 0.0849123
-0.02725409 0.0694664 -0.06808199 -0.11072318 -0.12393105 0.00868319 0.06465216 -0.04313855
0.061521858 0.099152535 0.06989829 0.009620681 0.015898898 -0.012447074 0.08394106 0.051962286
0.11566956 -0.0036488026 0.104127586 0.022352949 0.11019333 -0.1112185 0.09909429 -0.075115666
0.02931887 -0.08592181 -0.0136374235 0.053687736 0.04715973 0.059825927 0.0921599 -0.12368116
0.03701663 0.03136213 -0.092587486 0.09776762 -0.004995063 0.061445236 -0.041285634 0.045112178
0.03828174 -0.041760758 -0.009229183 -0.11460596 0.08610505 -0.09346934 0.12028308 -0.029560134
0.06627984 -0.083453014 0.08809376 0.021421328 0.10593957 -0.021390125 0.037013605 0.02148655
0.054363593 0.042016923 0.007394433 0.112863526 0.11064786 -0.07616368 0.07201727 -0.08441146
0.115877435 -0.021675885 -0.09625423 0.02029854 0.039236143 0.10365881 -0.005709976 0.114179075
0.074228555 -0.0647762 0.0013029575 -0.07412912 0.102109 -0.11675456 0.05733812 -0.043256372
0.06125541 -0.03728427 0.068875566 -0.07676156 -0.026228905 0.00035496056 0.075274825 0.088113174
0.11629704 -0.03506905 -0.0074108094 -0.07930185 0.11963442 -0.11122368 0.09758788 -0.0159875
-0.048192263 -0.021558255 0.10272132 -0.00030206144 0.08772032 0.0069871247 -0.026593164 0.11941525
0.0511647 0.009961516 0.09497376 0.113725945 -0.060385436 -0.05152619 0.04428324 0.07643215
-0.029129788 -0.058626994 -0.07865286 -0.050389916 -0.06872934 -0.11432275 0.0912921 -0.038142815
0.08529025 0.109764814 -0.059529424 0.09043029 -0.099346936 -0.08687557 -0.0025482029 -0.033750743
-0.10865259 -0.0662193 -0.006934166 -0.022402376 -0.0036445707 0.034179807 0.063228145 0.051397234
0.09374134 -0.05159159 -0.01541017 -0.04431407 0.0014356971 -0.08618213 -0.027007565 0.116953194

bias f4 [32]
00000000: 0060 4b3c 5c94 53bd dce1 e4bd 587d 873d
00000010: a866 903d f8bf 27bd a04a 1bbc 00cf 853a
00000020: 6cae 5b3d b027 bc3d b6e1 ae3d 74d7 c2bd
00000030: e05b 17bc 0e42 e3bd 18a3 a83d 44c9 8bbd
00000040: 840a 72bd a8f7 88bc 38c5 62bd e02a 2b3d
00000050: 70f0 c43d 467d f8bd 6a65 a0bd 487e 353d
00000060: 4668 863d ca62 a53d 0cc0 fa3d 7477 5f3d
00000070: f8a3 fcbc a4bb 89bd bc70 d93d d86e 48bd
0.012413025 -0.05165516 -0.11175892 0.06615704 0.0705083 -0.04095456 -0.009478241 0.0010208786
0.05363314 0.09187257 0.08539145 -0.09513751 -0.009238213 -0.11096583 0.08234233 -0.06825498
-0.05909206 -0.016719654 -0.055363864 0.041788936 0.09616172 -0.12133269 -0.07831843 0.044309884
0.06562857 0.08075483 0.12243661 0.05455728 -0.030839905 -0.06725243 0.106172055 -0.048933834

weight f4 [6, 32]
00000000: 7b04 13be fc0f 5ebd b084 c93c b3d4 febd
00000010: b7c2 333e 70d7 3b3c 0008 9abb 98b8 e23c
00000020: 3043 25bc 913d 093e c3a0 2a3e deb3 be3d
00000030: aa50 ecbd 230c 193e fa4a f83d 9cca f6bd
00000040: e45b 21bd 22a5 df3d 6327 23be 40fd 1ebc
00000050: 08c2 07be a0a5 04be 86ee 1cbe 8cd5 24be
00000060: 3e3c dc3d 00db 49bb b934 cebd 007d 02bd
00000070: e26a ab3d a140 c7bd a252 9f3d 5952 1abe
00000080: 0ed3 e33d 25f1 98bd 512b b4bd 6332 293e
00000090: 370c 8ebd 689d afbd f669 9b3d 90c0 28be
000000a0: a029 083d f076 06bd 42a1 dc3d a64e a5bd
000000b0: f8a7 a9bd 91b9 133e a0db 50bc 89b9 253e
000000c0: 62ed a63d adb8 9cbd 6053 fabb 80d2 e83b
000000d0: 53a5 dcbd 8fa7 333e 4754 043e e2e8 d33d
000000e0: b02e 673d 40c5 593b d0b3 13bd e972 24be
000000f0: 1865 4bbd 90ab a1bc f0a0 293c ded5 dd3d
00000100: 21d5 073e 8e55 c53d 06f0 c23d 9dc4 c1bd
00000110: 7b1f 193e 9224 e1bd 8620 e03d 3c4f 19bd
00000120: 6037 d93c eb4f 253e 4062 743b ba0e 59bd
00000130: a6cd bfbd 8057 4f3c 541e d0bd f8fa 623d
00000140: 334c e4bd c7b2 1f3e 82ee b33d d03a 853c
00000150: 0f79 293e 5965 2d3e 4e57 0ebe 23b0 343e
00000160: 0aa0 65bd 4044 863b 226b ca3d 9cfc 213d
00000170: 8f5a 0dbe f841 df3c e089 b23c 2dc5 163e
00000180: 3f26 2b3e 8b18 f1bd 72c7 01be 0c0b 203d
00000190: c097 8fbc 1928 c5bd c01b 633c 0e9c ce3d
000001a0: 3c31 a8bd cc70 edbd 8eed c53d 0cb6 053d
000001b0: f08e 46bd 5081 56bd 02ed 903d fe83 df3d
000001c0: 0072 8c3c 71a8 053e 601a 8a3d e247 c1bd
000001d0: 6907 e6bd e29a f5bd 0011 55ba 709b 7e3d
000001e0: 528c e13d 4122 9dbd 18e1 4bbd d3ba 05be
000001f0: dc93 d3bd 68ac fdbc f32a 04be 79eb b4bd
00000200: 1de7 193e 5b96 253e a65d e23d 5361 213e
00000210: 0a3a 983d bb4f 283e 5a8a ce3d 6b94 1d3e
00000220: 9939 323e 3af6 fd3d 80d3 e4bc 201c 283d
00000230: 1db4 d9bd 15f4 2e3e f0e3 26bc 4a6a d13d
00000240: ac75 383d c062 59bb 8934 20be ec02 17bd
00000250: d96b 1dbe 78a8 bd3c 4e07 cb3d c428 d3bd
00000260: 0da5 023e 44d3 5d3d b1b3 323e bf80 003e
00000270: 04c8 08be 3add 71bd a3da 223e 5f7f 2f3e
00000280: 84f7 6abd dde8 263e 56d9 cf3d ee75 d23d
00000290: 034f 0d3e fb52 cfbd a1ff 1e3e 0857 933c
000002a0: 206e 943d c6a1 ddbd 6076 993b 1a00 e9bd
000002b0: 7ed4 e83d 70f2 5d3c 8c0a 19bd 024a b13d
000002c0: a2ea 9c3d 7be5 26be e12a 20be eb9f 10be
000002d0: 4e2e 2bbe 8057 e7bc cc67 29be c0e9 fdbc
000002e0: ca0e 10be d462 0dbd 0003 a1bd 8307 ccbd
000002f0: d38d 193e 6c4f 6fbd 1c18 0abd 10c8 3bbc
-0.14357178 -0.054214463 0.024599403 -0.12442913 0.17554747 0.0114649385 -0.0047006607 0.027675912
-0.0100868195 0.13402392 0.16662888 0.09311651 -0.11538823 0.14946036 0.12123676 -0.120503634
-0.039394274 0.109201685 -0.15932994 -0.009703934 -0.13257611 -0.12953806 -0.15325364 -0.16097087
0.10753678 -0.00308007 -0.1006865 -0.03185749 0.08369996 -0.09729124 0.07779433 -0.15070476
0.1112424 -0.0746787 -0.087973244 0.16523127 -0.069359235 -0.08574945 0.0758857 -0.16479707
0.03324282 -0.03282827 0.10772945 -0.080716416 -0.082839906 0.14426257 -0.012747675 0.16184057
0.08150746 -0.076524116 -0.0076393336 0.0071051717 -0.107737206 0.17544387 0.12922774 0.10347153
0.05644101 0.0033229142 -0.036060154 -0.1605946 -0.049656957 -0.019735128 0.010353312 0.108318076
0.13264896 0.09635459 0.09518437 -0.09461329 0.14953415 -0.10993303 0.10943703 -0.03742908
0.026515663 0.16143768 0.0037290007 -0.05299256 -0.09365396 0.012655139 -0.10162035 0.055415124
-0.11147346 0.15595542 0.08785726 0.016263396 0.16550086 0.16933192 -0.13900492 0.17645316
-0.05606083 0.0040974915 0.09883715 0.039547548 -0.13804077 0.027253136 0.02179426 0.14723654
0.16713808 -0.11772259 -0.12673739 0.039073035 -0.017528415 -0.09626789 0.013861597 0.10088359
-0.08212516 -0.1159378 0.096644506 0.032644317 -0.04847616 -0.052369416 0.07076456 0.109138474
0.017144203 0.13052537 0.06743312 -0.09437539 -0.11231882 -0.11992432 -0.00081278384 0.062159956
0.11013092 -0.07672549 -0.049775213 -0.13059549 -0.10330936 -0.030965999 -0.12907009 -0.08833975
0.15029569 0.16170637 0.11053018 0.15759782 0.07432945 0.16436665 0.10084982 0.15388648
0.17404784 0.124004796 -0.027932882 0.041042447 -0.10630057 0.17085297 -0.0101861805 0.10225351
0.045034096 -0.0033170432 -0.1564504 -0.03686802 -0.15373172 0.023151621 0.09913503 -0.1031051
0.12758274 0.054156557 0.1745136 0.12549113 -0.1335755 -0.05904887 0.15903716 0.17138432
-0.057364956 0.16299768 0.101488754 0.102763996 0.13799672 -0.10123249 0.15527202 0.017985836
0.07247567 -0.108218715 0.004683301 -0.113769725 0.11368655 0.013546571 -0.037363574 0.08656694
0.0766194 -0.16298477 -0.15641357 -0.14123504 -0.16716883 -0.028239965 -0.16543502 -0.03099525
-0.14068142 -0.034518078 -0.078619 -0.0996237 0.14995508 -0.058425352 -0.0337144 -0.011461273

bias f4 [6]
00000000: a5b7 2f3e 142f b7bd 043e 45bd 80e3 27be
00000010: b3c5 333e 2e65 f13d
0.17159899 -0.08944526 -0.048154846 -0.16395378 0.17555885 0.117868766

weight f4 [2, 32]
00000000: b2d8 b43d 3b39 06be dd07 ffbd b46e 3e3d
00000010: 2078 0bbd e6ba cb3d 4f17 d7bd 1460 0c3d
00000020: 203b 8e3d 3ce7 063d d6e1 9a3d 2098 8f3b
00000030: 62d0 abbd b8a6 b8bc 9808 5b3d 9f61 2f3e
00000040: 99c6 80bd 59d8 94bd 06ac f13d 48b0 643d
00000050: 90fc a43c ce9c 78bd d85e 63bd a028 f83c
00000060: 0671 60bd 28ac 8e3c a01d d1bc c8ee 56bd
00000070: d53d 093e c688 ebbd f86f eb3c 6ef5 96bd
00000080: ff5a e5bd 9258 56bd f0ee 09bc 20fc 10be
00000090: f637 a73d b09e 1abd a312 ffbd 6cc9 633d
000000a0: 3938 01be f2e7 e13d 475d 0dbe 7563 083e
000000b0: c6a9 9a3d be63 eebd 88b9 25be 9151 043e
000000c0: 1668 f83d 90c0 13bd a44c 6fbd f25b a2bd
000000d0: bcd7 8b3d b6c0 d43d 1242 78bd 08c5 b13c
000000e0: 2abb 19be f447 a3bd f1e3 123e 3e93 fe3d
000000f0: 508f 483c 32a6 7cbd 4a50 923d 425e d23d
0.08830394 -0.13107769 -0.12452672 0.046492293 -0.034050107 0.099477574 -0.10502493 0.034271315
0.06944871 0.032935366 0.07562606 0.0043821484 -0.08389355 -0.022540435 0.053474993 0.17127083
-0.062878795 -0.072678275 0.11800389 0.055832177 0.020139962 -0.060696416 -0.055510372 0.030292809
-0.054795288 0.017416075 -0.025526822 -0.052473813 0.13402493 -0.11500697 0.028739914 -0.07371031
-0.11198997 -0.05233056 -0.008418784 -0.14158678 0.081649706 -0.037748992 -0.124547265 0.055612013
-0.12619103 0.11030568 -0.13805114 0.1331919 0.07551913 -0.11640118 -0.16184056 0.1292174
0.12129228 -0.036072314 -0.0584227 -0.079276934 0.068282574 0.10388319 -0.060609885 0.021700397
-0.15012804 -0.07972708 0.14344765 0.12430428 0.0122412 -0.061681934 0.0714422 0.102718845

bias f4 [2]
00000000: 06b0 c13d ea62 e83d
0.09457402 0.11346991

weight f4 [1, 32]
00000000: 37c7 2a3e b048 67bc 1bee ffbd d8e3 25be
00000010: 4072 ff3b 3dfa 233e e089 dbbc cde2 14be
00000020: 020d b83d a28b 20be 6c56 52bd b930 273e
00000030: a0c3 f6bc 07b7 2cbe 8b3f 113e 1cc2 493d
00000040: 5d76 093e 940d 8dbd 92ff 81bd 8d82 073e
00000050: a441 29bd e4a8 593d 4619 f7bd fcd7 1dbd
00000060: d9b9 1b3e a076 793c c815 813c 3e41 c53d
00000070: 2fc2 123e d485 41bd aa64 db3d 00cf 1f3c
0.16677557 -0.014116451 -0.12496587 -0.16200197 0.007795602 0.16013427 -0.026799142 -0.14539643
0.08986856 -0.15678266 -0.05135195 0.1632718 -0.030122578 -0.16866694 0.14184396 0.049257383
0.13424058 -0.068873554 -0.06347574 0.13233395 -0.041322365 0.053139582 -0.120653674 -0.038536057
0.15207614 0.015226036 0.015757456 0.096315846 0.14331888 -0.04724677 0.107125595 0.0097539425
