experiments/v3_simplified_game/MARLv1/defender_agent_final_4.pth (torch, 385578 bytes, 33 tensors)

weight_ih_l0 f4 [256, 25]
-0.039295584 0.13105612 0.056975193 -0.06639783 0.0020222578 0.02240034 0.17398712 0.05435634
-0.06463313 -0.019053357 0.020407489 0.030038975 -0.02112885 -0.062040474 -0.08595489 0.013347806
0.12823826 0.030195327 0.1039106 0.13614292 0.06932306 0.0055295317 0.12769885 0.040410306
0.045355767 0.031470012 -0.08970523 -0.13677223 -0.022393461 -0.03405128 0.047590315 0.107711084
0.13766678 0.08927792 -0.051534474 -0.13266182 -0.08944295 -0.015644839 0.02723154 0.018035699
0.10782589 -0.059974913 -0.12527253 -0.11562528 0.060942482 -0.08070284 0.10299629 0.05143387
-0.058805943 -0.042271137 -0.085668474 0.031785727 -0.0028207419 -0.031221187 0.02323763 0.093151376
-0.07217198 0.09230166 -0.03609068 -0.035147443 -0.06476141 0.097940736 -0.056074493 -0.09120426
0.1523655 0.021881565 -0.16397473 -0.12330921 -0.06605638 -0.15693714 0.01611607 0.030858906
-0.1184024 0.020492326 0.07271747 0.11596655 -0.058738563 -0.013779372 0.10937063 0.020417744
0.06599015 0.0098406365 0.008901013 -0.047293507 -0.015204071 0.009824991 0.024521507 0.082840525
0.026771817 -0.053672995 0.15811619 -0.08400948 -0.118601955 -0.059805438 0.11590163 0.101712935
-0.019051097 0.08319295 0.011906545 -0.059293117 -0.10802612 0.12328304 -0.097564004 0.098163925
-0.041943066 -0.03610668 0.18165487 -0.039601665 -0.001394893 0.15349615 0.12083902 -0.03723372
-0.029622056 -0.14026564 -0.06696679 0.069927774 0.13271785 -0.01928935 0.13359864 0.061998263
0.08600699 0.026809035 0.05890991 -0.007728343 -0.084815845 0.0062056454 0.08980308 0.15735127
-0.009971125 -0.06595369 -0.045232262 0.21245751 -0.04045406 -0.09279902 0.0888121 -0.015568478
0.16104166 -0.1682137 -0.029687406 -0.0050825193 -0.03996279 0.007386562 0.11954339 0.06534552
-0.021473534 0.06824498 -0.15543628 -0.080663264 0.00019230711 0.016959954 0.079735935 0.077112034
-0.07725513 0.036461268 -0.02770721 -0.13169916 -0.02231531 0.011283909 0.13941623 -0.062097546
-0.0710116 0.15315986 0.027635738 -0.06444966 -0.12192632 0.077576086 0.15573962 -0.032373708
0.019930413 0.063477315 0.09022686 0.031770393 0.11259383 0.04668361 -0.120817095 0.1418598
0.01991917 -0.04910573 0.08779849 0.04928553 -0.03496003 0.0033778632 0.12538722 0.01694149
0.039345417 0.06477852 0.051026486 -0.094476074 -0.017208602 0.09704726 0.12746264 -0.030134793
0.12394619 0.065323874 -0.07030959 -0.10126173 0.04027149 0.06943947 0.13101915 -0.003718829
0.03266071 -0.004973224 0.056813776 0.052420374 0.12850575 -0.03651382 0.021527572 0.031861745
0.064317875 -0.0601959 0.0035249684 0.1532822 -0.13238166 0.05845709 0.09487358 -0.033577822
0.059873324 0.09469915 0.021852015 0.087907076 0.08264679 -0.10720742 -0.0994373 -0.105698
0.05400969 -0.10393992 -0.07463504 0.059071314 -0.0144602675 -0.049641404 -0.024867846 -0.060494915
0.03095331 0.05975717 -0.05023484 -0.16126509 -0.11510987 -0.029622203 -0.016654056 -0.0046547004
0.007947308 -0.09233292 -0.092898905 -0.06669144 0.088103116 -0.057237275 -0.11865486 -0.027677372
-0.067745246 -0.020245142 -0.07807784 0.13149886 0.15412872 0.012253325 0.10117478 0.1054535
00000000: 68f4 20bd 9333 063e d25e 693d 96fb 87bd
00000010: db87 043b eb80 b73c ae29 323e c1a4 5e3d
00000020: 605e 84bd c915 9cbc 9b2d a73c 4c14 f63c
00000030: 6916 adbc 271e 7ebd 1e09 b0bd c2b0 5a3c
00000040: e450 033e 315c f73c 15cf d43d 0d69 0b3e
00000050: 40f9 8d3d 1331 b53b 7dc3 023e 4785 253d
00000060: f8c6 393d b3e6 003d 60b7 b7bd 050e 0cbe
00000070: 7e72 b7bc 5b79 0bbd 10ee 423d a197 dc3d
00000080: 85f8 0c3e 58d7 b63d d015 53bd 80d8 07be
00000090: de2d b7bd 9b29 80bc ae14 df3c 9abf 933c
000000a0: d2d3 dc3d 41a8 75bd 7147 00be f2cc ecbd
000000b0: d39e 793d 8847 a5bd b8ef d23d 52ac 523d
000000c0: 80de 70bd 8024 2dbd f472 afbd c031 023d
000000d0: 32dc 38bb 93c3 ffbc d85c be3c 26c6 be3d
000000e0: e7ce 93bd a708 bd3d d2d3 13bd c4f6 0fbd
000000f0: a1a1 84bd 2795 c83d 5eae 65bd 4dc9 babd
00000100: b405 1c3e f840 b33c fee8 27be 8a89 fcbd
00000110: 9148 87bd 21b4 20be d905 843c d1cb fc3c
00000120: f57c f2bd 86df a73c e6ec 943d df7f ed3d
00000130: d997 70bd e0c2 61bc b5fd df3d 1d43 a73c
00000140: d825 873d 9f3a 213c 8ed5 113c d6b6 41bd
00000150: 7f1a 79bc 00f9 203c 54e1 c83c 4ba8 a93d
00000160: 9250 db3c 37d8 5bbd 36e9 213e 2a0d acbd
00000170: 95e5 f2bd 8cf6 74bd d55d ed3d df4e d03d
00000180: 0c11 9cbc 1161 aa3d ab13 433c 57dd 72bd
00000190: cc3c ddbd d27b fc3d a3cf c7bd 2b0a c93d
000001a0: 7ecc 2bbd 99e4 13bd bc03 3a3e 5b35 22bd
000001b0: d8d4 b6ba 182e 1d3e 737a f73d 6382 18bd
000001c0: f4a9 f2bc cca1 0fbe e225 89bd 4b36 8f3d
000001d0: 30e7 073e b304 9ebc 15ce 083e e4f1 7d3d
000001e0: 6f24 b03d 9f9e db3c 854b 713d 0a3e fdbb
000001f0: eeb3 adbd ba58 cb3b adea b73d b120 213e
00000200: ee5d 23bc ba12 87bd 7745 39bd 768e 593e
00000210: 28b3 25bd 6a0d bebd 1ee3 b53d ee12 7fbc
00000220: 1be8 243e 3640 2cbe 0133 f3bc 438b a6bb
00000230: 06b0 23bd f90a f23b 2ad3 f43d dfd3 853d
00000240: 44e9 afbc 06c4 8b3d b02a 1fbe c832 a5bd
00000250: 0ca6 4939 9aef 8a3c 984c a33d eaec 9d3d
00000260: f037 9ebd 6958 153d 3bfa e2bc 25dc 06be
00000270: 99ce b6bc 25e0 383c 21c3 0e3e ff59 7ebd
00000280: 886e 91bd f0d5 1c3e 5864 e23c 2ffe 83bd
00000290: 82b4 f9bd 36e0 9e3d 357a 1f3e 4b9a 04bd
000002a0: 1b45 a33c 6500 823d dcc8 b83d ac21 023d
000002b0: 9897 e63d 5037 3f3d f46e f7bd b243 113e
000002c0: 872d a33c 1723 49bd b2cf b33d a0df 493d
000002d0: 4032 0fbd 245f 5d3b 8265 003e e1c8 8a3c
000002e0: a928 213d 9aaa 843d 2601 513d ac7c c1bd
000002f0: 0ef9 8cbc b7c0 c63d 9185 023e 3edd f6bc
00000300: 80d7 fd3d 86c8 853d 79fe 8fbd 4f62 cfbd
00000310: b8f3 243d 4836 8e3d e229 063e 99b7 73bb
00000320: 3dc7 053d 6df6 a2bb 90b5 683d bfb6 563d
00000330: 0397 033e 848f 15bd 975a b03c 7681 023d
00000340: 17b9 833d fa8f 76bd 2803 673b 02f6 1c3e
00000350: 0f8f 07be b470 6f3d 144d c23d e688 09bd
00000360: bb3d 753d a1f1 c13d ff02 b33c a008 b43d
00000370: b842 a93d 908f dbbd c8a5 cbbd 3178 d8bd
00000380: 4439 5d3d 74de d4bd 41da 98bd c3f4 713d
00000390: c2ea 6cbc c954 4bbd a7b7 cbbc 84c9 77bd
000003a0: cc91 fd3c efc3 743d 0cc3 4dbd ad22 25be
000003b0: b9be ebbd 43aa f2bc 166e 88bc 7586 98bb
000003c0: 6d35 023c 0b19 bdbd c841 bebd 8695 88bd
000003d0: 686f b43d a271 6abd 5201 f3bd a8bb e2bc
000003e0: 05be 8abd 24d9 a5bc 46e7 9fbd a3a7 063e
000003f0: ebd3 1d3e 2cc2 483c b934 cf3d 01f8 d73d

weight_hh_l0 f4 [256, 64]
-0.028423581 -0.0715929 0.08875279 0.011013035 -0.03854714 -0.092026144 0.023252767 -0.017411703
-0.120467305 0.113747634 -0.031001164 -0.028334329 0.12081489 0.109230734 0.009661213 -0.13856055
0.043623682 0.022557255 0.05613523 -0.052131783 -0.018674236 -0.06291363 -0.0679061 0.056645345
0.14276117 -0.026449228 0.02833732 0.03370828 -0.039861143 -0.042783946 0.026625322 0.11281098
-0.03878371 0.0922479 0.04215153 0.046649642 0.1180508 0.026574288 -0.05470877 0.05444136
0.11052705 0.09491057 -0.015047737 -0.023263168 0.09878682 -0.010031224 0.06867119 0.04390235
-0.02274835 -0.052802756 0.0019257817 -0.024546655 -0.110752694 -0.08918254 -0.053500593 0.0047647674
0.055333026 -0.029972788 0.07896438 -0.08524276 0.07271006 0.054741986 0.042059164 0.04011498
-0.048377708 0.052201457 0.058570646 0.07782502 -0.03498556 0.060605794 -0.050279096 -0.07046391
-0.12017479 0.062383365 0.09366668 -0.03403914 0.052371588 -0.046958048 -0.07389625 0.09149223
0.006073492 0.02891028 0.041035745 0.06507305 -0.11428538 0.042200387 0.13402414 0.055991843
0.16305646 -0.11714431 -0.079619505 0.07763241 -0.14161299 0.0029827303 -0.029828623 -0.08864699
-0.042733997 -0.031810667 0.0769011 -0.094336994 0.032113332 0.013940541 0.0015769778 0.08778121
0.06849604 0.03999424 0.04149441 0.0024713532 0.049025398 -0.15492442 -0.038158238 -0.022677213
0.10613766 -0.10173421 -0.12440359 0.133686 0.025924245 0.10564458 0.0390682 -0.079131655
0.06808465 -0.1308193 -0.014395814 -0.059285596 0.031446755 -0.0101048695 0.059975434 -0.07107942
-0.053641424 0.04176578 0.0050166724 0.101495214 -0.07726264 0.009262068 -0.096580744 -0.020461302
-0.009611146 0.12022108 -0.07318425 -0.07447115 -0.04882218 -0.055348348 0.094032995 -0.07086537
0.008373113 -0.048033945 0.06845295 -0.08603159 0.043495055 0.07819195 -0.07985737 0.13003059
-0.14582114 0.033586 0.07172747 0.08024604 0.08218588 0.10002385 -0.029195933 -0.019099798
-0.12249054 -0.098286636 0.049906615 0.10345125 0.16699791 -0.1724222 0.0012740383 -0.08231179
0.041488897 -0.09041003 -0.016741777 -0.09648462 0.030174743 0.050198153 -0.05556685 0.07105221
-0.073867664 -0.1155328 -0.12474236 -0.12843221 -0.024202194 0.10811847 0.057957932 0.0757779
-0.044034474 -0.014419515 0.021297744 0.0158212 0.037866246 0.10229247 0.050834723 0.09167912
-0.119414136 0.022554994 0.07190319 -0.00056729506 0.05052986 0.122188166 -0.010203491 0.048340753
0.06256113 0.055061888 -0.11503255 -0.032828726 0.095501676 -0.014296492 -0.11362405 0.037974432
-0.07818907 0.07586048 -0.10312164 -0.07966334 0.121987715 0.11949592 0.07576491 -0.0009911194
0.014443757 0.12247038 -0.01690727 0.08640265 -0.050320957 -0.058587603 0.08680036 -0.057533666
0.004279075 0.06226029 0.12906516 0.077649444 0.021164795 0.017542453 0.03362341 -0.07667731
0.014842083 -0.011021946 -0.07748775 -0.12300474 -0.04601512 0.13026756 0.009588936 0.045774862
0.023080615 0.026771411 0.0125864195 -0.040219918 -0.050312232 0.14022668 -0.045710117 -0.09255698
0.14617203 0.14695442 0.030158974 0.010799222 0.047294334 -0.05360601 -0.005095192 0.07743477
00000000: 92d8 e8bc 4c9f 92bd 06c4 b53d 0470 343c
00000010: 9be3 1dbd 3478 bcbd 967c be3c fda2 8ebc
00000020: 90b7 f6bd 85f4 e83d 27f6 fdbc 651d e8bc
00000030: cc6d f73d 5db4 df3d 104a 1e3c d1e2 0dbe
00000040: bfae 323d fec9 b83c 0eee 653d 2388 55bd
00000050: b6fa 98bc dcd8 80bd 5a12 8bbd f304 683d
00000060: fc2f 123e 0dac d8bc ab23 e83c b211 0a3d
00000070: 7045 23bd 383e 2fbd 591d da3c 7109 e73d
00000080: abdb 1ebd 78ec bc3d 15a7 2c3d b213 3f3d
00000090: 9ec4 f13d 52b2 d93c 4e16 60bd e7fd 5e3d
000000a0: 025c e23d 7960 c23d c98a 76bc 6692 bebc
000000b0: bf50 ca3d 015a 24bc 7ba3 8c3d f3d2 333d
000000c0: bf5a babc b447 58bd 836a fc3a 1116 c9bc
000000d0: 4fd2 e2bd 56a5 b6bd 7023 5bbd c421 9c3b
000000e0: e2a4 623d 7e89 f5bc 14b8 a13d c293 aebd
000000f0: 03e9 943d 2239 603d 3b46 2c3d 9b4f 243d
00000100: b427 46bd 32d1 553d c6e7 6f3d b962 9f3d
00000110: 054d 0fbd c83d 783d 74f1 4dbd 624f 90bd
00000120: 331e f6bd b385 7f3d 51d4 bf3d a06c 0bbd
00000130: 9783 563d 1557 40bd eb56 97bd 4760 bb3d
00000140: 2504 c73b 40d5 ec3c 1915 283d 0545 853d
00000150: 740e eabd 50da 2c3d a03d 093e b457 653d
00000160: 46f8 263e 5be9 efbd 8d0f a3bd befd 9e3d
00000170: ff02 11be e979 433b 285b f4bc 8e8c b5bd
00000180: d809 2fbd e74b 02bd 537e 9d3d c133 c1bd
00000190: 4589 033d de66 643c 98b2 ce3a a3c6 b33d
000001a0: a747 8c3d 00d1 233d 0bf6 293d 6df6 213b
000001b0: dbce 483d 82a4 1ebe d04b 1cbd 90c5 b9bc
000001c0: b45e d93d 075a d0bd 4fc7 febd fce4 083e
000001d0: 155f d43c 305c d83d fa05 203d c70f a2bd
000001e0: f76f 8b3d 7ff5 05be 6cdc 6bbc 74d5 72bd
000001f0: 50ce 003d e58e 25bc cda8 753d 1692 91bd
00000200: 1cb7 5bbd 9812 2b3d e662 a43b b9dc cf3d
00000210: e03b 9ebd eebf 173c 20cc c5bd 769e a7bc
00000220: 1178 1dbc 7836 f63d a0e1 95bd 5584 98bd
00000230: c4f9 47bd f3b4 62bd 5f94 c03d dd21 91bd
00000240: 622f 093c 3ebf 44bd 0f31 8c3d 5531 b0bd
00000250: df27 323d 1a23 a03d 438c a3bd bd26 053e
00000260: 2352 15be 7991 093d dae5 923d 0958 a43d
00000270: 1251 a83d 4ed9 cc3d 4f2c efbc 2e77 9cbc
00000280: 52dc fabd 814a c9bd e16a 4c3d 40de d33d
00000290: 8001 2b3e 728f 30be a2fd a63a 1593 a8bd
000002a0: 43f0 293d e528 b9bd 0d26 89bc ba99 c5bd
000002b0: 0631 f73c 949c 4d3d 119a 63bd d283 913d
000002c0: ee47 97bd 769c ecbd ec78 ffbd bc83 03be
000002d0: ae43 c6bc 376d dd3d 4c65 6d3d 7231 9b3d
000002e0: 7e5d 34bd d43f 6cbc 9b78 ae3c 769b 813c
000002f0: a319 1b3d b77e d13d 1238 503d 43c2 bb3d
00000300: 668f f4bd 40c5 b83c fb41 933d 87b6 14ba
00000310: 66f8 4e3d ca3d fa3d 8b2c 27bc f400 463d
00000320: 0d20 803d 9388 613d 3096 ebbd 6a77 06bd
00000330: 6296 c33d d53b 6abc bab3 e8bd 148b 1b3d
00000340: 9721 a0bd bd5c 9b3d 7031 d3bd 8826 a3bd
00000350: b2d4 f93d 47ba f43d a22a 9b3d 73e8 81ba
00000360: 82a5 6c3c c0d1 fa3d 1d81 8abc dff3 b03d
00000370: 591d 4ebd 8ef9 6fbd 63c4 b13d 6ca8 6bbd
00000380: 7c37 8c3b a504 7f3d a829 043e ac06 9f3d
00000390: cb61 ad3c 31b5 8f3c b3b8 093d fe08 9dbd
000003a0: 352c 733c 6495 34bc e6b1 9ebd e9e9 fbbd
000003b0: 5a7a 3cbd dc64 053e ea1a 1d3c 6c7e 3b3d
000003c0: 8f13 bd3c b84f db3c 4537 4e3c a4bd 24bd
000003d0: 3314 4ebd 9597 0f3e 883a 3bbd 848e bdbd
000003e0: 1fae 153e 387b 163e f40f f73c 38ef 303c
000003f0: b4b7 413d fa91 5bbd 92f5 a6bb 1f96 9e3d

bias_ih_l0 f4 [256]
0.050221603 -0.0667882 0.093975514 -0.006893954 -0.066759646 0.031560354 -0.14252417 -0.07540742
0.030357173 0.07333181 0.13248436 0.010615356 0.10462607 0.09168572 -0.060518697 -0.108344495
0.18420206 0.13789168 0.08159165 0.11760085 -0.042701844 -0.0780912 0.099005625 0.10636133
0.08915468 0.071220174 0.0791831 -0.013910475 0.08001589 -0.030076327 0.14678407 -0.049785554
-0.012192849 -0.09352637 -0.1310646 0.044125367 -0.0829057 -0.037835352 0.12190651 -0.10582793
-0.11273821 0.055927776 -0.08100497 0.059543084 -0.022336667 0.023010502 0.08502313 -0.011781755
0.024888309 0.05617436 -0.050944388 0.061121132 0.034844562 -0.075263694 0.05342424 0.0016227106
-0.08421927 0.08859567 0.14080058 -0.009785728 0.0027249414 0.09510066 8.081924e-05 0.05526836
-0.010229036 0.008759882 0.082635805 -0.07382064 -0.107670955 0.107809246 0.09320776 0.10990723
-0.0030438015 -0.045174927 -0.03529875 0.02182163 0.06837572 -0.08521301 0.14572635 0.03079769
-0.031512853 0.10793101 0.016595367 -0.016774673 0.0040985844 -0.13275783 -0.08087597 0.008300238
0.10137649 0.0671348 0.10273681 -0.09135712 0.038533174 -0.10594196 0.12342657 -0.010251635
0.052818652 0.112126015 0.07498427 -0.12716146 -0.016440721 -0.12766077 0.1001189 -0.12653577
-0.009217638 0.07468474 -0.010448612 -0.03561789 0.08240005 -0.0020728183 -0.12950693 0.08099347
-0.092949204 -0.04167856 -0.08579541 0.12478973 0.03045213 0.08204843 -0.04026518 -0.009252871
-0.07463605 -0.0020117455 0.0733971 0.05983733 0.05116722 -0.10609983 0.10192589 -0.06733052
-0.0683242 0.07755781 -0.015368472 0.057220194 0.05996622 0.1335348 0.10236036 -0.07925784
-0.07546914 -0.03561915 0.114011526 0.076854095 0.09500546 -0.020442216 -0.13297386 0.0829112
-0.12547144 -0.0862064 0.089109115 0.044639595 -0.06301412 0.074161895 -0.065790296 -0.051704288
-0.027551226 0.14288561 0.009906828 -0.108055815 0.10533416 -0.0019825795 0.02388949 0.07515072
0.09669293 0.12702544 -0.0763772 -0.08059661 -0.097394995 0.020658443 -0.08721799 0.03776745
0.011337358 0.08818601 0.12945099 0.054159004 0.038625527 -0.03767931 0.08361695 -0.048749045
-0.06883954 0.0726917 0.055173434 0.111837305 0.0675818 0.08673485 0.08450098 0.029743215
0.00071822637 0.09429963 -0.09842257 -0.019511554 -0.06253809 -0.04145783 0.11715517 0.068328045
-0.08990659 -0.021869743 -0.115744464 0.15508817 0.07753228 -0.023775062 -0.034029722 -0.07344628
-0.063452065 -0.11850113 0.070789956 0.1027857 -0.021391734 -0.029234748 0.031758748 0.020882603
0.13633159 0.11463387 -0.050555028 0.032623403 0.12015855 -0.06336659 0.025904018 -0.007124566
0.07829205 0.07678454 0.10921695 0.112302296 -0.0770522 0.009956579 -0.0383418 -0.011706427
0.061861824 0.055388067 0.07017741 0.101973 0.054709356 0.048920326 0.044626556 -0.064567514
-0.039013468 -0.078097485 -0.00040085748 0.0562736 0.103363514 -0.101574555 0.063887894 -0.02106481
-0.08474627 -0.017519346 -0.052413277 -0.042518042 0.108009756 -0.024923237 0.13665691 0.08144565
-0.017073803 0.09198621 -0.09457481 0.035091132 -0.105831355 -0.09541975 -0.07442875 -0.06540319
00000000: 2bb5 4d3d 40c8 88bd 3c76 c03d ade6 e1bb
00000010: 48b9 88bd 6e45 013d dbf1 11be 356f 9abd
00000020: 9baf f83c fd2e 963d fba9 073e 08ec 2d3c
00000030: 3146 d63d b9c5 bb3d 74e2 77bd b8e3 ddbd
00000040: 779f 3c3e 7a33 0d3e 8619 a73d b7d8 f03d
00000050: 21e8 2ebd 47ee 9fbd 76c3 ca3d f8d3 d93d
00000060: bb96 b63d e2db 913d c02a a23d c3e8 63bc
00000070: 5fdf a33d a162 f6bc 904e 163e f0eb 4bbd
00000080: 84c4 47bc c18a bfbd cc35 06be cdbc 343d
00000090: 77ca a9bd 3ef9 1abd 1faa f93d 50bc d8bd
000000a0: 4ae3 e6bd 8614 653d efe5 a5bd 73e3 733d
000000b0: 63fb b6bc 8580 bc3c 9b20 ae3d 4308 41bc
000000c0: 91e2 cb3c 1617 663d 10ab 50bd 275a 7a3d
000000d0: 2cb9 0e3d da23 9abd 60d3 5a3d 22b1 d43a
000000e0: 277b acbd a671 b53d 072e 103e 5154 20bc
000000f0: ee94 323b 23c4 c23d 807d a938 1361 623d
00000100: b097 27bc 9c85 0f3c f63c a93d 472f 97bd
00000110: 9782 dcbd 18cb dc3d b6e3 be3d 0b17 e13d
00000120: 847a 47bb 5809 39bd 6c95 10bd 46c3 b23c
00000130: 9208 8c3d 2984 aebd 4a39 153e 704b fc3c
00000140: 9f13 01bd ef0a dd3d 02f3 873c 0a6b 89bc
00000150: 6b4d 863b abf1 07be 4da2 a5bd b9fd 073c
00000160: 7a9e cf3d f87d 893d ad67 d23d 7119 bbbd
00000170: f6d4 1d3d 19f8 d8bd 12c7 fc3d 79f6 27bc
00000180: 5f58 583d 53a2 e53d 5a91 993d 9d36 02be
00000190: b1ae 86bc 81b9 02be 230b cd3d 9892 01be
000001a0: 9305 17bc 50f4 983d a830 2bbc 11e4 11bd
000001b0: 5bc1 a83d 1fd8 07bb 779d 04be e8df a53d
000001c0: 275c bebd 23b7 2abd 81b5 afbd c291 ff3d
000001d0: bf76 f93c 0209 a83d 1aed 24bd 5b99 17bc
000001e0: c9da 98bd 7dd7 03bb 3851 963d fd17 753d
000001f0: b894 513d de4a d9bd 85be d03d 95e4 89bd
00000200: 8fed 8bbd a1d6 9e3d 0bcc 7bbc b95f 6a3d
00000210: 249f 753d 59bd 083e 4fa2 d13d ef51 a2bd
00000220: 918f 9abd 63e5 11bd e07e e93d ae65 9d3d
00000230: 3992 c23d 6f76 a7bc 4d2a 08be 59cd a93d
00000240: 967b 00be fb8c b0bd d77e b63d 02d8 363d
00000250: 8c0d 81bd 31e2 973d 10bd 86bd e0c7 53bd
00000260: 1cb3 e1bc 9b50 123e 4050 223c 5e4c ddbd
00000270: 70b9 d73d 2aee 01bb e4b3 c33c 9fe8 993d
00000280: f106 c63d f512 023e a66b 9cbd d60f a5bd
00000290: 0777 c7bd e53b a93c 589f b2bd 0bb2 1a3d
000002a0: 53c0 393c de9a b43d cd8e 043e d5d5 5d3d
000002b0: cd35 1e3d 9f55 1abd 5d3f ab3d 14ad 47bd
000002c0: bffb 8cbd 63df 943d 8afd 613d f50a e53d
000002d0: 5468 8a3d 0ba2 b13d da0e ad3d 0ba8 f33c
000002e0: 5b47 3c3a 2a20 c13d c691 c9bd b2d6 9fbc
000002f0: f813 80bd b0cf 29bd 0def ef3d 93ef 8b3d
00000300: f220 b8bd 2d28 b3bc 6f0b edbd 6fcf 1e3e
00000310: 3ec9 9e3d ebc3 c2bc c062 0bbd 016b 96bd
00000320: 28f3 81bd b8b0 f2bd 53fa 903d 4f81 d23d
00000330: b83d afbc b67d efbc 7615 023d fe11 ab3c
00000340: 829a 0b3e 2ac5 ea3d ca12 4fbd 1ea0 053d
00000350: b015 f63d 58c6 81bd aa34 d43c 3175 e9bb
00000360: 9557 a03d 3741 9d3d 23ad df3d bffe e53d
00000370: 8bcd 9dbd eb20 233c 4b0c 1dbd 50cc 3fbc
00000380: d362 7d3d 99de 623d 2db9 8f3d 38d7 d03d
00000390: eb16 603d ae60 483d 56ca 363d f93b 84bd
000003a0: 96cc 1fbd 93f1 9fbd 2e2a d2b9 257f 663d
000003b0: 40b0 d33d 5206 d0bd a8d7 823d 1c90 acbc
000003c0: 748f adbd bb84 8fbc 4eaf 56bd 6627 2ebd
000003d0: 3834 dd3d d12b ccbc caef 0b3e facc a63d
000003e0: 5cde 8bbc 4463 bc3d 70b0 c1bd b8bb 0f3d
000003f0: 1cbe d8bd 6e6b c3bd 1a6e 98bd 1cf2 85bd

bias_hh_l0 f4 [256]
0.08114677 -0.05455699 -0.12081355 -0.020159543 -0.0029242474 0.09126713 0.014158659 0.1103558
-0.040344756 0.068603195 0.09736012 -0.033975054 0.04302547 0.06470173 0.14536175 -0.043330915
-0.013015106 -0.08045076 0.0434703 0.07518243 0.12270164 0.10119835 0.15785678 0.12438316
-0.051319122 -0.06561779 -0.0374629 -0.08246554 0.09347319 -0.15383118 0.12923537 0.15630613
-0.009399461 -0.06344469 0.07786149 -0.036782045 0.028642474 0.028448807 -0.03695046 -0.005124477
-0.043579888 -0.14092463 0.02333475 -0.07071261 0.056208596 -0.0004959184 0.072504796 -0.0017822934
0.046602145 0.1691394 0.015782997 -0.08327979 0.018804774 0.04529196 0.07769929 0.11599684
0.100472964 0.0475895 0.12807906 -0.072685085 0.09256089 0.10707534 -0.055598643 0.09336071
-0.004694005 0.11854142 0.024474 -0.07396246 0.08777396 -0.1234464 -0.05280891 0.13609877
0.033410918 -0.027986538 0.04616693 0.0324961 0.039249524 -0.058193363 0.02288486 0.02040127
0.14730833 -0.09580622 -0.0026582833 0.10154388 -0.023268927 0.11414918 0.032431632 -0.14699323
0.08282 -0.014081753 0.11507671 0.066772535 -0.10341213 0.03800936 0.11179454 -0.09113213
0.021599224 0.069728196 -0.12085396 0.056674667 0.0606951 -0.023265854 -0.053311262 0.05626721
-0.07268739 0.078241974 0.03102896 0.10955473 -0.12029814 0.08146715 -0.08753416 -0.025223222
-0.09919029 0.05875599 -0.06142088 0.017110161 0.0247599 -0.046488695 -0.06874539 0.07579372
-0.03457309 -0.13390514 0.06718579 0.044156734 0.03051442 -0.09831099 0.10738861 -0.08921792
-0.065885246 -0.08217223 0.08144306 0.034781165 0.078986526 -0.08651981 -0.043028113 -0.047218535
-0.01812118 -0.029896958 0.08089997 -0.004103076 0.055048853 0.006368151 0.055773657 0.09785756
0.09323289 -0.04263003 0.11683794 0.00078585616 0.09958432 0.0517907 -0.071963966 0.00855696
-0.09561201 0.09668116 0.08013733 -0.0074410243 -0.0590256 0.023284372 0.0012075427 0.14221103
0.07823103 0.010307255 0.12271629 -0.0020533656 -0.02283061 -0.09247983 -0.09484789 0.020294754
-0.1340869 0.066972494 0.029008504 0.036246687 0.11760537 0.041287128 0.13365759 0.0010900293
0.041979082 0.029296406 0.027691744 0.09252883 0.00040418634 -0.0544216 0.081796676 0.10498009
-0.025761236 0.07959129 0.04333718 -0.042324156 0.051277917 -0.062152844 0.08222508 -0.07280674
0.044632956 -0.04759912 0.068570964 -0.061867762 -0.032944426 0.15527543 -0.063393764 0.124821134
0.028896432 -0.07343325 -0.07356364 -0.0807746 0.0033657656 -0.033354722 0.014127546 0.1162578
0.02584525 -0.05171269 0.11778088 0.12600987 -0.10687217 -0.10086149 -0.022516698 0.14612812
0.04126939 -0.0789487 0.10990429 -0.02656372 0.07071472 0.013461583 0.16841555 -0.04052458
-0.10185523 0.060390525 -0.0555451 0.0048855664 -0.014222932 0.09352966 0.015292865 0.035196908
0.029728731 0.057205494 0.10779865 0.057640757 0.052159682 0.027853286 -0.08241961 -0.028093068
0.100264266 -0.041890416 -0.042406484 -0.070106804 0.057015076 -0.12687565 0.069064386 -0.05937339
0.022148998 -0.076230034 0.112285495 -0.042492922 0.11616706 -0.056539383 -0.046788305 0.068061024
00000000: 4730 a63d 2677 5fbd 186d f7bd a025 a5bc
00000010: bba4 3fbb 43ea ba3d b8f9 673c 3902 e23d
00000020: 8b40 25bd d57f 8c3d be64 c73d 6d29 0bbd
00000030: 7a3b 303d 5782 843d b6d9 143e c27b 31bd
00000040: 503d 55bc 5ec3 a4bd ea0d 323d 3ff9 993d
00000050: ff4a fb3d 1541 cf3d 35a5 213e 99bc fe3d
00000060: 0034 52bd 9f62 86bd b372 19bd b1e3 a8bd
00000070: df6e bf3d ec85 1dbe 4756 043e b70e 203e
00000080: 3200 1abc 4aef 81bd d875 9f3d c5a8 16bd
00000090: 9fa3 ea3c 790d e93c 5e59 17bd 3beb a7bb
000000a0: d380 32bd 8c4e 10be 8528 bf3c c6d1 90bd
000000b0: fc3a 663d 8500 02ba 657d 943d d89b e9ba
000000c0: e4e1 3e3d e132 2d3e 584b 813c 988e aabd
000000d0: 780c 9a3c 1084 393d ce20 9f3d c08f ed3d
000000e0: c5c4 cd3d 35ed 423d 2827 033e ebdb 94bd
000000f0: 9090 bd3d 514a db3d 67bb 63bd e633 bf3d
00000100: 2bd0 99bb d8c5 f23d b37d c83c a179 97bd
00000110: d5c2 b33d 77d1 fcbd 284e 58bd 7a5d 0b3e
00000120: e3d9 083d 0644 e5bc 8919 3d3d a11a 053d
00000130: 1cc4 203d 2a5c 6ebd 0879 bb3c 9020 a73c
00000140: ffd7 163e 0d36 c4bd 9836 2ebb 3df6 cf3d
00000150: 7a9e bebc 0cc7 e93d 08d7 043d 6585 16be
00000160: 889d a93d 27b7 66bc 57ad eb3d 0ac0 883d
00000170: bdc9 d3bd b4af 1b3d 89f4 e43d 7ba3 babd
00000180: dbf0 b03c a8cd 8e3d 4882 f7bd b223 683d
00000190: 6d9b 783d 0898 bebc e95c 5abd 7278 663d
000001a0: 20dd 94bd 543d a03d 7230 fe3c 3b5e e03d
000001b0: df5e f6bd 40d8 a63d 1c45 b3bd eea0 cebc
000001c0: 4724 cbbd 1faa 703d 7694 7bbd 9c2a 8c3c
000001d0: 46d5 ca3c ee6a 3ebd 62ca 8cbd bd39 9b3d
000001e0: 839c 0dbd 6e1e 09be b498 893d b1dd 343d
000001f0: 60f9 f93c 4657 c9bd 8fee db3d e3b7 b6bd
00000200: d8ee 86bd ea49 a8bd 9ecb a63d b276 0e3d
00000210: b0c3 a13d 4c31 b1bd 3f3e 30bd 3968 41bd
00000220: de72 94bc 77ea f4bc e2ae a53d 1973 86bb
00000230: e87a 613d ecab d03b eb72 643d 8b69 c83d
00000240: e3f0 be3d d49c 2ebd bb48 ef3d ea01 4e3a
00000250: ddf2 cb3d 7c22 543d d861 93bd 7e32 0c3c
00000260: 3bd0 c3bd c600 c63d 0a1f a43d d6d3 f3bb
00000270: d4c4 71bd debe be3c 6946 9e3a c59f 113e
00000280: 9737 a03d c3df 283c ae52 fb3d c291 06bb
00000290: 4207 bbbc 1166 bdbd 9c3f c2bd 2f41 a63c
000002a0: 144e 09be e028 893d 3ea3 ed3c 6877 143d
000002b0: 16db f03d b11c 293d 89dd 083e 50df 8e3a
000002c0: 42f2 2b3d 04ff ef3c ccd9 e23c c17f bd3d
000002d0: f9e8 d339 2fe9 5ebd 0485 a73d cdff d63d
000002e0: 3a09 d3bc c200 a33d 5482 313d 185c 2dbd
000002f0: cb08 523d fb93 7ebd 9f65 a83d b31b 95bd
00000300: 0cd1 363d 4bf7 42bd ef6e 8c3d 0d69 7dbd
00000310: bcf0 06bd 8600 1f3e 97d4 81bd 39a2 ff3d
00000320: 36b8 ec3c 2c64 96bd 89a8 96bd 276d a5bd
00000330: 2d94 5c3b f69e 08bd 3977 673c 9218 ee3d
00000340: 6bb9 d33c b0d0 53bd 1a37 f13d bb08 013e
00000350: ccdf dabd 7890 cebd f074 b8bc 9ca2 153e
00000360: 180a 293d dbaf a1bd 8015 e13d 299c d9bc
00000370: e1d2 903d f98d 5c3c 2075 2c3e 1afd 25bd
00000380: 7a99 d0bd 0e5c 773d 4283 63bd 1a17 a03b
00000390: 4d07 69bc 7a8c bf3d ed8e 7a3c a22a 103d
000003a0: ab89 f33c 4f50 6a3d 8ac5 dc3d b718 6c3d
000003b0: 64a5 553d 932c e43c 9dcb a8bd 6f23 e6bc
000003c0: 5a57 cd3d 4995 2bbd 6cb2 2dbd 2894 8fbd
000003d0: a488 693d b1eb 01be a171 8d3d 8331 73bd
000003e0: d171 b53c 7e1e 9cbd f0f5 e53d 0f0d 2ebd
000003f0: ffe8 ed3d d795 67bd 18a5 3fbd 9463 8b3d

weight f4 [32, 64]
-0.009183349 0.015264616 -0.04941351 0.1613973 -0.066519715 -0.0062887883 0.115041666 0.035977975
-0.014941311 0.056461275 0.043890983 -0.0488514 -0.039180703 0.04166139 0.062197898 -0.13123883
-0.1103619 0.008080976 0.03200964 0.08412937 0.062033106 0.09464036 -0.06868372 -0.14899671
0.03030655 0.100308545 -0.14548732 -0.02565261 0.1050084 0.04024485 -0.09937816 0.028522266
0.09674534 -0.038289543 0.008872979 0.06585206 0.0036002386 0.086054996 0.024428623 0.11479416
-0.09529771 -0.04856018 -0.017713534 -0.040133476 0.08882657 -0.05161145 0.06679783 0.014315553
0.10676053 0.0389973 -0.036760654 -0.092652775 -0.10730561 -0.04361113 0.15852869 -0.09098527
0.01826942 0.04437287 -0.12110047 0.0541964 0.09183853 -0.014911955 -0.04411886 0.02738503
0.11220603 -0.09707135 0.06541131 0.028203517 0.10613921 -0.016193744 -0.052544817 -0.1047732
-0.084095344 0.10203089 0.09310444 -0.006921124 -0.109307535 0.113578804 -0.03478541 -0.0003609332
-0.018996427 -0.081571616 0.08629879 0.09551744 -0.0040064673 0.053894877 0.06356954 0.06823166
0.1187552 -0.0040341704 0.01438272 -0.053181607 -0.00488201 0.06873813 -0.011708047 -0.14266846
0.013381056 0.10548378 0.030495519 0.020734532 0.05819686 0.013057916 0.024062756 0.020195361
-0.118462004 -0.0052226917 -0.008895798 0.09691701 -0.017387174 0.067407124 -0.08171949 0.020093698
0.025871474 0.040370952 0.04118439 0.08193811 0.1136025 -0.027721709 -0.084353454 -0.08987756
0.111150384 -0.045466643 -0.08282939 0.106611475 -0.048970975 -0.0908867 -0.081374496 0.06262487
0.04709265 0.09877598 0.012951056 -0.075006396 -0.0013184337 -0.033020843 -0.031097542 0.044891044
-0.02388116 0.015436596 -0.07665744 -0.0632297 -0.04340021 -0.06463242 -0.05407802 -0.012502182
0.04716409 0.11906227 -0.008018913 -0.079150856 -0.020655042 -0.03256363 0.073574044 -0.07657668
-0.10756822 0.0003022824 0.024494227 -0.13089855 -0.06851753 0.016150003 0.014373389 -0.11098278
-0.067869596 -0.08080743 0.046742097 -0.014492994 0.012471668 -0.012545031 0.08224244 0.08516415
-0.019572524 0.10828832 -0.13366486 0.072578534 0.02056129 -0.040859275 0.096775584 0.018252023
-0.11257883 0.029635618 -0.032328393 0.033753335 -0.115601406 -0.021168223 -0.0717548 -0.017253058
0.013016029 -0.076393075 -0.05227196 -0.0621126 0.058372904 0.016058061 -0.0072987615 0.061732266
-0.1195277 0.06388766 0.112002246 0.12709437 -0.0630968 -0.020343676 -0.1206458 0.13011876
-0.082919225 0.0036723984 0.08887689 -0.0008669546 0.036916427 0.03640211 -0.011915208 -0.13707678
-0.12478531 0.055662412 0.030841026 0.055543214 -0.04618815 -0.017053377 -0.05571955 -0.11269381
-0.10059241 0.08775007 0.01572233 0.0059844735 0.08763098 -0.033516746 -0.104140416 -0.05310437
0.022769988 0.030659389 -0.09625908 -0.11096666 -0.0060786684 -0.097428955 -0.025975628 -0.020875737
-0.0423328 -0.038162783 0.02892151 0.11822823 0.098214224 0.07253428 -0.0074210675 0.0058727353
-0.021468312 -0.028002629 0.056194134 0.102441706 0.024483865 -0.033515938 0.098836854 -0.097260475
0.17228776 -0.023092408 -0.12390186 -0.046251226 0.028252793 0.02327079 -0.01899362 -0.10060141
00000000: c275 16bc 7118 7a3c d265 4abd 5545 253e
00000010: 7d3b 88bd 2e12 cebb f79a eb3d a45d 133d
00000020: 67cc 74bc f043 673d 08c7 333d 6818 48bd
00000030: f27b 20bd 22a5 2a3d 39c3 7e3d 7963 06be
00000040: 6b05 e2bd 1266 043c 8a1c 033d 054c ac3d
00000050: 6d16 7e3d ced2 c13d 0daa 8cbd 9892 18be
00000060: 7145 f83c 916e cd3d a1fa 14be 6c25 d2bc
00000070: a50e d73d c9d7 243d c786 cbbd 87a7 e93c
00000080: 6c22 c63d 7fd5 1cbd f95f 113c 72dd 863d
00000090: fbf1 6b3b 9a3d b03d 891e c83c 3319 eb3d
000000a0: 722b c3bd 0ae7 46bd f91b 91bc 0063 24bd
000000b0: b4ea b53d 8766 53bd 4dcd 883d c88b 6a3c
000000c0: 44a5 da3d a2bb 1f3d 5792 16bd bdc0 bdbd
000000d0: 0bc3 dbbd 96a1 32bd 5855 223e 7c56 babd
000000e0: c0a9 953c 54c0 353d 8603 f8bd 0bfd 5d3d
000000f0: d715 bc3d 4651 74bc fab5 34bd 9256 e03c
00000100: 46cc e53d 58cd c6bd 5df6 853d 100b e73c
00000110: 845f d93d bea8 84bc 3c39 57bd 5593 d6bd
00000120: 2e3a acbd 92f5 d03d 8aad be3d 99ca e2bb
00000130: a1dc dfbd 019c e83d 257b 0ebd a23b bdb9
00000140: 659e 9bbc 050f a7bd 6cbd b03d a69e c33d
00000150: af48 83bb e0c0 5c3d bf30 823d 0abd 8b3d
00000160: ed35 f33d 1331 84bb 80a5 6b3c f5d4 59bd
00000170: 45f9 9fbb 94c6 8c3d 1cd3 3fbc ae17 12be
00000180: 373c 5b3c e107 d83d bdd1 f93c 77db a93c
00000190: d55f 6e3d dff0 553c 421f c53c be70 a53c
000001a0: 359c f2bd 1d23 abbb aebf 11bc 6d7c c63d
000001b0: 8c6f 8ebc bf0c 8a3d 8c5c a7bd 8a9b a43c
000001c0: 6af0 d33c 035c 253d f7b0 283d 2bcf a73d
000001d0: 6da8 e83d a318 e3bc 81c1 acbd ba11 b8bd
000001e0: d0a2 e33d 3b3b 3abd 75a2 a9bd 1e57 da3d
000001f0: ca95 48bd ce22 babd aca7 a6bd 7841 803d
00000200: 39e4 403d 104b ca3d aa30 543c f49c 99bd
00000210: 4bcf acba dd40 07bd 46c0 febc acdf 373d
00000220: 6ca2 c3bc c7e9 7c3c 93fe 9cbd 937e 81bd
00000230: 6bc4 31bd 015e 84bd ea80 5dbd f4d5 4cbc
00000240: 222f 413d ebd6 f33d c261 03bc d819 a2bd
00000250: c334 a9bc 7161 05bd fdad 963d 3cd4 9cbd
00000260: ba4c dcbd a87b 9e39 1ea8 c83c 450a 06be
00000270: eb52 8cbd 034d 843c 5d7e 6b3c f14a e3bd
00000280: 37ff 8abd 5e7e a5bd a474 3f3d 0674 6dbc
00000290: f855 4c3c ac89 4dbc b96e a83d 8b6a ae3d
000002a0: 8f56 a0bc 44c6 dd3d 71df 08be 0ea4 943d
000002b0: 2770 a83c 0e5c 27bd 4732 c63d 4485 953c
000002c0: bb8f e6bd 65c6 f23c c76a 04bd f040 0a3d
000002d0: 6ec0 ecbd fb68 adbc 2ef4 92bd 4956 8dbc
000002e0: 2f41 553c f973 9cbd 1f1b 56bd c869 7ebd
000002f0: 6d18 6f3d 328c 833c 732a efbb f9da 7c3d
00000300: f0ca f4bd 89d7 823d 6f61 e53d 0725 023e
00000310: e538 81bd c8a7 a6bc 2515 f7bd da3d 053e
00000320: 8ed1 a9bd 9fac 703b 1605 b63d 5744 63ba
00000330: ae35 173d 611a 153d 0138 43bc db5d 0cbe
00000340: 718f ffbd 45fe 633d 52a6 fc3c 4881 633d
00000350: c92f 3dbd 86b3 8bbc 2f3a 64bd 03cc e6bd
00000360: 6503 cebd 4fb6 b33d 1ecc 803c 6719 c43b
00000370: df77 b33d db48 09bd 9247 d5bd f883 59bd
00000380: 2088 ba3c 6629 fb3c 7b23 c5bd 7d42 e3bd
00000390: 912f c7bb d588 c7bd d7ca d4bc 9803 abbc
000003a0: 2865 2dbd 9450 1cbd cdec ec3c a421 f23d
000003b0: 8a24 c93d da8c 943d 6d2c f3bb 1370 c03b
000003c0: 50de afbc c565 e5bc d22b 663d f5cc d13d
000003d0: 6392 c83c 0248 09bd fa6a ca3d 8030 c7bd
000003e0: 346c 303e 4a2c bdbc 42c0 fdbd ed71 3dbd
000003f0: 6772 e73c 62a2 be3c 8298 9bbc 1d08 cebd

bias f4 [32]
0.140631 0.07947372 -0.12821943 0.061027665 0.027713992 -0.09265911 0.044969767 -0.006219311
-0.083654255 0.015375845 -0.011411002 0.16290839 -0.07770375 -0.07688523 -0.10009807 0.0623511
-0.02413015 -0.025719466 0.15860274 0.017590104 0.06856232 -0.11599283 0.061419066 -0.051480982
0.085737914 0.09105489 -0.044899534 0.03619382 0.08389689 0.07919002 -0.035543572 0.04543595
00000000: 9301 103e 1ec3 a23d f44b 03be 25f8 793d
00000010: 7408 e33c 0fc4 bdbd 3832 383d 5dcb cbbb
00000020: ec52 abbd f8ea 7b3c 36f5 3abc 75d1 263e
00000030: 2523 9fbd 0176 9dbd 3800 cdbd de63 7f3d
00000040: 98ac c5bc a1b1 d2bc c268 223e 1f19 903c
00000050: 676a 8c3d a68d edbd 8f92 7b3d b9dd 52bd
00000060: 5c97 af3d fc7a ba3d 93e8 37bd f93f 143d
00000070: 22d2 ab3d 612e a23d 2396 11bd 0c1b 3a3d

weight f4 [6, 32]
-0.036637843 0.04643551 0.1212353 0.17002389 -0.15645659 0.10719127 0.07813371 -0.084029116
-0.04794061 -0.00027571997 -0.15277803 -0.14465211 0.044985723 -0.0072954856 0.0138823 -0.02540028
0.12086666 0.16913277 0.21225551 0.01871003 0.030083368 -0.06302774 0.08419835 0.15331794
-0.028091043 -0.086940475 0.006075292 0.005914733 -0.09075668 -0.09912565 -0.09923043 -0.14813896
-0.0846154 -0.116322875 0.10332641 -0.05187802 -0.19947189 0.074952684 -0.013589562 -0.10877146
-0.132102 0.13755423 -0.024106465 -0.09450977 -0.01842906 -0.093623385 -0.18297978 0.07371679
0.12664182 0.044772144 0.12341583 0.12741785 0.063248426 0.057165295 -0.14675112 0.04059243
0.19385956 -0.027817702 -0.17051436 -0.05865055 -0.04038329 0.13441291 0.037036177 0.12170329
0.172183 0.14637455 0.015935369 0.119391866 0.06175663 0.14858364 0.13204575 0.02371257
-0.028459376 -0.18277149 -0.11917019 -0.0776903 0.16987824 0.08634348 -0.094112545 0.09566642
-0.054760646 -0.040915646 0.031776804 0.0016548156 0.10460814 -0.11294295 -0.051426075 -0.15577115
-0.13494915 -0.029850697 0.16414319 -0.13462114 0.122874804 0.11763049 0.09280278 0.024055453
0.05882638 -0.030890632 0.1320839 -0.032669295 0.14932679 0.18914855 0.025095988 -0.103712216
-0.057746336 -0.1192055 0.20881188 0.026834376 0.13484994 0.063847594 -0.11463398 -0.06288658
-0.0067284484 -0.020651214 -0.05711192 -0.11566879 0.09212149 -0.17254701 0.10953254 -0.086881995
0.04798132 -0.08558947 0.09742943 0.17683126 -0.11158832 -0.10432801 -0.04914373 -0.12793808
-0.057337824 -0.12516448 0.04003687 0.07920087 -0.105989784 -0.14565507 0.027353585 0.15840505
-0.063469104 0.04597566 0.12115686 -0.19885454 -0.105674356 -0.20892207 -0.18273252 0.017277606
0.027271269 0.091452084 -0.20426665 0.026792912 0.13924631 0.038966198 0.14187284 0.07362049
0.05406877 -0.10256821 -0.15808326 -0.067399904 -0.176301 -0.09547405 -0.18298166 -0.09890465
0.058404393 -0.035232164 0.1639824 -0.15852666 0.07461471 0.05964121 -0.17374802 -0.03531576
-0.10306533 0.17097457 -0.085496075 -0.11738202 0.023180488 0.028415365 0.08493222 -0.09095059
0.072422795 -0.07530986 -0.15485363 -0.08565809 -0.13823353 0.0127665745 -0.108747736 0.04237618
0.11800369 -0.19122574 -0.15595663 0.011121095 -0.061680272 -0.09590185 0.15954663 0.07034752
00000000: 9011 16bd 2933 3e3d 374a f83d be1a 2e3e
00000010: 2836 20be 1987 db3d 9104 a03d 7517 acbd
00000020: 605d 44bd 828e 90b9 d871 1cbe af1f 14be
00000030: f342 383d f80e efbb 9672 633c 3f14 d0bc
00000040: f088 f73d 2431 2d3e 8259 593e c745 993c
00000050: 6571 f63c b014 81bd 2f70 ac3d 61ff 1c3e
00000060: 301f e6bc d90d b2bd 3e13 c73b 60d0 c13b
00000070: a3de b9bd 6402 cbbd 5339 cbbd bdb1 17be
00000080: d74a adbd b03a eebd cc9c d33d 0c7e 54bd
00000090: 5c42 4cbe cb80 993d c1a6 5ebc 92c3 debd
000000a0: bf45 07be 04db 0c3e ec7a c5bc 578e c1bd
000000b0: 8af8 96bc 9ebd bfbd 0d5f 3bbe d4f8 963d
000000c0: 65ae 013e ff62 373d 70c1 fc3d d379 023e
000000d0: 6488 813d 2826 6a3d ed45 16be 3f44 263d
000000e0: 1f83 463e f3e1 e3bc 519b 2ebe 8f3b 70bd
000000f0: f368 25bd 8aa3 093e 3fb3 173d 933f f93d
00000100: be50 303e 36e3 153e e48a 823c b983 f43d
00000110: 85f4 7c3d 4f26 183e 0037 073e dd40 c23c
00000120: a323 e9bc 7328 3bbe 800f f4bd 181c 9fbd
00000130: 90f4 2d3e dad4 b03d 14be c0bd c2ec c33d
00000140: b34c 60bd 2a97 27bd 6528 023d 66e6 d83a
00000150: cb3c d63d a24e e7bd 26a4 52bd 7982 1fbe
00000160: 1c30 0abe 7389 f4bc 2715 283e 20da 09be
00000170: c9a5 fb3d 41e8 f03d 620f be3d f10f c53c
00000180: eef3 703d 5a0e fdbc 0041 073e 3dd0 05bd
00000190: 1fe9 183e 28b0 413e 1a96 cd3c 1267 d4bd
000001a0: 6c87 6cbd 0322 f4bd c8d2 553e c4d3 db3c
000001b0: 1a16 0a3e 87c2 823d 38c5 eabd aeca 80bd
000001c0: 517a dcbb bc2c a9bc 30ee 69bd c2e3 ecbd
000001d0: 31aa bc3d 2ab0 30be 9952 e03d 30ef b1bd
000001e0: 1088 443d 8849 afbd 1589 c73d 4113 353e
000001f0: 6b88 e4bd eca9 d5bd f04a 49bd 3302 03be
00000200: 11db 6abd 1e2b 00be b3fd 233d 1134 a23d
00000210: 2c11 d9bd 9a26 15be a014 e03c ef34 223e
00000220: 17fc 81bd f950 3c3d 1621 f83d 86a0 4bbe
00000230: cc6b d8bd abef 55be 3c1e 3bbe c489 8d3c
00000240: ff67 df3c 3b4b bb3d 472b 51be cf7c db3c
00000250: 9696 0e3e 059b 1f3d 1d47 113e 57c6 963d
00000260: 3777 5d3d 480f d2bd 94e0 21be f608 8abd
00000270: 4088 34be e687 c3bd 8b5f 3bbe 858e cabd
00000280: 7239 6f3d 9a4f 10bd 01eb 273e d054 22be
00000290: 99cf 983d 574a 743d 00eb 31be 42a7 10bd
000002a0: ea13 d3bd f513 2f3e 9118 afbd fc65 f0bd
000002b0: 02e5 bd3c 57c7 e83c f2f0 ad3d 4e44 babd
000002c0: 6752 943d 0e3c 9abd f391 1ebe 826d afbd
000002d0: 178d 0dbe e52a 513c 22b7 debd a592 2d3d
000002e0: ebab f13d aed0 43be 18b3 1fbe 4135 363c
000002f0: 74a4 7cbd 3068 c4bd 3160 233e 5c12 903d

bias f4 [6]
-0.1296282 0.18968682 -0.042788096 0.15359154 -0.029830301 -0.07082956
00000000: 41bd 04be 433d 423e 9242 2fbd 1a47 1d3e
00000010: ad5e f4bc 170f 91bd

weight f4 [2, 32]
0.037794873 0.12690587 0.008325273 0.08485858 -0.07700184 -0.018553518 -0.028665472 0.103800766
0.051838677 -0.20703098 0.18649578 0.07115736 -0.093750715 0.10576979 -0.15936369 0.13278301
0.118225925 -0.0077482346 -0.01572519 -0.09662453 -0.060595788 -0.14551662 0.0201455 -0.109606706
0.14797477 -0.08409287 0.12940107 -0.14839919 0.11756979 0.15083784 0.117221735 0.10588553
0.102808036 -0.13428374 -0.10573208 0.13803715 0.107112676 -0.09914495 0.091507204 0.11180168
0.018545464 0.21004471 -0.14621593 -0.17100634 -0.16196758 -0.17968445 0.14994521 -0.023292346
0.0076355212 -0.09259426 -0.003553771 -0.057078104 0.04600965 -0.16282856 0.05393571 -0.031662155
0.05043573 0.030183183 0.074630156 0.17045283 0.08898798 0.08167443 -0.15161243 -0.14748411
00000000: ccce 1a3d 9df3 013e ba66 083c 56ca ad3d
00000010: 24b3 9dbd 8cfd 97bc dad3 eabc 7f95 d43d
00000020: cb54 543d eeff 53be c0f8 3e3e f3ba 913d
00000030: 6000 c0bd d59d d83d 3c30 23be 45f8 073e
00000040: 6f20 f23d e7e4 fdbb 1dd2 80bc 15e3 c5bd
00000050: 4a33 78bd 4f02 15be 2d08 a53c 7b79 e0bd
00000060: b386 173e e238 acbd b781 043e f5f5 17be
00000070: 6ec8 f03d 3c75 1a3e f311 f03d 83da d83d
00000080: 058d d23d ad81 09be 108a d8bd 9c59 0d3e
00000090: e45d db3d 820c cbbd 2168 bb3d 47f8 e43d
000000a0: a8ec 973c f615 573e a1b9 15be 491c 2fbe
000000b0: d4da 25be 33ff 37be 3d8b 193e 97cf bebc
000000c0: 6533 fa3b 0fa2 bdbd 62e6 68bb bbca 69bd
000000d0: 9d74 3c3d 88bc 26be b1eb 5c3d 2db0 01bd
000000e0: b295 4e3d b942 f73c b2d7 983d 308b 2e3e
000000f0: 543f b63d ec44 a73d 4a40 1bbe 1306 17be

bias f4 [2]
-0.09130656 0.047251165
00000000: effe babd 708a 413d

weight f4 [1, 32]
0.14604686 -0.13510604 -0.188304 0.20538878 -0.08955426 -0.09245584 -0.13248585 -0.007541912
-0.059962153 -0.16578053 3.8426806e-05 0.21977867 -0.15204394 0.16158234 -0.14447269 0.1754592
0.07633262 0.17263551 0.13115337 0.2132952 -0.13140371 0.08773427 -0.120886885 -0.02228256
0.1557405 -0.076788366 0.16335419 0.2181109 -0.046336718 0.09517371 -0.051857345 0.16057126
00000000: 4f8d 153e 3d59 0abe c4d2 40be 7051 523e
00000010: 3968 b7bd 7d59 bdbd 5faa 07be 2522 f7bb
00000020: e09a 75bd 5fc2 29be 782c 2138 a90d 613e
00000030: 68b1 1bbe d775 253e a6f0 13be 94ab 333e
00000040: 4754 9c3d 5dc7 303e 124d 063e 0f6a 5a3e
00000050: b28e 06be 06ae b33d 8b93 f7bd ea89 b6bc
00000060: 707a 1f3e 3843 9dbd 5246 273e 7758 5f3e
00000070: 92cb 3dbd 6fea c23d 5e68 54bd cb6c 243e

exp_avg f4 [256, 25]
-0.0010963096 -0.0030654478 0.000335478 -0.00072789507 0.00037923167 -0.00080921984 -9.16008e-06 -0.00071487215
6.38014e-05 -3.170078e-05 2.6014915e-05 -0.00038863538 -1.7864377e-05 -1.4447808e-05 -8.288558e-05 -0.0001831849
-0.0005182174 -0.0011783077 -0.0007885631 -0.0008336029 -0.0033719935 -9.47038e-05 -0.0014758784 -0.0021052142
-0.0004133385 -0.00010280132 -0.00021654152 4.8486592e-05 -0.00016399301 0.00023742448 0.00025420872 0.0002207115
0.00021741705 2.3302907e-06 -2.4469632e-06 -6.6553054e-07 -6.073273e-06 8.0761265e-06 1.3631377e-06 -5.211511e-06
-1.1145976e-06 1.041707e-05 -0.00011040935 -4.8464567e-06 -2.3876528e-06 -0.00041824044 -5.2850617e-05 -0.0002795125
-0.00027967937 -3.1079555e-05 0.0005756453 0.0012082563 6.8473535e-05 0.0006132009 0.00031241684 0.00054551463
0.00044844951 0.0008761241 -7.8731655e-06 -4.8758716e-06 6.0604925e-06 0.00026899812 2.9231762e-05 4.2381507e-06
0.0001526915 2.5550355e-06 0.00034325398 0.0010693662 0.000274941 0.0008513143 0.0008996199 2.2175582e-05
0.0003968818 0.00080060656 0.0003503354 0.00023733241 0.000564582 -0.0010201007 -0.0011849259 -0.0008633757
-0.0006801468 -0.0006752276 -0.0008456708 3.6718535e-05 -2.5366651e-05 -3.085426e-05 6.784824e-05 4.1992964e-05
9.0218845e-07 -0.00032530504 0.00010706 0.00037955854 -0.0045727547 -0.00036173308 -0.0009986674 0.0018425677
0.00016688944 0.00035692568 0.0006744961 -0.0015464276 0.00027550926 0.00012252449 0.0006512377 0.0014115636
0.0001844745 -0.00033064396 0.00030702667 0.0006910713 0.00011496747 -1.2623816e-05 4.6219942e-05 -3.0714957e-05
1.29741375e-05 8.952782e-07 0.00031017704 3.227836e-05 -0.00014323702 0.001312191 -7.514617e-05 5.3166077e-05
0.00061910046 0.00025531813 7.2544963e-06 0.00034400675 0.00023981863 -0.0005315334 -0.0025024714 -0.0003107204
-0.0008215389 -0.0015318389 -0.0040025925 -0.001796308 -0.0030161657 6.025115e-05 -4.1249972e-05 0.00012437449
-0.00068818853 -1.2576725e-05 -8.927951e-06 0.0003136924 -0.00031212388 -0.0009407669 -0.0008325031 -0.0012111748
-0.00074357714 -0.00067721965 0.00034118415 -0.0020625151 -0.00084720773 -0.00032043474 0.00014259081 0.00019183513
7.707076e-05 0.00015527243 2.3292167e-05 -4.570878e-05 8.307318e-05 0.00015371683 1.8671626e-07 -1.01900646e-07
-8.514507e-07 2.303743e-05 9.7591765e-06 6.219416e-08 1.4303521e-05 -5.907476e-06 8.7260836e-05 -8.766227e-05
-7.237463e-06 5.019349e-05 0.00017860875 -4.9287828e-05 0.00011826219 0.00018547174 -4.3113825e-05 -0.00018212649
-0.0010624513 -0.0007556469 -0.0008585839 -0.0013859835 -0.0024058344 -0.0014741812 -0.0022977914 1.704651e-05
-8.436237e-06 4.884249e-06 -0.00037150076 1.2418204e-05 -2.998287e-06 -3.8388545e-05 -0.00013292446 -0.0004724285
-0.0023975398 -0.0009340164 -0.0013285609 0.00040681366 0.00020449559 -0.00076305546 -0.00028412664 -0.00091694726
-0.001518699 -0.004414346 -7.181734e-05 -0.0012691838 -0.0010469316 -0.0031379247 -0.0016479125 -0.0034515893
7.833762e-05 -2.6139734e-05 1.9599924e-05 -0.0009219197 -4.2507912e-05 -1.2839628e-06 -1.2689722e-05 -0.00038981155
-0.0014027631 -0.0041359384 -0.0019900848 -0.002592428 -0.0037760995 0.00015718576 -0.0021804161 -0.0027650932
-0.001504818 9.895388e-05 4.6854682e-05 0.00019457645 0.00041594895 -3.193408e-05 -0.00025685807 -0.00010965263
-4.7027035e-05 8.949043e-06 4.2781103e-06 2.0067282e-05 -1.2811678e-05 -2.0297945e-07 1.0918229e-06 0.0001224887
-3.3263168e-05 -0.00015074156 0.0021736873 0.00018391307 0.00044855918 5.2915213e-05 0.00010860286 4.44701e-05
0.00011809903 0.0007115759 -0.000539661 -0.0009976962 -0.00012865444 -0.00074541447 0.0003293448 0.00071622676
00000000: 0cb2 8fba aee5 48bb 18e3 af39 36d0 3eba
00000010: 9dd3 c639 d321 54ba 3eae 19b7 4266 3bba
00000020: 1ecd 8538 74f6 04b8 9b3a da37 c2c1 cbb9
00000030: 75db 95b7 dd64 72b7 dbd2 adb8 5215 40b9
00000040: fbd8 07ba 7271 9aba 93b7 4eba 2586 5aba
00000050: aafc 5cbb b79b c6b8 4372 c1ba a2f7 09bb
00000060: 5bb5 d8b9 0a97 d7b8 6c0f 63b9 155e 4b38
00000070: 8af5 2bb9 26f5 7839 5147 8539 cb6e 6739
00000080: 72fa 6339 1762 1c36 8236 24b6 e9a6 32b5
00000090: 05c9 cbb6 b37e 0737 0ef5 b635 8ade aeb6
000000a0: 4899 95b5 fac4 2e37 928b e7b8 bf9e a2b6
000000b0: 903b 20b6 4847 dbb9 ebab 5db8 888b 92b9
000000c0: eea1 92b9 6b5b 02b8 e7e6 163a 5b5e 9e3a
000000d0: 7399 8f38 37bf 203a e1cb a339 de00 0f3a
000000e0: e01d eb39 b1ab 653a fd16 04b7 6b9b a3b6
000000f0: 3c5b cb36 5108 8d39 bb36 f537 7035 8e36
00000100: d01b 2039 2d77 2b36 c5f6 b339 fa29 8c3a
00000110: f525 9039 bc2a 5f3a 78d4 6b3a b305 ba37
00000120: 9314 d039 ccdf 513a 39ad b739 6fdc 7839
00000130: 7500 143a e6b4 85ba 844f 9bba 2a54 62ba
00000140: e14b 32ba c201 31ba 02b0 5dba 3a02 1a38
00000150: 78ca d4b7 8269 01b8 bf49 8e38 9a21 3038
00000160: eb2d 7235 b48d aab9 6685 e038 7cff c639
00000170: 0cd7 95bb fea6 bdb9 b8e5 82ba 5082 f13a
00000180: 0bff 2e39 c121 bb39 abd0 303a 80b1 caba
00000190: 3a72 9039 eb79 0039 d2b7 2a3a 3704 b93a
000001a0: 7f6f 4139 485a adb9 6cf8 a039 0329 353a
000001b0: b11a f138 e0ca 53b7 49dc 4138 efd3 00b8
000001c0: 7fab 5937 0d53 7035 429f a239 a062 0738
000001d0: e531 16b9 d3fd ab3a cb97 9db8 a4fe 5e38
000001e0: 214b 223a 38dc 8539 a66b f336 ce5b b439
000001f0: d377 7b39 9a56 0bba 8100 24bb 30e8 a2b9
00000200: 8b5c 57ba fcc7 c8ba 2e28 83bb 1872 ebba
00000210: ddaa 45bb 2eb6 7c38 d203 2db8 866a 0239
00000220: 8d67 34ba 9f00 53b7 42c9 15b7 1577 a439
00000230: 8fa4 a3b9 cc9d 76ba 563c 5aba 48c0 9eba
00000240: 9eec 42ba 7187 31ba f6e0 b239 432b 07bb
00000250: 2617 5eba 0600 a8b9 6e84 1539 5a27 4939
00000260: 0da1 a138 a0d0 2239 8c63 c337 6eb7 3fb8
00000270: 9337 ae38 0c2f 2139 2d7c 4834 79d4 dab3
00000280: 3f8f 64b5 8140 c137 58bb 2337 9a8f 8533
00000290: 28f9 6f37 d538 c6b6 ceff b638 53d7 b7b8
000002a0: 55d9 f2b6 d986 5238 ec48 3b39 67ba 4eb8
000002b0: 8803 f838 317b 4239 1ed5 34b8 35f9 3eb9
000002c0: f341 8bba 9b16 46ba 9712 61ba e4a9 b5ba
000002d0: 34ab 1dbb 5039 c1ba 8b96 16bb 1aff 8e37
000002e0: 5d89 0db7 61e3 a336 fdc5 c2b9 c857 5037
000002f0: 2e36 49b6 6303 21b8 a361 0bb9 48b0 f7b9
00000300: 0b20 1dbb c8d8 74ba 1b23 aeba 9b49 d539
00000310: de6d 5639 c907 48ba d5f6 94b9 4a5f 70ba
00000320: 150f c7ba 38a6 90bb a49c 96b8 be5a a6ba
00000330: 3239 89ba a4a5 4dbb c5fe d7ba 0f34 62bb
00000340: 3149 a438 a746 dbb7 846a a437 fcac 71ba
00000350: 864a 32b8 a054 acb5 f1e5 54b7 9f5f ccb9
00000360: ebdc b7ba c486 87bb 156c 02bb b9e5 29bb
00000370: 7078 77bb 3bd2 2439 50e5 0ebb 9136 35bb
00000380: 503d c5ba 7685 cf38 d585 4438 3807 4c39
00000390: b913 da39 f5f0 05b8 e8aa 86b9 4ff5 e5b8
000003a0: e53e 45b8 d923 1637 b08c 8f36 2956 a837
000003b0: bdf1 56b7 91f2 59b4 c08a 9235 4f70 0039
000003c0: 0e84 0bb8 6110 1eb9 6c74 0e3b cad8 4039
000003d0: 982c eb39 47f1 5d38 b7c1 e338 6885 3a38
000003e0: efab f738 0d89 3a3a 0978 0dba 21c5 82ba
000003f0: 6ae7 06b9 eb67 43ba e9ab ac39 2ac1 3b3a
