simplified game v3/MARLv1/attacker_agent_final.pth (torch, 125058 bytes, 11 tensors)

weight_ih_l0 f4 [256, 25]
00000000: 7cf9 06bd 14bd cdbd c4de 2bbd 187c df3d
00000010: f898 bfbc 980b 5d3d c033 53bb 58a7 b3bc
00000020: 7cad 723d 9837 e13c ac32 32bd 2c9b 5ebd
00000030: de5c fcbd a40c f6bd f8c8 923d fce5 91bd
00000040: 702a 323d 003e 0c3c 0c36 5a3d 30b2 1abd
00000050: ba9a d4bd 2898 f2bc 7c60 163d 2277 e6bd
00000060: 80ef 9a3a 381b 763d 967c 87bd 28f9 0d3d
00000070: e425 0abd 9cb9 38bd 2c2f 03bd 28f0 873c
00000080: 9a63 9d3d 84c9 493d ba4f b63d d87d 713d
00000090: f8ab 43bd 389c 103d 924e 853d 40af 423d
000000a0: 502d d6bd 004d 49bd c828 06bd 68bb d6bd
000000b0: b677 e03d c45c d63d 70a7 65bc 6465 333d
000000c0: 9a52 87bd accb c7bd c61b fd3d 6cea 97bd
000000d0: 0650 d53d 004f 0d3c 20e6 dabc 780f b3bc
000000e0: 18df 4f3d 70e4 bfbc 9074 753d 66b2 e8bd
000000f0: 0813 9ebc ae3f 8bbd e035 e1bd 14cf babd
00000100: 587a cd3d 3a93 acbd 387d 3a3d f8cf b03d
00000110: 80c3 ecba b2f6 aabd 9086 f23c 52cf 90bd
00000120: 0c68 3b3d 0c8d 703d f09a 32bd 00d4 193d
00000130: 78bb 0cbd a80c 003d 5a4d 80bd 1ed7 cbbd
00000140: 24b2 083d 3888 db3d 50bf 863d 70a9 60bd
00000150: 00f7 4a3d 2037 d63d 2cbd ca3d c22b a4bd
00000160: a8c4 64bd 5ab0 eabd 686a 5dbd 80fd c33a
00000170: 2830 aabc 9c7d 383d 6040 b0bc a0a4 ca3c
00000180: 7c43 8e3d 608e 34bd dce3 4dbd 08ee a63c
00000190: 7208 86bd 50db bb3c 04e1 a73d 3ae6 f9bd
000001a0: aace ffbd dc38 aebd e434 2a3d 08a7 123d
000001b0: d6cb adbd 5601 d23d 84d3 e63d 40c6 1d3d
000001c0: 60c2 933d 0019 c7bb f03a 403c 6416 a5bd
000001d0: 8034 f33a 3a54 e6bd 5e97 e03d c4b0 d3bd
000001e0: a0c2 f9bd ee68 873d 9ae3 e43d f04e 3a3c
000001f0: b8fc 14bd 2c91 d73d a43c d33d e07c d73c
00000200: d07e dc3d f871 9ebd 98b5 99bd f475 bebd
00000210: 00e9 51bc 1e82 c53d 5c01 2b3d 800f 473c
00000220: 3046 e7bc d8a9 d7bd bc81 693d c67c c3bd
00000230: 28e0 26bd 2cca 6cbd 8041 b63a 2807 3f3d
00000240: f039 b93d 8c47 5a3d 604f 873b 5275 e53d
00000250: 0019 983c 4087 543c e2bb 84bd 5830 91bc
00000260: dcc7 c4bd cc69 85bd 32f1 e6bd d074 d73c
00000270: 604e 10bc 803c 64bb 2054 94bb 50e6 a63c
00000280: 005f 54ba 4032 5cbd b0f9 1abc 744a a1bd
00000290: e688 98bd 58ec fd3d 4448 683d ae6b e93d
000002a0: 7cee ffbd 78a0 753d 247a 283d 00fe c63c
000002b0: f871 103d 0e1b 843d f0c5 4cbd bc7c 9a3d
000002c0: 80e9 b73a 0441 823d 20d2 88bb c6c9 853d
000002d0: 401f c43c fc15 c83d 4e7c b73d 0801 a33d
000002e0: c01e 513b 46c7 ba3d e4cd f43d 4072 b53c
000002f0: 9622 a5bd 8e7f 913d 5ac2 d23d 9002 d73d
00000300: 3036 063c ac5a 923d 40b5 443c ce18 afbd
00000310: 18ca c5bd 4875 033d 2096 bf3b 744f 353d
00000320: 189a 0b3d e0ec 06bd 8c57 463d 4447 adbd
00000330: 286e 923c 1a77 e03d 8010 e53c 3893 d1bd
00000340: 40ea 013c 206f 99bc 2048 dabd 9ccb 3abd
00000350: c09a af3d dc33 71bd 5ea6 d5bd fabc f7bd
00000360: 6e6f 88bd 80dd 453c a2e6 853d 5c6f d23d
00000370: c863 5e3d ac34 1ebd 3c15 2cbd 5a06 b1bd
00000380: 447b cf3d c8bb aa3c b480 6bbd f6fa b93d
00000390: c863 65bd d8eb 943c 406e f43b 001b 0cbb
000003a0: e863 dd3d 0c96 403d 2086 00bc 3848 b13c
000003b0: 840a 2fbd a053 4fbd c0e3 c53b c4e5 883d
000003c0: 866e fe3d 6c8f 6c3d e8ff 37bd b839 963d
000003d0: fa60 b43d 32c8 b93d 2ce2 97bd 6065 c5bb
000003e0: 50b5 9c3c 600f 0cbc acd9 953d 2085 3b3c
000003f0: da51 b0bd 2092 073c e8e8 6c3d 488c 9f3c
-0.03295277 -0.100458294 -0.041960493 0.10912341 -0.02338837 0.053966135 -0.003222689 -0.021930382
0.05924748 0.02749233 -0.043505356 -0.054347202 -0.123224005 -0.1201413 0.07167238 -0.07123944
0.043497503 0.008559704 0.0532742 -0.03776759 -0.10381074 -0.02961357 0.03671311 -0.112531915
0.0011820644 0.06008455 -0.0661556 0.034661442 -0.03372754 -0.045098886 -0.03202741 0.016594008
0.07685013 0.049264446 0.089019254 0.058957905 -0.047771424 0.03530523 0.06509127 0.047530413
-0.104578614 -0.0491457 -0.032753736 -0.10484964 0.10960333 0.104669124 -0.014016971 0.043797866
-0.06607552 -0.09755644 0.12358813 -0.07417759 0.10415654 0.008624792 -0.02672106 -0.021857962
0.05074987 -0.023424357 0.059925616 -0.11362152 -0.019296184 -0.06799255 -0.10996604 -0.09121528
0.10033101 -0.08426519 0.045529574 0.08633417 -0.0018063635 -0.08347835 0.02960518 -0.07070793
0.045753524 0.058728263 -0.04360479 0.037555695 -0.03435847 0.03126207 -0.06264754 -0.0995314
0.033373013 0.10719341 0.06579459 -0.05484909 0.049551964 0.10459733 0.09899363 -0.08016159
-0.05585161 -0.11459418 -0.054056555 0.0014952868 -0.020774916 0.045041665 -0.021515071 0.024736702
0.069464654 -0.044081092 -0.05026613 0.020377174 -0.065445796 0.022931725 0.08197215 -0.12202115
-0.1249059 -0.08506939 0.041554347 0.035803825 -0.08486144 0.10254161 0.11270812 0.038519144
0.072148085 -0.0060759783 0.011732802 -0.08060911 0.0018555075 -0.11246534 0.10966371 -0.1033645
-0.12195325 0.066118106 0.11176224 0.011371359 -0.036373824 0.10525736 0.10314301 0.026304662
0.10766375 -0.077365816 -0.075053394 -0.092998415 -0.012811899 0.096439585 0.041749343 0.012149692
-0.02823171 -0.10530442 0.05700849 -0.09545283 -0.040741116 -0.057809994 0.0013905019 0.046637684
0.09044254 0.05329089 0.0041293353 0.11204018 0.018566608 0.012971699 -0.06481148 -0.017723247
-0.09608433 -0.0651432 -0.11276473 0.026300818 -0.008807749 -0.00348261 -0.00452663 0.020373493
-0.00081013143 -0.05375886 -0.009458944 -0.07875529 -0.07447986 0.123985946 0.056709543 0.113974914
-0.12496659 0.059967488 0.041132107 0.024291039 0.03526494 0.06450473 -0.049993455 0.075433224
0.001403138 0.06360057 -0.0041754395 0.06532626 0.023940682 0.09769818 0.08959256 0.07959181
0.0031909198 0.0912004 0.11953333 0.022149205 -0.08063237 0.07104407 0.10290976 0.10498536
0.00819163 0.071462005 0.012006104 -0.08549653 -0.09657687 0.03209427 0.0058467537 0.044265226
0.034082502 -0.032940745 0.048423335 -0.084608585 0.017874792 0.10960217 0.02796197 -0.10233158
0.007929385 -0.018729746 -0.10658288 -0.045604333 0.08574438 -0.058887348 -0.10432123 -0.12096591
-0.066618785 0.0120767355 0.0653813 0.10275146 0.054294378 -0.03862445 -0.04201244 -0.086437896
0.10130933 0.020841494 -0.057495788 0.0908107 -0.056003362 0.018178865 0.007459432 -0.0021378398
0.10810071 0.047018096 -0.007844478 0.021640882 -0.042734638 -0.05061686 0.006039113 0.06684449
0.124234244 0.057753965 -0.044921786 0.07335228 0.08807559 0.09071387 -0.07416186 -0.0060240477
0.019129425 -0.008548588 0.07316908 0.011445314 -0.08609362 0.008274585 0.057839304 0.019476071

weight_hh_l0 f4 [256, 64]
00000000: 9865 80bd a493 683d 2c2a efbd 7438 5a3d
00000010: 9000 4ebc baf5 c0bd e2d0 cf3d 3cb8 68bd
00000020: 782d 923c e0dc d93d 6047 bfbb 7865 e1bc
00000030: 7064 84bd e020 d83c 201c efbc 48e1 cd3d
00000040: 8470 643d b0a0 7abd d4f2 1abd f8c0 8fbc
00000050: e85d fc3c 0881 80bc b072 1dbd 7c3c 8ebd
00000060: 4a75 e23d 0088 d138 562f d33d d4f9 8ebd
00000070: 7882 54bd c8c9 c73d 2acb 9d3d c09a ce3c
00000080: b051 ffbd 18de 23bd 9030 69bd 7675 b9bd
00000090: 20ab ae3d 8083 39bc d2d4 8bbd 80be 5c3b
000000a0: 4215 b53d 7ac4 b43d 38af bebd 20c2 f63d
000000b0: c884 84bd 14db 123d 4c7d 94bd 501b b2bc
000000c0: 7c3d 2d3d 8c6d 563d ce45 90bd 965e de3d
000000d0: b0b8 2f3c 6401 a8bd c0aa 633d c0ed c2bc
000000e0: 2847 dcbd 1e00 b0bd a4ca 203d fcc2 5fbd
000000f0: 9077 94bc e4f8 2cbd 5e54 8abd 2255 ba3d
00000100: 3cb1 92bd d0eb c53c 786d c83c 3442 21bd
00000110: ceaf b6bd 4259 f93d bc93 f73d c2ec 813d
00000120: 7a21 d1bd 0872 1f3d 36ee 8dbd 08df b53c
00000130: 2883 d0bc 24c4 833d 303b a5bc a8fc 9abd
00000140: d8c7 31bd b6b4 be3d 60d5 bd3d 908a 6bbc
00000150: 88b1 71bd 2c06 b1bd dca7 633d 70c2 97bd
00000160: d2bd f5bd e8fb eb3d 805a adbc 200f 82bb
00000170: ecdc 53bd 242d fe3d 7069 713d d4fd 563d
00000180: a8fc 9abd e898 923d f887 d73d 9649 8b3d
00000190: b081 d5bd 5ccb 8cbd 50ce 9c3c 662d a53d
000001a0: a084 7bbc a04b a7bd 70f8 363d c892 503d
000001b0: 40d0 bcbb 5215 b23d 58ee da3d 702a 8c3c
000001c0: 1619 c8bd 4c19 f4bd 8e1b ae3d d030 f93d
000001d0: f202 d2bd 806f 6cbb 2094 d2bc 1a99 f23d
000001e0: aa26 a93d a043 e7bb bc6c 76bd 1c60 9f3d
000001f0: 549b 68bd 8e9b 85bd a8fb 4f3d c0c4 dabd
00000200: f6d3 b8bd cccf d23d 803f e4ba 8c2d f9bd
00000210: d03a 733d 90e3 eb3c 4c4d b23d d8de f1bc
00000220: b47f 19bd f096 8cbd 4828 123d 7250 b63d
00000230: 60ea 11bd 8e53 96bd d8cb f63c 98c4 9ebc
00000240: 0216 9bbd 1455 6e3d 041e 493d fa03 843d
00000250: 10c4 11bd 40ac 503b cce9 32bd e014 303c
00000260: 3ed8 d0bd 0029 7d3a e07c 593d 4c6f 48bd
00000270: 2e62 de3d 48bd d3bc ca57 abbd 08af bdbc
00000280: e4a5 c33d b848 81bc 8825 943c 70e2 9cbd
00000290: e277 aa3d 1071 f43c 2087 e5bd c056 b53d
000002a0: 8a5e d03d 8cc0 8d3d d891 853c 024d 81bd
000002b0: 381c 3cbd ec4f a83d 8295 f0bd e6ab ae3d
000002c0: 185f 65bd 004c 383a c292 8c3d 38c4 a7bc
000002d0: 0050 51b9 38fd a0bd 2c37 12bd 5a6a e5bd
000002e0: 381e e23c d07a 9dbd 9835 17bd fc18 e4bd
000002f0: 2227 f3bd deb4 df3d 5868 49bd ac0a 2fbd
00000300: ae7a e0bd c045 33bb 406b 87bb 8a88 923d
00000310: 40b3 ca3c 6027 773d 9cfd 45bd f427 6c3d
00000320: 88b8 843d b885 cabc 0447 1dbd 80fd b53a
00000330: 8250 a3bd a050 d6bb 3600 8fbd 68f9 0abd
00000340: e0f9 fa3c 0cb7 c1bd 98ae 4ebd d08a 5c3d
00000350: 246d de3d c81c 553d ba70 9ebd d6be a1bd
00000360: ec02 053d 1049 bcbd c08c abbb 281e 983c
00000370: 5c86 e8bd a0d1 d9bd fe5a f03d 8ce3 bebd
00000380: 30e4 50bd 56d0 ff3d 0234 b33d 7c79 143d
00000390: 307b bfbd d4a1 bc3d 08fc 96bd c8d1 543d
000003a0: 007b 0c3a d07d 613c d488 953d 7a65 babd
000003b0: fcd6 d33d 94ec 163d 0c50 d93d 34a7 d4bd
000003c0: c0df 5fbd 5ad7 9e3d 8658 f23d c404 f13d
000003d0: f2e3 a6bd 08cc 48bd e079 c9bc 84ca 283d
000003e0: 6c43 2cbd 9a9f a1bd a474 0a3d ac00 c13d
000003f0: a84c 7b3d 6c7b 9bbd 5629 f73d 563d ea3d
-0.062693775 0.056781426 -0.116779655 0.053276494 -0.012573376 -0.094218686 0.10147263 -0.056816325
0.017843947 0.10637832 -0.005837366 -0.027514204 -0.064644694 0.026382864 -0.029188216 0.100527346
0.055771366 -0.0611884 -0.037829235 -0.01754807 0.030806497 -0.015686527 -0.038439453 -0.0694513
0.11057527 9.9912286e-05 0.10311763 -0.06981245 -0.051882237 0.097552836 0.07704766 0.025220275
-0.124667525 -0.040006727 -0.05693108 -0.09055607 0.08528733 -0.011322856 -0.06827702 0.0033682883
0.08841945 0.088265374 -0.09310764 0.12048745 -0.064706385 0.03585346 -0.07250461 -0.02174154
0.042294964 0.052350566 -0.07044564 0.108578846 0.010725185 -0.0820339 0.05558276 -0.023795009
-0.107557595 -0.08593772 0.039255753 -0.05462931 -0.018123418 -0.042229548 -0.06754373 0.09098269
-0.07162711 0.024160296 0.024466261 -0.039369777 -0.08920251 0.12175228 0.12088725 0.06343986
-0.10211463 0.038927108 -0.06930201 0.022201076 -0.025453165 0.06433895 -0.020169824 -0.075677216
-0.043403476 0.093118116 0.09269214 -0.014376298 -0.059007198 -0.08643755 0.055580005 -0.07410133
-0.11999096 0.11522657 -0.021161318 -0.003969088 -0.05172436 0.12410954 0.058938444 0.052488163
-0.075677216 0.07158071 0.10523981 0.06801145 -0.104251266 -0.06874725 0.019141346 0.080653
-0.0153514445 -0.08168721 0.044670522 0.05092123 -0.00576213 0.08695473 0.10689992 0.01711008
-0.0977041 -0.119188875 0.085013494 0.12167513 -0.10254468 -0.0036077201 -0.025705397 0.11845608
0.08259328 -0.007057622 -0.06016229 0.07782003 -0.056788757 -0.0652381 0.050777107 -0.10682058
-0.09024803 0.1029354 -0.0017413944 -0.121668905 0.05938226 0.028795034 0.087061495 -0.029525205
-0.037475303 -0.068647265 0.035682946 0.089020625 -0.035623908 -0.073401555 0.030126497 -0.019380853
-0.07572557 0.058186606 0.04910089 0.06446071 -0.03558737 0.003184095 -0.043679997 0.0107471645
-0.10197495 0.00096572936 0.053097606 -0.048934266 0.1085857 -0.025847092 -0.08366354 -0.02315475
0.095531255 -0.015781745 0.018084303 -0.07660377 0.08323647 0.029839069 -0.11207414 0.08854437
0.10174282 0.06921491 0.016304895 -0.06313516 -0.04592535 0.08218369 -0.11747266 0.08528881
-0.05599889 0.0007030368 0.06863929 -0.020479307 -0.00019961596 -0.07860798 -0.035697147 -0.112019256
0.0276023 -0.0768944 -0.036916345 -0.11137578 -0.11872698 0.109231696 -0.049171776 -0.042734787
-0.10960899 -0.0027354807 -0.0041326582 0.07154949 0.024743676 0.060340285 -0.048337564 0.05765529
0.06480509 -0.024721965 -0.038397804 0.0013884753 -0.0797434 -0.006540373 -0.06982462 -0.03392926
0.030636728 -0.094587415 -0.050459474 0.05384332 0.10860661 0.0520294 -0.07736345 -0.07897727
0.03247349 -0.09193623 -0.0052352846 0.018569067 -0.11353752 -0.10635686 0.117361054 -0.09320745
-0.050998867 0.12490909 0.08750154 0.03624867 -0.09349668 0.09210554 -0.0737229 0.051957875
0.00053589046 0.013762906 0.073014885 -0.09101386 0.103437394 0.036846712 0.10610971 -0.10383454
-0.054656744 0.07755919 0.11833291 0.11768487 -0.08148946 -0.049022704 -0.024594247 0.04120876
-0.042056486 -0.0789177 0.033802643 0.09423956 0.061352402 -0.075919 0.12068431 0.1143748

bias_ih_l0 f4 [256]
00000000: ae66 a9bd da0c 943d cef0 e63d dc32 b2bd
00000010: 385d 9b3d dc64 8b3d 00ea cdbc b63a 92bd
00000020: 006c 47bd 80a3 623c 4074 143b 44ef 123d
00000030: 4009 92bb 5a75 b73d 0034 93ba fcb3 39bd
00000040: 2495 eb3d 706c 133d a041 eb3b 905c f2bd
00000050: 60f2 25bc c28b fabd 6417 ce3d 6c50 0f3d
00000060: 1ab2 f13d 50d8 19bd e40e 0dbd 4cdd 3b3d
00000070: 785a 84bd 0009 c43d 203f c13b a825 a43c
00000080: 5025 4d3d 8e37 d13d d80e 973d 808a 3d3d
00000090: ea5b f2bd 048b 7cbd e244 a6bd e401 28bd
000000a0: ba26 fe3d 986f 1abd 504f 983d 1682 bf3d
000000b0: 3017 993d 0ccf acbd 785e dbbd e0e7 b2bc
000000c0: 6e38 82bd 4e92 b33d 002e ca3d bec3 a3bd
000000d0: 0814 cb3d 9807 edbc 104e cbbd 2c90 133d
000000e0: d873 f73d acf2 55bd a43a e6bd f013 b73d
000000f0: e4dc fabd f697 ed3d 209c f5bb 588d e73d
00000100: e04a c33b 4071 e3bc b4e7 153d ae0b f83d
00000110: 3cd8 5abd 86a4 bd3d 6072 873d 2ca7 813d
00000120: 80ff 8abc a0d0 19bd 8ad6 fbbd 5035 373d
00000130: 263c 903d 78ae cfbd 1431 683d 841d 9abd
00000140: 84d4 e6bd 946a ed3d 600f 913d b85c 96bd
00000150: 80e1 b43b 66c3 8d3d b052 58bd c45e b33d
00000160: 9056 773d 241c 1cbd a2b7 803d 5089 383d
00000170: f81e 27bd 408a fa3d 207c e2bd f437 2abd
00000180: e278 d2bd 668c c2bd 44d8 a8bd 543a 8a3d
00000190: 6027 663c f88e 25bd 605a 36bd b227 8e3d
000001a0: 30cf 293d ca24 aebd 6c47 5fbd 9c85 c83d
000001b0: b4a1 003d f6db fabd 347a 923d 109d 4f3c
000001c0: f040 4a3d ba0b c2bd c841 e7bd 8000 93bd
000001d0: 8094 b53a 108d ca3c 6aec 8b3d c43d 953d
000001e0: 26fe c9bd 381a a43c d816 07bd 72f8 8b3d
000001f0: 4efd a1bd 00f9 383b bc5a 3f3d ae40 f2bd
00000200: bea6 bebd 003f 7e3c 6ea8 fa3d 207a db3b
00000210: bcf7 8fbd 32ba b93d 5624 d03d e8f9 b33c
00000220: 48df 9d3c c4f2 773d bc63 84bd 9434 143d
00000230: 4429 cdbd 7628 e03d f02c 3d3d aa30 e9bd
00000240: 1a1c d8bd 201a 923c f0de adbc 54af dd3d
00000250: b6e0 febd 48fd 323d ac1c 42bd 782e ce3d
00000260: e8b4 a8bd 7445 6bbd e060 cbbc c2b6 a93d
00000270: 7a8a d73d b04b f23d 623d c6bd ea99 ad3d
00000280: 6058 fc3c f405 e0bd 00bc 3dbd 1a4f e63d
00000290: 7265 d93d e0e0 c43c e01e cb3b 123d dabd
000002a0: a292 f5bd 3e00 f2bd 50a3 753c 7099 9d3c
000002b0: 501c b13d 00a3 4b3c 4885 84bc 427a 83bd
000002c0: a03f 1a3d 5a4e 8c3d 00d8 b538 7410 423d
000002d0: e0d3 39bc 0854 6fbd cc25 ed3d 288a c43d
000002e0: c006 653b 063a b5bd 3882 da3d 8658 d0bd
000002f0: 3c6c 6b3d aed6 e5bd 1035 76bd 24f5 bb3d
00000300: fced 23bd de40 81bd 60f0 d5bd 6619 b23d
00000310: 0646 ad3d 5493 b53d e0ca 4bbc a25e 833d
00000320: 2c4f 20bd 241c 8cbd d01f 823c 5ed2 dabd
00000330: d03e a1bc 6855 a1bc 883b 79bd ba1d a4bd
00000340: ea30 e63d 60f8 c3bb 4692 f1bd 50b3 5e3d
00000350: 1c27 883d 30cd 29bd 2813 44bd 6668 febd
00000360: 8e4b 873d b477 cbbd 6054 5d3d 4e04 9f3d
00000370: 7ed2 90bd f04b ebbd f69f c83d 30aa 04bc
00000380: 20b5 25bd ce3b f83d 00a2 353c 10b4 bbbd
00000390: 58f3 bbbc 320a 83bd 4036 dc3c c413 a5bd
000003a0: 40a2 ae3c dc6b 82bd fedc afbd 221d fb3d
000003b0: b439 223d 38c2 97bc c474 593d 36d4 e53d
000003c0: 4003 c8bb 4604 b73d 0821 4bbd d0c8 f2bd
000003d0: 444f 223d 701c 2bbc da86 dfbd 2698 873d
000003e0: 80e4 12bb 9065 e0bd 6caf 00bd 4025 e6bc
000003f0: e229 9dbd 46c5 b63d f8a2 483d 9c33 c8bd
-0.08271538 0.07229014 0.112763986 -0.08701107 0.075861394 0.06806347 -0.025135994 -0.071401045
-0.04868698 0.013832927 0.0022652298 0.035872713 -0.004456669 0.0895793 -0.0011230707 -0.045337662
0.11503056 0.035992086 0.007179454 -0.11834061 -0.0101285875 -0.12233688 0.10063055 0.034988806
0.11801548 -0.037559807 -0.03443803 0.045865342 -0.06462568 0.09572029 0.0058974177 0.020037487
0.050084412 0.10215674 0.07375878 0.046274662 -0.118339375 -0.061656013 -0.08118607 -0.041017428
0.1240973 -0.03770408 0.07437003 0.09350984 0.07475126 -0.084379286 -0.10711378 -0.021839082
-0.06358419 0.0876814 0.09872055 -0.07996319 0.0991593 -0.028934285 -0.099269986 0.036026165
0.12082642 -0.052233383 -0.112416536 0.0893935 -0.12249163 0.1160125 -0.007495418 0.11306256
0.0059598535 -0.027763963 0.036597922 0.12111603 -0.053428873 0.09259896 0.06613612 0.06330714
-0.016967535 -0.037552476 -0.122967795 0.044728577 0.070427224 -0.10140699 0.05668743 -0.07525161
-0.11271003 0.11592594 0.07083011 -0.073419034 0.0055200458 0.06922035 -0.052813232 0.087583095
0.060385287 -0.038112774 0.06285025 0.045052826 -0.04080102 0.122334 -0.11058831 -0.041557267
-0.10276963 -0.09499435 -0.082443744 0.067494065 0.014047474 -0.04041955 -0.044519782 0.06941165
0.041457355 -0.08503111 -0.054511473 0.09791109 0.031404212 -0.122489855 0.07152215 0.012671724
0.049378335 -0.09474893 -0.11291844 -0.0717783 0.001385346 0.024725467 0.06832202 0.072871715
-0.09862928 0.020032033 -0.03298077 0.068344966 -0.07909642 0.0028224587 0.04671739 -0.11828743
-0.09309147 0.01551795 0.12239157 0.006697908 -0.070296735 0.09068717 0.101631805 0.02196975
0.019271508 0.060534254 -0.06464335 0.036182955 -0.100176364 0.10945217 0.046185434 -0.11386235
-0.10552235 0.017834723 -0.021224469 0.10824457 -0.12445204 0.04369858 -0.047390625 0.10067457
-0.0823763 -0.057439283 -0.024826467 0.082868114 0.10524459 0.118308425 -0.096796766 0.084766224
0.03080386 -0.109386355 -0.04632187 0.11245556 0.10615052 0.02403301 0.006198749 -0.106561795
-0.119908586 -0.118164524 0.01499255 0.019238204 0.08647978 0.012428999 -0.016176835 -0.06419803
0.037658334 0.06850882 8.670986e-05 0.047378972 -0.011342019 -0.058429748 0.11579475 0.09596664
0.003494665 -0.08848958 0.106693685 -0.101731345 0.057476267 -0.112225875 -0.060109198 0.09177616
-0.04002188 -0.063112006 -0.104462385 0.086962506 0.084606215 0.08865991 -0.012438506 0.06414534
-0.039138004 -0.06841305 0.01588431 -0.106846556 -0.019683272 -0.019694045 -0.06084779 -0.080134824
0.11239798 -0.0059805363 -0.117954776 0.054370224 0.066480845 -0.041455448 -0.04786983 -0.12422256
0.06606208 -0.09934941 0.054035544 0.07764493 -0.07071398 -0.11489093 0.09796135 -0.0080972165
-0.040455937 0.12120782 0.011085987 -0.091652036 -0.022943184 -0.06398429 0.026881337 -0.080604106
0.021317601 -0.06368229 -0.08587073 0.12261416 0.03960581 -0.018525228 0.053089872 0.11222117
-0.006103903 0.08936362 -0.049592048 -0.11854708 0.039626375 -0.010443792 -0.10914393 0.06620817
-0.0022414029 -0.109568715 -0.031417295 -0.028093934 -0.07674004 0.08924346 0.048983544 -0.09775469

bias_hh_l0 f4 [256]
00000000: bebd b1bd 7aef a6bd b2a9 f83d 323e a6bd
00000010: 9807 c83d 961b ca3d 6adf bfbd ce3a a6bd
00000020: 6007 80bc 647c bc3d f6b8 8fbd 40d6 403d
00000030: 3c41 243d f0b0 6abc 9026 b4bc 04eb 95bd
00000040: dcd1 e4bd 8028 c83b dcf5 623d d4e0 acbd
00000050: 5815 f33c d857 b03d 9425 843d e88c ff3c
00000060: bebe a13d 0297 b03d 4e1d a9bd 94c9 103d
00000070: 2839 02bd a6b0 e93d c44d b83d 5c26 75bd
00000080: e462 8a3d 40c7 d7bc e205 83bd 400a f83c
00000090: b2e1 eb3d d044 18bd b429 35bd 30bb 0abc
000000a0: 40c8 d33b 4422 1abd 1894 723d f875 c83d
000000b0: 98b0 ba3d a09a 73bc 08e8 b1bd 8864 a43c
000000c0: 0e38 a93d 064e eabd b4ba 413d a00b cfbb
000000d0: 1a18 81bd 1cf5 a63d a4ff 14bd 70f6 2d3d
000000e0: 9cb0 a63d d8be a8bc 30e8 7abc 7415 db3d
000000f0: 4a4e f7bd 3613 d83d ae90 c1bd 94f2 e73d
00000100: 06f8 d33d ee13 e93d 648a 693d 70b2 f63c
00000110: 00c4 beba 5c65 fabd 38db 1fbd d07e ddbd
00000120: 96a8 d7bd 8e2b ca3d 0a52 cabd 36aa c63d
00000130: 90dc 97bd 8469 13bd be24 e2bd 2060 14bd
00000140: f068 8fbd f4b3 5fbd 707f 973c d269 bf3d
00000150: 34a4 7bbd 20cb b33c d8af e83c b039 b5bc
00000160: 4c49 793d 9034 31bd b0fc f53c f86f cfbc
00000170: ba8a 993d 667f dc3d 8080 f93a 1ce8 30bd
00000180: e8ae cd3c 66d6 e23d 2018 823d 60e2 f43b
00000190: 6085 a13d 3aa3 8fbd ce31 e8bd c823 983d
000001a0: 906a adbd 38f7 f0bc 6c8a d93d 1ee4 c13d
000001b0: e01d 90bb 7869 bc3c 34b5 0bbd 2e62 9d3d
000001c0: d09d 583d d044 a23d 2451 34bd acb9 a7bd
000001d0: 58de 38bd c8cb 98bc 9a63 da3d be1d 973d
000001e0: 209b a73c 0cbe 42bd 0050 2c38 1092 50bc
000001f0: 5ea7 b4bd b03e 183c b452 003d 30e3 453c
00000200: 52fa d53d 42e1 ef3d a08a 4fbd f082 223c
00000210: 801b b7bd 08a6 b7bc 345a bcbd f402 943d
00000220: d0bc 693c 40c2 0fbb b068 1dbd d65d d3bd
00000230: 861f a43d 4294 af3d b8ac c6bd 648e c73d
00000240: 448d 4b3d 12b4 9e3d b01b e5bc b852 e53d
00000250: 2ad8 be3d 30f6 643d a27d a2bd eccc b3bd
00000260: f6e8 e3bd aed6 ad3d 4499 c83d 4080 95bc
00000270: b20e fbbd e0ad c53d 2e17 e33d c213 d33d
00000280: fecd 943d d2da 9fbd 3054 cc3c cc75 c3bd
00000290: a8d6 483d 005e 9d3b 36b0 93bd 84e8 a4bd
000002a0: f883 f63c a07c 803b 2866 7abd ea79 fdbd
000002b0: 7825 00bd 48fb 30bd fcde f4bd 0cfa 5ebd
000002c0: 00bb 90bb 504c 2ebd 1c40 9dbd b872 25bd
000002d0: b811 9ebc 0859 acbc e8e3 fa3d a8f9 f1bd
000002e0: 3e96 efbd 0028 503c f487 9bbd 3896 77bd
000002f0: 008e 7b3a 18ec 9c3d 00c9 363b 008e 65ba
00000300: dcc3 4abd d4a6 a23d d401 9e3d 5071 333d
00000310: 60a9 b33b a418 e1bd a842 0ebd 10a2 b93d
00000320: 107d c23c 6210 c6bd c8d5 11bd 58c2 afbc
00000330: 9461 983d 6a2f b6bd f82d ce3d 92ca e73d
00000340: 78bc da3c 620a c2bd 58e1 ffbd c816 1e3d
00000350: 1651 8a3d de8c c33d f2d0 d2bd 78e4 4fbd
00000360: 78c7 6b3d 4cbc 263d bc5e 10bd 34b4 f73d
00000370: bab5 eb3d 100a 8abc 72c0 bf3d 5215 b13d
00000380: 42de c43d a053 703c 40b6 9a3d f85b f93c
00000390: 50b2 d83d 0cb5 e9bd c041 c1bc 88ee 053d
000003a0: 40e6 48bc 5071 323d a4c3 febd fc7e 073d
000003b0: 3acb 973d 6083 13bd 40f4 fb3d 5896 6b3d
000003c0: c877 55bd 9826 b63c b888 92bd 62ec e53d
000003d0: 5c2d 423d 24ef 683d 505f 2e3c 8cdc 4a3d
000003e0: 0005 3cbb a84b c23c 78ef c33d 1881 bd3c
000003f0: 0082 b7ba ccfd 563d 2e39 d53d 44b6 4bbd
-0.086787686 -0.08151145 0.12141742 -0.081173316 0.097670734 0.09868543 -0.09368785 -0.08116685
-0.015628517 0.09203413 -0.070177004 0.047079325 0.040101275 -0.014324412 -0.021991044 -0.07320216
-0.1117284 0.0061083436 0.05541025 -0.0844132 0.029673263 0.08610505 0.0645248 0.031195119
0.07897709 0.086225525 -0.082575426 0.03534849 -0.03179279 0.11410646 0.089992076 -0.059851035
0.06757143 -0.026340127 -0.063976064 0.030278325 0.11517657 -0.037175 -0.044229224 -0.008467481
0.0064630806 -0.037630334 0.059223264 0.09788126 0.09115714 -0.014868408 -0.086868346 0.020067468
0.08262645 -0.11440663 0.047297195 -0.0063185245 -0.06303425 0.0815222 -0.03637661 0.04247135
0.08139154 -0.020598814 -0.015314147 0.10697451 -0.12075479 0.10550539 -0.094514236 0.11325565
0.10350041 0.113807544 0.057016745 0.030114383 -0.0014554262 -0.12226364 -0.039027423 -0.10815203
-0.10530202 0.09871589 -0.09878929 0.09700434 -0.07415116 -0.0359893 -0.11042164 -0.036224484
-0.07002437 -0.054614976 0.018493384 0.093463555 -0.061435893 0.021947443 0.028404161 -0.022122234
0.060860917 -0.043263018 0.030027717 -0.025321946 0.07497163 0.10766487 0.0019035488 -0.043190107
0.025107816 0.110760495 0.06352258 0.007473275 0.078867674 -0.07013555 -0.113376245 0.074287
-0.08467591 -0.029414758 0.10622105 0.09467338 -0.0043980926 0.02299951 -0.034108356 0.07684742
0.052884877 0.07923281 -0.044022694 -0.08189711 -0.04513392 -0.018651858 0.10663529 0.0737872
0.020459712 -0.047544524 4.10825e-05 -0.0127301365 -0.08820985 0.00929229 0.03132887 0.0120780915
0.104481354 0.117128864 -0.050669312 0.009918913 -0.08940792 -0.022418037 -0.091968924 0.07227126
0.014266208 -0.002193585 -0.038429916 -0.10320632 0.08013825 0.085732 -0.09700912 0.09743956
0.04969527 0.077491894 -0.027967304 0.11197418 0.09318574 0.055898845 -0.07934119 -0.0877932
-0.11128418 0.084882125 0.09794858 -0.01824963 -0.12258662 0.09652305 0.110884055 0.10306503
0.072658524 -0.078054085 0.024942487 -0.09543952 0.049032837 0.0048024654 -0.07211344 -0.08052161
0.030092224 0.0039211065 -0.06113258 -0.12376769 -0.031285733 -0.04320839 -0.119565934 -0.054437682
-0.0044168234 -0.042553246 -0.076782435 -0.040392607 -0.019295558 -0.021038547 0.12250501 -0.11815196
-0.11698578 0.012704849 -0.075942904 -0.060445994 0.000959605 0.07662219 0.0027890801 -0.00087568164
-0.049503192 0.07941976 0.077151924 0.043809235 0.0054828376 -0.10991028 -0.034731537 0.09064114
0.023741275 -0.096710935 -0.03560427 -0.021454975 0.074404866 -0.08895762 0.100673616 0.11317934
0.026701197 -0.094746366 -0.12494153 0.038595945 0.06753747 0.09548353 -0.102937594 -0.050754994
0.057563275 0.040706918 -0.035246596 0.12094918 0.11509271 -0.016850501 0.09362878 0.08646645
0.09612705 0.014668375 0.07554293 0.030439362 0.105808854 -0.11411485 -0.023590922 0.032698184
-0.012261927 0.043565094 -0.12439659 0.033080086 0.07411809 -0.03601396 0.12302446 0.057516426
-0.052116185 0.0222352 -0.07154983 0.11226727 0.04740654 0.056868687 0.010642841 0.049526736
-0.0028689504 0.023717716 0.095671594 0.023132846 -0.0014000535 0.052488133 0.10411297 -0.04973437

weight f4 [32, 64]
00000000: d4eb 94bd 6cae a93d f01a 19bd d04c 93bd
00000010: fac0 abbd 38c9 683d ec0e 953d 6806 863c
00000020: f04e a5bc 543d 9f3d 18ed 293d 80a3 a9bb
00000030: 7af3 d63d d099 81bc 3c8e c7bd 3681 fcbd
00000040: d8bd d93d 6cf8 6abd e844 febd f435 a53d
00000050: f08a 733d f8eb d93d f817 c4bd 8052 b13a
00000060: e250 893d 66a9 d4bd ac1e a93d 7ca6 3e3d
00000070: 940a 3cbd 04dd b4bd 3c2e c43d 5075 30bd
00000080: 8c0e b4bd 0801 ea3d e66f fb3d 6409 febd
00000090: 881a ba3c c423 cdbd a467 4abd 908d be3d
000000a0: 38c4 b8bc b404 ff3d a41d 27bd 62ae afbd
000000b0: 7466 0a3d 400e 78bb 2a7c c33d 86d8 b9bd
000000c0: 7a47 cabd aea7 823d f4ed 24bd d881 fcbd
000000d0: a6ea f7bd 5099 a13c 4c35 083d 2cc4 50bd
000000e0: f8d7 11bd c491 c5bd 36f8 89bd faa3 813d
000000f0: c407 4abd 0ca7 a53d c029 22bc 18af 24bd
00000100: f641 9e3d 845c b83d 4e71 d53d c46a 75bd
00000110: a88f e03c b8f2 da3c 68d8 283d 0026 16bb
00000120: f01f 143d de48 f0bd 528c 82bd 20b6 eb3d
00000130: f4ad ccbd 74c7 823d 90ca 5f3c 20d7 b53b
00000140: a899 c93c d40b ef3d acca a93d e03a bbbc
00000150: 98ad edbd 5cb3 52bd c69b c4bd 18f8 c0bd
00000160: d040 5f3d c631 bbbd 50a7 89bd 286f 0dbd
00000170: ce0a 8bbd 808e b3ba 50f9 1abc 420a 97bd
00000180: 9c1c 7cbd 7a08 c13d 362e cabd 6c74 7b3d
00000190: b0a7 873c 8086 f3ba b45f dbbd d254 853d
000001a0: a099 933b be85 e8bd 1809 ea3c 6015 3f3d
000001b0: 6cf1 163d 80f9 ff3c 7437 e5bd aca5 5f3d
000001c0: 48a4 29bd 2c95 d9bd e4d8 b6bd 0cef 143d
000001d0: c646 b13d 8a6c dc3d 18cc 883d 3050 663d
000001e0: 2e58 cbbd 5801 11bd 547c 3fbd 98fa c8bd
000001f0: e445 ea3d b025 ed3c a418 02bd 0cfc a8bd
00000200: 5c9d 403d 0ac1 cdbd 7093 b23d b8bb 193d
00000210: c8d3 b3bc ae5a 9bbd 0816 703d d6ac e4bd
00000220: a6f2 f83d 2090 863b b44e d23d 6452 49bd
00000230: c85d a93d 6aed bcbd 349c ce3d 3cb0 773d
00000240: 38a8 233d e68a f1bd 6821 c2bc 74ef 693d
00000250: 2434 6a3d ca6a 8cbd e4bd fbbd 6e1e ec3d
00000260: a8e9 bb3d 723b fa3d d49d 843d dedf 8cbd
00000270: 68ee 003d b0ab 7b3d 2c18 783d 2c5f dd3d
00000280: 6080 723d 5e4e bc3d 6051 bfbd 408f b93c
00000290: fcca 22bd 0ccc 423d 7e24 86bd 8096 393c
000002a0: 3005 f93d 4e63 c93d d034 37bd 3e9c e03d
000002b0: b8d5 4c3d ccaf 29bd 2415 fbbd e4d8 cb3d
000002c0: 66d2 81bd 3cc6 9dbd 3c4c e0bd 5c6c 69bd
000002d0: e8fe f5bc 8887 c83d 201d d83b c05f 013b
000002e0: dc92 6e3d 44d9 78bd a6f3 eb3d bcf3 64bd
000002f0: 5a7c af3d ce35 e63d 5076 9dbd 98f8 a4bc
00000300: 581c 34bd ea20 d73d 6848 fbbc 2449 703d
00000310: 1e86 f8bd 5450 cabd ce60 e63d 0426 ee3d
00000320: 36cd dabd 08da 213d 1a5b c9bd 1029 7d3d
00000330: 402e 303b 5a38 d33d d85c ccbc 389c 8ebd
00000340: b034 9f3c c8d9 8a3d 54ba e7bd d878 153d
00000350: 023b e53d 56f1 a1bd 7459 533d aa34 adbd
00000360: 0405 683d f848 833d 9653 bbbd 0082 813b
00000370: 8e41 f4bd f868 d53c 58f2 163d aa9d b7bd
00000380: e4b5 e8bd b42d 93bd 6026 a5bb a0a8 aabc
00000390: 3e6d fdbd 9ce7 a0bd c4d3 b53d 9ad6 8f3d
000003a0: b091 5e3c a88a be3d 1838 c3bc 4407 153d
000003b0: 8053 5b3c 62b7 fd3d 889f 79bd f8a5 89bc
000003c0: 4a85 c33d 7ed5 f13d 9c47 d63d e287 873d
000003d0: ae20 ef3d 8043 2abb befd abbd 8071 3fbc
000003e0: 4062 2ebb ccb0 763d 940d 63bd ae86 dc3d
000003f0: 4009 d93b 1cb1 6ebd f447 84bd 700d 453c
-0.07271543 0.082852215 -0.037379205 -0.07192385 -0.08386417 0.056832522 0.07278237 0.016360477
-0.020179242 0.07775369 0.041485876 -0.0051769614 0.10495658 -0.015820414 -0.09743926 -0.123293325
0.10631913 -0.05736582 -0.124154866 0.08066931 0.059458673 0.106407106 -0.09574884 0.0013528615
0.0670488 -0.10383873 0.08257803 0.04654549 -0.045908526 -0.08831218 0.09579131 -0.043080628
-0.08791837 0.11425978 0.12277202 -0.12404135 0.02271773 -0.100165874 -0.049415246 0.09304345
-0.022554502 0.12452069 -0.040799752 -0.08578183 0.033789113 -0.003785029 0.09545167 -0.09074502
-0.09876914 0.063796386 -0.040265992 -0.12329453 -0.121053025 0.019726425 0.033253953 -0.050968334
-0.035606354 -0.09646943 -0.067367956 0.06330104 -0.049323812 0.08088502 -0.009897649 -0.040206045
0.07727425 0.09002021 0.10422002 -0.059916273 0.02741225 0.026727065 0.041222006 -0.0022910833
0.03616327 -0.11732648 -0.0637442 0.11509347 -0.099941164 0.06385699 0.0136591345 0.0055493265
0.024609402 0.11672178 0.0829061 -0.022855222 -0.11605376 -0.05144058 -0.09600024 -0.0942232
0.05450517 -0.09140353 -0.067213655 -0.034529835 -0.0678917 -0.0013699085 -0.009458855 -0.073750034
-0.06155072 0.09425445 -0.09872095 0.061390325 0.016559452 -0.0018579513 -0.10711613 0.06510319
0.0045043975 -0.11353634 0.02856879 0.046651244 0.03685133 0.0312469 -0.111922175 0.054601356
-0.041416436 -0.106241554 -0.08928087 0.036360785 0.08656077 0.1076289 0.06679553 0.056228817
-0.09928928 -0.035401672 -0.046749428 -0.09813422 0.11439112 0.028948635 -0.03176178 -0.08251199
0.04702507 -0.10046585 0.08719528 0.03753254 -0.021951571 -0.07585655 0.05861476 -0.11165778
0.121556565 0.0041065365 0.10268918 -0.04915084 0.082698405 -0.09224971 0.10088387 0.060470805
0.039955348 -0.11794071 -0.02369757 0.057113126 0.05717863 -0.06856306 -0.12292078 0.115292415
0.09175426 0.122183695 0.06475416 -0.06878637 0.031477362 0.06144303 0.060569927 0.10809168
0.05920446 0.09194635 -0.09341693 0.022651315 -0.039744362 0.047557876 -0.06549929 0.011327386
0.121591926 0.09833394 -0.0447281 0.10967301 0.050008506 -0.04142742 -0.12259892 0.09953478
-0.063389584 -0.07703826 -0.109520406 -0.056988105 -0.030028775 0.097914755 0.006595269 0.001974091
0.058245525 -0.060754076 0.115210816 -0.055896506 0.0856864 0.11240731 -0.07688582 -0.02013807
-0.043972343 0.10504325 -0.030674174 0.058663502 -0.12134956 -0.098786026 0.11248933 0.11628345
-0.10683672 0.03951457 -0.09831829 0.06180674 0.0026883036 0.103134826 -0.024946615 -0.0696339
0.019434303 0.0677982 -0.11314836 0.0364922 0.111928955 -0.07907359 0.05159898 -0.084573105
0.05664541 0.06410402 -0.09146802 0.003952265 -0.11926566 0.02605103 0.03685221 -0.08965619
-0.11362818 -0.071864516 -0.005039975 -0.02083236 -0.12374352 -0.07856676 0.08878282 0.07023354
0.013584539 0.0930379 -0.023830459 0.036383882 0.013386607 0.12388493 -0.060943156 -0.016802773
0.09546907 0.118082985 0.10462877 0.066177145 0.11676155 -0.0025980175 -0.08398007 -0.011684775
-0.0026608855 0.0602272 -0.05543287 0.107678756 0.006623417 -0.058274373 -0.064590365 0.0120271295

bias f4 [32]
00000000: b063 5d3c a0ec b83c 568e 82bd 085e e7bd
00000010: 06f5 b43d 08a8 9f3c c09a f1bc 908d 73bc
00000020: 7477 a83d 8ecc d2bd fa54 b43d f8e8 b3bd
00000030: 66f5 963d 348e 723d b2a9 94bd 3e3c ffbd
00000040: 4085 6cbb a092 c73c fc05 6a3d 6691 e83d
00000050: c0fe dabc ea0e 913d 649d f03d c05f a73c
00000060: 82f1 8f3d 4c11 60bd 0251 9abd 647d babd
00000070: 8c0c e9bd 00ce 503a 20df 753d 1c59 e7bd
0.013512537 0.02257377 -0.06374805 -0.11297232 0.08835797 0.019489303 -0.029492736 -0.014865294
0.08225909 -0.10292922 0.088052705 -0.0878467 0.07371025 0.059217647 -0.07258929 -0.12462662
-0.0036090165 0.024361908 0.057134613 0.113558576 -0.026732802 0.07082923 0.1174877 0.0204314
0.07028486 -0.054703996 -0.07534982 -0.091059476 -0.11379346 0.00079652667 0.06002724 -0.11296293

weight f4 [6, 32]
00000000: 525b 18be 0756 073e ad31 273e 626c 993d
00000010: 1cd9 07bd d85d 17bd fc82 5cbd be8a 29be
00000020: e9f3 28be 2063 ecbb b84e a2bd 2282 903d
00000030: d7dd 1c3e c639 0fbe 3d45 113e a1e9 2ebe
00000040: a297 ff3d f3b0 e0bd 90bc febc 42f9 2fbe
00000050: 6641 5dbd eabb ac3d 8bdd 073e 30d2 1e3c
00000060: 0a1c d83d ce26 e1bd a263 9b3d 8844 9f3c
00000070: 1416 2fbe 0556 113e a8ad 25bd 307f abbd
00000080: e1c6 d8bd 066f adbd 450a 1b3e f2cc c63d
00000090: 5818 013d 1fa9 a6bd 5d8a 153e 3a2e e83d
000000a0: 000d f03b 6857 54bd ba30 91bd 14d0 333d
000000b0: b902 1ebe e6b9 f93d c29d 0ebe c05f 953b
000000c0: e6e7 bc3d c6c4 9d3d c892 8a3d 3b43 0d3e
000000d0: 0075 6d3d c09f 7fbd beff c33d 30e0 50bd
000000e0: 68f2 0f3d b8e7 33be 681e c03c 8030 03bd
000000f0: d22f febd 87dd 2fbe e8ea 8f3c 377e 1e3e
00000100: ee89 1ebe 440d e2bd ac7d 2a3d e71f 2d3e
00000110: 2ddb 053e 10a7 313c 3384 0abe c459 563d
00000120: 73d6 9ebd c094 2d3d 6e56 ec3d d4bc 6abd
00000130: b31c 28be ca72 57bd 57b9 003e e8fe debc
00000140: 684f 623d 8adc e33d 038d 0a3e 98b7 efbc
00000150: 404c 263d ac2a b2bd 68e9 b8bd 1380 afbd
00000160: 83a4 adbd 0900 073e 62ad ed3d fe87 6bbd
00000170: c829 de3c 972e 30be 2122 9ebd 00a0 90b7
00000180: 0008 b43b baea d53d 4922 053e 3705 cabd
00000190: 4b99 09be 22e8 33be 082b 8b3c d500 0f3e
000001a0: c4bf 3c3d 72be d2bd b001 87bc 2a06 79bd
000001b0: 1bd9 223e b0c6 f9bc b39c 213e 500f 823c
000001c0: d0a1 003c 421d f53d 58e7 883c b57e aebd
000001d0: 0e7f 17be e01f 46bc 1375 34be 90cd 713d
000001e0: 940a 4f3d 60de 383d 0088 1dbb 1448 5a3d
000001f0: 5b55 2c3e ffc1 00be dc3c f9bd a105 193e
00000200: 3dee 023e 2977 e1bd c462 02be e4a3 04bd
00000210: 0574 24be 249c 52bd b05d 6b3d 60d3 c5bb
00000220: 249d 1b3d 20ae bd3c 4a61 6cbd 3854 05bd
00000230: 6d89 c9bd b4f5 f9bd e6ba 20be 4035 a33c
00000240: 63dd 0e3e 27b3 223e 71ab 333e a699 e2bd
00000250: 7eee e13d 3200 983d 2c59 40bd f473 03be
00000260: d3f4 dfbd 1861 fb3c 5f55 9cbd c0c5 c33b
00000270: 5893 c23c 1a7a e63d 0ae6 ee3d 1c00 1dbd
00000280: 36cc 11be 8ab0 833d 6002 35be 406b 63bb
00000290: 09ab 093e 6a23 d43d e589 32be 55ae c2bd
000002a0: f222 973d 10a4 2b3d 1e96 e13d 37e2 c0bd
000002b0: ef07 063e aa17 fe3d e837 f73c 8c78 4a3d
000002c0: 3d74 2f3e 0c3a 2bbe 80e2 303c 8031 53bd
000002d0: d63a af3d 7e3d 64bd 46ba f5bd a050 6dbd
000002e0: 82fb e83d 28a3 32be 6664 c03d ccb2 5d3d
000002f0: cd4a 213e cc75 01be bdd3 30be 80ba f13c
-0.14878586 0.1321641 0.16327544 0.074913755 -0.033166036 -0.03695473 -0.053835854 -0.16556832
-0.16499294 -0.007213965 -0.07925171 0.07056071 0.15319 -0.13986883 0.14186569 -0.1708131
0.124800935 -0.109712504 -0.031095773 -0.17184928 -0.054017447 0.08434279 0.13268106 0.009693667
0.10552223 -0.109937295 0.07587363 0.019441858 -0.17098266 0.1419297 -0.040448815 -0.083738685
-0.10584808 -0.08468442 0.15140636 0.09707059 0.031517357 -0.08137726 0.14603563 0.11336942
0.0073257685 -0.05184117 -0.07089372 0.04389961 -0.15430726 0.121936604 -0.13927367 0.0045585334
0.092239186 0.07703547 0.067662776 0.13795178 0.057972908 -0.06240821 0.09570263 -0.05099505
0.035143286 -0.17568862 0.023451999 -0.032028675 -0.12411465 -0.1717435 0.017568067 0.15477835
-0.15482304 -0.110376865 0.041623756 0.16906701 0.1307189 0.010843053 -0.13526992 0.0523317
-0.07755747 0.042378187 0.11539923 -0.057308987 -0.16417198 -0.052599706 0.12570702 -0.027221158
0.05525151 0.11126049 0.13530354 -0.029262349 0.04060006 -0.08699545 -0.09028894 -0.0856935
-0.08478644 0.13183607 0.11605336 -0.05750274 0.027119532 -0.17205273 -0.07721353 -1.7240644e-05
0.0054941177 0.10445161 0.1300136 -0.09864276 -0.13437383 -0.1756902 0.016988292 0.13965161
0.04608132 -0.10290231 -0.016480297 -0.060796894 0.15903132 -0.03049025 0.15782432 0.015876442
0.007851079 0.11968471 0.016711876 -0.08520261 -0.14794561 -0.0120925605 -0.17622785 0.05903393
0.050547197 0.04513395 -0.002403736 0.053291395 0.16829436 -0.12574004 -0.12169811 0.14943554
0.12786193 -0.11009056 -0.12732989 -0.03238286 -0.16059883 -0.05141844 0.057462394 -0.0060371608
0.037991658 0.023154318 -0.05770997 -0.03255102 -0.09840665 -0.12205067 -0.15696296 0.019922853
0.1395164 0.15888654 0.17545868 -0.11064462 0.11031817 0.07421912 -0.04696004 -0.12837201
-0.109353684 0.030685946 -0.07633471 0.0059745014 0.0237519 0.11253758 0.1166497 -0.038330182
-0.14238057 0.064301565 -0.17676687 -0.0034701377 0.13444151 0.10358317 -0.17435415 -0.095059074
0.07379712 0.04190451 0.11014961 -0.09418147 0.13088964 0.12406857 0.030178025 0.04943137
0.17134185 -0.16721362 0.010796189 -0.05156088 0.08556144 -0.055722706 -0.119984195 -0.057938218
0.11376096 -0.17445052 0.093941495 0.054125592 0.1575119 -0.12642592 -0.17268272 0.029507875

bias f4 [6]
00000000: 4c3f 1abd 00a6 3f3c b009 ed3c c8e2 12be
00000010: 38ad 533d f6f2 be3d
-0.03765802 0.011697292 0.028935283 -0.14344323 0.051678866 0.09323685

weight f4 [2, 32]
00000000: 3d00 143e 8040 4dbb 590f 14be 845d 19be
00000010: 13b3 93bd 220d 9f3d 7e53 bc3d 0dbd 2b3e
00000020: 74f8 743d 5a7a ad3d beed f73d aace cb3d
00000030: b005 72bd 3aa2 97bd 228f ccbd 8880 60bd
00000040: 4f24 233e 8d1f 23be 1f15 d3bd 55d1 15be
00000050: 622f a73d 2049 efbd c010 5bbd ca8f b4bd
00000060: 1845 03be c598 1d3e fcb6 0f3d 5af0 cd3d
00000070: a853 c03c 2e05 bebd 57f1 16be f4a7 0fbe
00000080: 2eaa c2bd b155 30be 09fb 163e d0ed e9bc
00000090: 721f d53d d012 3bbd e9ba 9bbd a87c b53c
000000a0: 00c0 3bb7 5523 163e fa72 9a3d e6be e93d
000000b0: dd12 1cbe 9c6b 60bd a3af 0f3e eb72 1bbe
000000c0: 40e7 983b a861 de3c 4571 183e a0af 96bb
000000d0: cd31 113e 883a 9e3c 9efd b93d c002 4c3c
000000e0: 0060 4bbd 68fd f9bc efbd 173e 925c 9dbd
000000f0: c1db 243e 94c5 093d 0a77 f13d 3956 0c3e
0.14453216 -0.0031318963 -0.1445898 -0.1497708 -0.0721189 0.07766177 0.09195612 0.16771336
0.059807256 0.08470602 0.121058926 0.099515274 -0.059087455 -0.07403989 -0.09988238 -0.054810077
0.1593182 -0.15930004 -0.10306763 -0.14630635 0.081633344 -0.11683869 -0.05348277 -0.08816488
-0.12819326 0.15390308 0.035086617 0.10055609 0.02347739 -0.09278332 -0.14740501 -0.14028913
-0.095051154 -0.17220189 0.147442 -0.02855578 0.10406388 -0.045672238 -0.0760401 0.022154167
-1.1190772e-05 0.14661916 0.07541461 0.11413364 -0.15241571 -0.054790124 0.14031844 -0.15180556
0.004666239 0.027146176 0.14886959 -0.004598573 0.14179154 0.01931502 0.09081577 0.0124518275
-0.0496521 -0.030516341 0.14818548 -0.07683672 0.16099454 0.03363569 0.11790283 0.13704766

bias f4 [2]
00000000: a867 ebbc 8830 debd
-0.02873595 -0.108491

weight f4 [1, 32]
00000000: 29f0 1c3e b021 12be e062 1cbe d301 003e
00000010: 78c4 f13c 2e4b 9a3d 04a0 1dbd 5ff1 013e
00000020: 9b3e 90bd 3332 cfbd 4769 1a3e ee51 d53d
00000030: 900b 0ebe 2e97 ee3d 3314 86bd 437d 0fbe
00000040: 864b 0fbe 9e36 fa3d d86b ebbc b636 d43d
00000050: 3021 5dbc f1be 2e3e 6cd8 20bd 0095 f63c
00000060: 3948 183e 828f e13d 810a 033e ace7 303d
00000070: ab5c 193e 4f75 cbbd 2a55 8f3d 6005 3bbd
0.15325989 -0.14270663 -0.15272093 0.12500696 0.029512629 0.07533871 -0.03848268 0.12689732
-0.07043191 -0.101169966 0.15079223 0.104160175 -0.13871598 0.11649929 -0.065468214 -0.14012627
-0.13993654 0.12217449 -0.028737947 0.10361998 -0.013496682 0.17065026 -0.039268896 0.030100346
0.14871301 0.110137 0.12796976 0.04318969 0.14976756 -0.09934484 0.06998666 -0.045659423
