simplified game v3/MARLv1/attacker_agent_final.pth (torch, 933378 bytes, 11 tensors)

weight_ih_l0 f4 [256, 25]
-0.022209853 -0.026545987 0.034125984 0.109823674 -0.06653246 -0.08076623 0.032727987 0.068397224
-0.10703613 0.12168737 -0.037448063 0.09487781 0.07322836 0.06859255 -0.123271495 -0.05708678
0.08513464 0.053203344 0.0747527 -0.07427929 0.10774024 0.06755498 0.04258263 0.038129598
-0.08638558 0.012262031 0.062363 -0.052813992 -0.11133602 -0.08880311 0.10076791 -0.068622395
-0.12250863 0.10721588 0.08342779 0.11574066 0.1043964 -0.108140916 0.106854126 -0.060562775
0.10816388 0.019389883 0.0031713545 0.116978645 0.06591067 -0.010232791 -0.099450454 0.055800527
-0.04319276 0.022801086 0.12205343 0.07544233 0.034773722 -0.016242594 -0.1086576 0.08731297
0.100390986 0.10832603 -0.08245115 -0.10085218 0.075559095 -0.07060139 -0.11689353 -0.08937198
0.044946894 -0.06440805 -0.04383868 -0.026542962 0.07918997 -0.043628633 -0.11860478 -0.1031695
-0.025273815 0.016932398 0.058080733 -0.088728964 -0.012662694 -0.005501747 -0.03179641 0.07878213
0.09355092 0.10928865 -0.07669552 -0.0532455 -0.06301196 0.033470318 -0.08228117 -0.091638476
0.07251656 -0.049380273 -0.053384393 0.02485606 -0.11941162 0.08799453 -0.03988138 0.09546268
0.033021018 -0.004164383 0.063322425 0.045749143 0.113460466 -0.10766737 -0.11892812 0.1134707
-0.040004417 0.088193715 -0.11893554 -0.04675339 0.1144713 0.09796783 0.04057361 -0.09458527
-0.06341943 0.10135436 -0.09124176 0.11223784 -0.012427345 0.120233774 -0.09001543 -0.0019717962
0.09832278 0.06884809 0.11563034 0.08423053 -0.060640886 -0.051224947 0.017714456 -0.067144394
-0.032102674 -0.033696324 0.11641388 -0.03328243 0.0073955506 -0.07553482 -0.0203304 -0.039018273
-0.067834705 0.0052791983 -0.10184273 0.036492944 0.04581447 0.09946723 0.05101995 0.060327157
0.006762013 -0.022122055 -0.04629332 -0.061908722 0.023738265 0.11615145 0.11381337 0.09429039
0.024418697 0.04141289 0.053881288 -0.0820066 -0.014243469 -0.016052961 -0.0018071979 0.098644406
0.0478196 0.07310365 -0.11648618 0.05558443 -0.110944435 -0.050755933 -0.08897202 -0.021568358
-0.09358232 -0.11273402 0.05025035 -0.060468793 -0.049317285 0.071820766 -0.05903031 -0.004514456
0.10869621 -0.04212843 0.008770883 0.08532986 -0.038056314 -0.04509251 -0.11102255 0.033168823
0.068919286 -0.08144146 0.040220827 -0.05897507 -0.00014927983 0.012590036 -0.023516893 0.024456069
0.0707974 0.025976688 0.014359772 -0.07137136 -0.0586524 0.0059868246 -0.0940533 0.11808042
0.11907756 0.072975665 0.032154724 -0.0067947507 0.10500416 0.08640024 -0.10919976 -0.051787257
0.10955647 0.08958176 0.097637355 0.04054919 0.005340636 -0.013689771 -0.10054782 -0.027955845
0.05109246 -0.016356185 -0.10658279 -0.12400149 -0.061736926 -0.087480724 -0.12177265 -0.027236879
0.070999876 -0.08417809 -0.09246567 0.0622852 -0.09826361 -0.08434017 0.010727286 0.021350846
0.10041396 0.035935327 0.115840256 0.031984016 -0.05856946 0.03363204 0.021586418 -0.038432136
-0.020094946 0.05437708 0.025354609 0.0091315955 0.11046204 0.09594716 0.009838551 0.122491196
0.048979685 -0.082509175 0.120398104 0.08147393 0.12397976 0.11572847 0.034765184 -0.059400544
00000000: 70f1 b5bc f876 d9bc b0c7 0b3d 3ceb e03d
00000010: 2c42 88bd c468 a5bd c80d 063d d813 8c3d
00000020: c235 dbbd 3a37 f93d 2463 19bd 4c4f c23d
00000030: c0f8 953d 407a 8c3d c475 fcbd d4d3 69bd
00000040: 125b ae3d c0eb 593d f217 993d be1f 98bd
00000050: eaa6 dc3d 445a 8a3d 206b 2e3d c82d 1c3d
00000060: ecea b0bd b0e6 483c 5870 7f3d 7c53 58bd
00000070: 2404 e4bd 68de b5bd 685f ce3d e689 8cbd
00000080: cee5 fabd 0094 db3d 30dc aa3d 7009 ed3d
00000090: c8cd d53d fc78 ddbd 56d6 da3d ac10 78bd
000000a0: 0685 dd3d 88d7 9e3c 80d6 4f3b 8092 ef3d
000000b0: 2cfc 863d 70a7 27bc aeac cbbd 188f 643d
000000c0: e4ea 30bd 58c9 ba3c 26f7 f93d 8281 9a3d
000000d0: e46e 0e3d 300f 85bc e087 debd 24d1 b23d
000000e0: ca99 cd3d 0ada dd3d 26dc a8bd 968b cebd
000000f0: babe 9a3d 7697 90bd e065 efbd a808 b7bd
00000100: 3c1a 383d 5ee8 83bd 3090 33bd a070 d9bc
00000110: 5a2e a23d f0b3 32bd 10e7 f2bd 884a d3bd
00000120: 080b cfbc d0b5 8a3c 10e6 6d3d 88b7 b5bd
00000130: 3077 4fbc 0048 b4bb f43c 02bd 8658 a13d
00000140: a097 bf3d bad2 df3d 8a12 9dbd f417 5abd
00000150: 6a0c 81bd 2c18 093d 0883 a8bd f4ac bbbd
00000160: 9083 943d f842 4abd 98a9 5abd f09e cb3c
00000170: 148e f4bd 7a36 b43d a85a 23bd f081 c33d
00000180: 0c41 073d 6075 88bb 30af 813d 7463 3b3d
00000190: f65d e83d b680 dcbd 9690 f3bd 5463 e83d
000001a0: acdb 23bd e89e b43d 7a94 f3bd 7c80 3fbd
000001b0: ee6f ea3d 5ca3 c83d 8430 263d ecb5 c1bd
000001c0: 0ce2 81bd e092 cf3d f6dc babd f4dc e53d
000001d0: 109c 4bbc 203d f63d 025a b8bd 4039 01bb
000001e0: 745d c93d 3a00 8d3d 9acf ec3d 0e81 ac3d
000001f0: 9462 78bd 40d1 51bd e81d 913c 0083 89bd
00000200: 187e 03bd 2805 0abd 666a ee3d 2853 08bd
00000210: 6056 f23b 00b2 9abd f08b a6bc a0d1 1fbd
00000220: ecec 8abd 20fd ac3b ec92 d0bd a079 153d
00000230: f4a7 3b3d 7ab5 cb3d 4cfa 503d 9c19 773d
00000240: e093 dd3b 5039 b5bc 109e 3dbd 0094 7dbd
00000250: c076 c23c d0e0 ed3d fc16 e93d 521b c13d
00000260: b809 c83c 90a0 293d a0b2 5c3d 14f3 a7bd
00000270: 705d 69bc 8081 83bc 80df ecba 1406 ca3d
00000280: 7cde 433d 5eb7 953d 4e90 eebd 80ac 633d
00000290: d636 e3bd 74e5 4fbd f636 b6bd 20b0 b0bc
000002a0: 16a8 bfbd 18e1 e6bd 50d3 4d3d 20ae 77bd
000002b0: ec00 4abd c416 933d c4c9 71bd 00ee 93bb
000002c0: 1e9c de3d dc8e 2cbd c0b3 0f3c 6cc1 ae3d
000002d0: f0e0 1bbd ecb2 38bd ca5f e3bd 08dc 073d
000002e0: 8e25 8d3d c8ca a6bd 98be 243d d88f 71bd
000002f0: 0088 1cb9 7046 4e3c 80a6 c0bc 1858 c83c
00000300: 3afe 903d 10cd d43c 4045 6b3c 262b 92bd
00000310: 803d 70bd 202d c43b 049f c0bd 26d4 f13d
00000320: f0de f33d 4474 953d acb4 033d 80a6 debb
00000330: 6c0c d73d 9cf2 b03d 20a4 dfbd e01e 54bd
00000340: 245f e03d a476 b73d 18f6 c73d e816 263d
00000350: 8000 af3b 104b 60bc 04ec cdbd a803 e5bc
00000360: 5446 513d 68fd 85bc 1448 dabd 7ef4 fdbd
00000370: dcdf 7cbd 1829 b3bd f063 f9bd e01f dfbc
00000380: 6268 913d 9065 acbd a45e bdbd c41e 7f3d
00000390: 6e3e c9bd 8aba acbd 80c1 2f3c f8e7 ae3c
000003a0: d6a5 cd3d ec30 133d a83d ed3d ac01 033d
000003b0: 88e6 6fbd c0c1 093d 00d6 b03c 046b 1dbd
000003c0: 289e a4bc 80ba 5e3d 78b4 cf3c b09c 153c
000003d0: ec39 e23d f27f c43d e031 213c aadc fa3d
000003e0: ec9e 483d 92fa a8bd 4893 f63d cedb a63d
000003f0: 1ae9 fd3d 0c03 ed3d f065 0e3d fc4d 73bd

weight_hh_l0 f4 [256, 64]
0.030102655 -0.100854576 0.05756785 -0.09298125 -0.03472723 -0.08720194 0.046808973 0.123896554
-0.08511144 0.06307939 0.099276915 0.11038734 0.08307153 0.037086174 -0.11066106 0.0783101
0.012366936 -0.00627023 0.00021369755 0.059949413 0.031142697 0.072026476 -0.09393284 -0.020341486
-0.07299681 0.050276607 0.11479905 0.087028205 0.085289404 -0.084178746 0.028771386 -0.012182891
-0.0344885 0.00023941696 0.058581233 0.08559796 -0.0030418336 -0.028184503 -0.09460488 0.06309612
-0.013789952 0.069404125 -0.04656063 0.08826864 -0.070600525 -0.10143581 0.026741773 -0.0068095475
0.0476266 -0.10866457 -0.079875976 0.027598634 -0.051501766 0.081606776 -0.104567125 0.07097435
-0.016281962 0.0034433007 0.03865148 0.03224705 -0.04493107 -0.02482523 -0.08395979 0.040970966
-0.008598179 0.02825062 -0.02685298 -0.11678395 -0.02031812 -0.100848004 0.08617845 -0.080378845
0.04069215 0.015024602 -0.090364605 -0.09239587 -0.107220024 0.10868648 -0.11317751 -0.07615802
0.08396931 0.041347533 -0.01484789 0.018033445 -0.08149849 -0.04013908 -0.086798236 0.07524969
0.07728137 0.04470554 -0.117088005 -0.08166422 -0.10356882 0.08655146 0.11565733 -0.08579403
0.049903616 -0.026561767 -0.025524214 0.027848572 0.02407208 -0.046591163 -0.041651428 0.10678415
0.113805786 -0.09357764 -0.10271849 0.091422185 0.10054511 0.114123255 -0.045243293 0.06626901
-0.102812335 0.030703723 0.057493195 0.067792416 0.1014982 -0.09183551 0.072883844 0.059793606
-0.070778206 -0.067661956 0.120721355 -0.11936532 -0.098729596 -0.032826304 0.059989855 -0.10825235
-0.028122216 0.023625344 0.014820978 0.090022415 -0.08776021 -0.006320238 -0.06039825 -0.042755842
0.048662215 -0.03739187 0.020376936 -0.06145923 -0.0015291572 -0.04283242 -0.014839038 0.048356622
0.105520114 -0.10214834 0.021245465 -0.07073335 -0.012546569 -0.06444012 -0.0042581856 -0.074727565
0.11983539 -0.0026913583 -0.027859196 0.100339085 0.08621985 -0.065148175 -0.023880854 -0.058860406
0.05783251 -0.050021276 -0.07948859 -0.0026339442 -0.014304042 -0.022262588 0.0019042045 0.106849566
0.024959758 0.12473215 0.12440379 0.106992245 0.046412364 0.06819445 -0.063432485 0.032965034
0.016453207 0.058142066 0.076616764 -0.0146891475 -0.08749464 0.11397435 -0.07677965 -0.077676415
-0.061229467 -0.04085146 -0.038668215 0.08537379 0.012586132 0.10691428 0.01877074 -0.053472593
0.0738533 -0.034697205 0.07765199 -0.06998396 -0.055438057 0.025544912 -0.0726386 -0.1227781
-0.08670512 0.026871383 0.07864159 -0.08309154 -0.077023536 -0.07048111 -0.062493294 -0.04172209
-0.07099125 -0.116184816 0.04098223 -0.08150691 0.09324758 -0.11547762 -0.06064287 0.037522346
-0.06099482 -0.106238276 0.04504603 0.037281632 0.11751853 -0.055968463 0.06568858 -0.09629819
0.11874844 -0.045490295 -0.032844096 0.10868448 0.045022532 0.06489062 0.054609597 -0.01101844
-0.08769809 -0.078245774 -0.06799418 0.10361467 -0.0075806975 0.12126915 0.049647465 -0.021530405
-0.06769277 0.06031066 0.07772219 0.042676374 -0.032845646 -0.092158034 0.060610503 0.032358527
0.086190194 -0.022592366 -0.07855113 0.09006794 -0.0055425763 0.10194883 0.0030032843 -0.01609698
00000000: d899 f63c d88c cebd 44cc 6b3d f46c bebd
00000010: 243e 0ebd ee96 b2bd c4ba 3f3d 7abd fd3d
00000020: e84e aebd c42f 813d b251 cb3d c212 e23d
00000030: 6821 aa3d ace7 173d 44a2 e2bd 0c61 a03d
00000040: b09e 4a3c 8076 cdbb 0014 6039 848d 753d
00000050: f81e ff3c 9e82 933d dc5f c0bd 30a3 a6bc
00000060: 5a7f 95bd d8ee 4d3d c41b eb3d d83b b23d
00000070: 36ac ae3d e865 acbd f8b1 eb3c c09a 47bc
00000080: d043 0dbd 000c 7b39 e0f2 6f3d fc4d af3d
00000090: 8059 47bb 30e3 e6bc 34c0 c1bd 8a38 813d
000000a0: 40ef 61bc c023 8e3d 5cb6 3ebd 30c6 b43d
000000b0: 0297 90bd 94bd cfbd 9011 db3c a022 dfbb
000000c0: 1c14 433d 888b debd 0496 a3bd 8816 e23c
000000d0: 84f3 52bd 7421 a73d 4a27 d6bd 005b 913d
000000e0: c061 85bc 00a9 613b 0451 1e3d 7c15 043d
000000f0: a409 38bd 485e cbbc 1cf3 abbd 2cd1 273d
00000100: 60df 0cbc d86d e73c c8fa dbbc 6c2c efbd
00000110: 3072 a6bc 6689 cebd 547e b03d aa9d a4bd
00000120: d0ac 263d c029 763c 1411 b9bd 0c3a bdbd
00000130: 2c96 dbbd 0497 de3d 9cc9 e7bd bcf8 9bbd
00000140: 1af8 ab3d 085c 293d 9044 73bc e0ba 933c
00000150: aee8 a6bd e068 24bd 46c3 b1bd 821c 9a3d
00000160: b245 9e3d 281d 373d d6cb efbd 923f a7bd
00000170: e41b d4bd e441 b13d c0dd ec3d c8b4 afbd
00000180: bc67 4c3d 1098 d9bc 2818 d1bc b022 e43c
00000190: d032 c53c 60d6 3ebd b09a 2abd a6b1 da3d
000001a0: 0213 e93d a2a5 bfbd 125e d2bd 8e3b bb3d
000001b0: 98ea cd3d 74b9 e93d 0851 39bd 0cb8 873d
000001c0: 468f d2bd 6086 fb3c fc7d 6b3d c0d6 8a3d
000001d0: 4ade cf3d 4214 bcbd 2044 953d 24ea 743d
000001e0: 2af4 90bd 5a92 8abd c23c f73d ce75 f4bd
000001f0: be32 cabd e074 06bd ecb7 753d 68b3 ddbd
00000200: 9060 e6bc f089 c13c b0d3 723c ac5d b83d
00000210: a0bb b3bd 001a cfbb 2864 77bd c020 2fbd
00000220: 0852 473d 3828 19bd 88ed a63c acbc 7bbd
00000230: 006e c8ba 0c71 2fbd 701f 73bc 9811 463d
00000240: ee1a d83d 2633 d1bd f80a ae3c a6dc 90bd
00000250: 2090 4dbc 2ef9 83bd 4088 8bbb c40a 99bd
00000260: 426c f53d 8061 30bb f838 e4bc 947e cd3d
00000270: 0894 b03d 686c 85bd c8a1 c3bc 9c17 71bd
00000280: c8e1 6c3d 1ce3 4cbd eaca a2bd 409e 2cbb
00000290: 805b 6abc 0860 b6bc 8096 f93a f2d3 da3d
000002a0: 6878 cc3c 9273 ff3d 6ac7 fe3d c01e db3d
000002b0: e41a 3e3d 88a9 8b3d e4e8 81bd 5806 073d
000002c0: e0c8 863c 6026 6e3d 40e9 9c3d c0aa 70bc
000002d0: 6430 b3bd 626b e93d a63e 9dbd d014 9fbd
000002e0: c0cb 7abd dc53 27bd 9062 1ebd 74d8 ae3d
000002f0: 1036 4e3c e0f5 da3d 18c5 993c 1406 5bbd
00000300: 6640 973d a81e 0ebd 0208 9f3d c053 8fbd
00000310: 0413 63bd 9043 d13c 8cc3 94bd 1673 fbbd
00000320: 7492 b1bd 6021 dc3c d80e a13d e62b aabd
00000330: 84be 9dbd 6658 90bd f8f8 7fbd c8e4 2abd
00000340: dc63 91bd 4ef2 edbd fcdc 273d 18ed a6bd
00000350: 96f8 be3d 887f ecbd a864 78bd 08b1 193d
00000360: b4d5 79bd 7493 d9bd 3082 383d a0b4 183d
00000370: 8ead f03d 303f 65bd bc87 863d fc37 c5bd
00000380: 6232 f33d 0854 3abd 8887 06bd f895 de3d
00000390: 8c69 383d 60e5 843d 50ae 5f3d b086 34bc
000003a0: 0e9b b3bd 523f a0bd 8840 8bbd ee33 d43d
000003b0: 8067 f8bb f65b f83d 245b 4b3d 8860 b0bc
000003c0: 82a2 8abd 5008 773d d02c 9f3d 6ccd 2e3d
000003d0: 2889 06bd 5abd bcbd b842 783d 608a 043d
000003e0: 7c84 b03d a013 b9bc 6adf a0bd 8a75 b83d
000003f0: 809e b5bb 8cca d03d c0d2 443b d0dd 83bc

bias_ih_l0 f4 [256]
0.047973543 0.022571146 -0.08929737 0.01201421 -0.09941077 -0.04361087 -0.09883647 -0.020514995
-0.0763675 -0.11922844 -0.024975121 0.10924287 -0.10004628 -0.028170168 0.08797866 -0.095529884
-0.111509174 -0.11466323 0.0069553107 0.040828854 -0.0017082691 -0.09865342 -0.049691528 -0.1100214
0.022085056 0.03916481 -0.0690822 0.042042926 0.072476804 0.11471759 0.08651635 -0.0091534555
0.021162108 0.0022822618 -0.046919405 0.0789711 0.038240656 -0.05026765 0.12396689 -0.08044292
0.06513192 0.027502567 0.02265267 0.04610078 0.10426839 0.12310541 0.02119641 0.038979232
0.08405724 0.124097735 -0.08080536 0.015628234 -0.067763776 0.037659615 -0.07388085 0.12463872
0.06536186 -0.024791986 -0.02556847 0.085876346 0.013018712 -0.11560705 -0.032819465 0.04222223
0.045702115 0.10637775 0.055873245 0.04830341 -0.07379751 -0.034277752 -0.10152741 0.07863304
-0.11528219 0.12022051 0.10776983 -0.11239703 0.01117219 -0.04800035 -0.0023690164 0.09864089
-0.035960138 0.06552233 0.062438905 0.07554005 -0.039107904 -0.11439875 0.11920789 -0.016508073
0.105806485 -0.10642181 -0.00017169118 0.11252512 -0.096872255 0.03235665 -0.087367 -0.042472616
0.040275067 0.12181391 -0.077555165 -0.076703444 -0.062339634 -0.082040906 -0.033987477 0.08601485
0.10372697 -0.09585884 0.03466803 0.00022941828 0.11766139 0.09219056 0.059453785 0.09477897
-0.023555323 -0.09716402 0.049203962 -0.077984005 -0.09694004 0.09159456 0.11024378 -0.051560506
-0.027969822 0.10479277 -0.113019064 -0.009950131 -0.0821069 -0.048433453 -0.061270803 -0.0626259
-0.018499017 -0.025645569 -0.07895854 -0.032357603 -0.046095 -0.013383359 -0.087040156 0.0702782
-0.094420105 -0.0028062165 0.099328324 0.06445457 -0.054634646 0.004666239 -0.09450351 -0.12393206
0.07368867 0.0052458793 -0.06846371 0.04935749 -0.09812777 -0.0061531663 -0.031403705 0.012025103
0.099729896 0.11018914 0.08533847 -0.08392042 0.09106581 0.0031677634 0.075835675 0.014768764
-0.0073536634 0.03363949 0.050196484 0.099286765 -0.054825902 0.08963138 -0.11632007 0.0448837
0.055525288 -0.11174695 -0.09966697 -0.0950461 -0.029168665 0.109308004 0.096900836 0.0862675
-0.01190038 -0.123455 0.0290083 -0.1108776 -0.100146815 -0.0682774 0.0784242 0.12355377
-0.018359557 0.062536374 0.10379711 -0.050111458 -1.4483929e-05 0.03474149 -0.09452668 0.09904714
0.09358513 0.054683924 0.0026955605 0.033926085 0.0790682 0.0902171 0.018924564 -0.049412206
-0.042957306 0.105510205 0.08030422 0.08794531 0.024702802 -0.0037112385 -0.09288609 0.027788877
-0.11358482 -0.069681525 0.11908819 -0.12132344 -0.00873296 0.12434541 0.046656027 0.04735972
-0.066444606 -0.113326654 0.08309834 0.10713859 -0.0037430376 0.017827481 -0.06419091 0.07006094
-0.046626106 -0.109624594 0.053545833 -0.008462101 -0.031510755 0.08631085 0.041201785 0.11785796
-0.0069681853 -0.044228494 -0.11529918 -0.11955248 -0.03312029 -0.10816407 0.08728391 0.07155691
-0.10803801 -0.054065853 -0.013114065 -0.066547155 0.08062589 0.021062315 0.038369596 0.06538339
-0.07830614 0.004037574 -0.040116876 0.07407677 -0.07351214 0.04958096 0.03100133 0.024040177
00000000: e87f 443d 20e7 b83c 8ae1 b6bd 40d7 443c
00000010: e097 cbbd 50a1 32bd c66a cabd 100f a8bc
00000020: 9066 9cbd 0a2e f4bd a098 ccbc baba df3d
00000030: 10e5 ccbd 20c5 e6bc 282e b43d 2ca5 c3bd
00000040: ec5e e4bd 8ed4 eabd 60e9 e33b 283c 273d
00000050: 00e8 dfba ce0a cabd 5889 4bbd e652 e1bd
00000060: b8eb b43c 486b 203d f87a 8dbd 3435 2c3d
00000070: b86e 943d 0ef1 ea3d 7c2f b13d 60f8 15bc
00000080: 285c ad3c 0092 153b 902e 40bd 9abb a13d
00000090: 3ca2 1c3d 74e5 4dbd 5ae2 fd3d 42bf a4bd
000000a0: e263 853d 104d e13c 1892 b93c 2cd4 3c3d
000000b0: aa8a d53d b01e fc3d 18a4 ad3c b0a8 1f3d
000000c0: 3426 ac3d f426 fe3d 487d a5bd c806 803c
000000d0: bcc7 8abd f840 1a3d d84e 97bd 9642 ff3d
000000e0: 70dc 853d 9018 cbbc f874 d1bc f0df af3d
000000f0: 704c 553c 64c3 ecbd b46d 06bd 38f1 2c3d
00000100: 2432 3b3d 94dc d93d 58db 643d ccd9 453d
00000110: 2623 97bd d466 0cbd 9aed cfbd 5c0a a13d
00000120: 1219 ecbd 2c36 f63d 6eb6 dc3d 6a30 e6bd
00000130: 900b 373c 049c 44bd 8041 1bbb 3c04 ca3d
00000140: f04a 13bd 9230 863d f0bf 7f3d beb4 9a3d
00000150: 9c2f 20bd e449 eabd 4423 f43d f03b 87bc
00000160: 12b1 d83d aef3 d9bd 0008 34b9 9273 e63d
00000170: f664 c6bd 6888 043d 78ed b2bd c4f7 2dbd
00000180: 78f7 243d 9279 f93d 3ed5 9ebd b216 9dbd
00000190: d857 7fbd 1005 a8bd 7436 0bbd 8e28 b03d
000001a0: ce6e d43d a451 c4bd 1000 0e3d 0090 7039
000001b0: 74f8 f03d 68ce bc3d d085 733d 7a1b c23d
000001c0: 18f7 c0bc eefd c6bd 188a 493d 14b6 9fbd
000001d0: 8088 c6bd ee95 bb3d 7ec7 e13d 1c31 53bd
000001e0: f820 e5bc 989d d63d 8a76 e7bd e005 23bc
000001f0: aa27 a8bd 2862 46bd 18f7 7abd 0242 80bd
00000200: 408b 97bc a816 d2bc 04b5 a1bd 6889 04bd
00000210: 1cce 3cbd e045 5bbc 1c42 b2bd 04ee 8f3d
00000220: 545f c1bd 80e8 37bb a66c cb3d c200 843d
00000230: 94c8 5fbd 40e7 983b 0e8b c1bd 18d0 fdbd
00000240: 16ea 963d a0e5 ab3b b436 8cbd 142b 4a3d
00000250: 36f7 c8bd 80a0 c9bb 2ca1 00bd f004 453c
00000260: 303f cc3d d8aa e13d f0c5 ae3d 78de abbd
00000270: b680 ba3d 409a 4f3b bc4f 9b3d b0f8 713c
00000280: 00f7 f0bb 90c9 093d d49a 4d3d dc56 cb3d
00000290: 2091 60bd a890 b73d 3839 eebd f8d7 373d
000002a0: 7c6e 633d 96db e4bd 321e ccbd 88a7 c2bd
000002b0: 20f3 eebc e0dc df3d f273 c63d 04ad b03d
000002c0: d0f9 42bc fad5 fcbd d0a2 ed3c cc13 e3bd
000002d0: c619 cdbd 06d5 8bbd de9c a03d c209 fd3d
000002e0: c866 96bc 1213 803d 9493 d43d ac41 4dbd
000002f0: 0000 73b7 184d 0e3d 3497 c1bd 3ad9 ca3d
00000300: 90a9 bf3d 40fc 5f3d 00a8 303b 14f6 0a3d
00000310: 82ee a13d bec3 b83d b007 9b3c 7464 4abd
00000320: 00f4 2fbd bc15 d83d 8a76 a43d ac1c b43d
00000330: 885d ca3c 4038 73bb 103b bebd 80a5 e33c
00000340: 289f e8bd 30b5 8ebd 82e4 f33d 6c78 f8bd
00000350: b014 0fbc cea8 fe3d 641a 3f3d 44fc 413d
00000360: 1c14 88bd ce17 e8bd 762f aa3d 7a6b db3d
00000370: c04d 75bb f00a 923c 8676 83bd 1c7c 8f3d
00000380: 04fb 3ebd dc82 e0bd e052 5b3d a0a4 0abc
00000390: 6c11 01bd bec3 b03d 34c3 283d 845f f13d
000003a0: 6055 e4bb f028 35bd fa21 ecbd eed7 f4bd
000003b0: 24a9 07bd 2085 ddbd e8c1 b23d 6e8c 923d
000003c0: 0843 ddbd 2874 5dbd 60dc 56bc e049 88bd
000003d0: 301f a53d e08a ac3c 7029 1d3d bae7 853d
000003e0: f85e a0bd a04d 843b 9851 24bd 90b5 973d
000003f0: 888d 96bd 6815 4b3d 80f6 fd3c e8ef c43c

bias_hh_l0 f4 [256]
0.06827189 0.06554346 0.036571905 -0.106329456 -0.0461497 0.036862165 -0.0038081408 -0.093618095
-0.06898031 -0.08987485 0.0279686 -0.045531586 0.07251227 0.07728247 0.11073999 0.049166694
0.04228933 -0.014539793 -0.08320603 0.0670744 0.105091274 -0.06395608 0.05785437 -0.11400768
-0.10147829 -0.10296823 0.051912636 0.08378416 -0.051343724 0.030803353 -0.042537987 0.073074296
-0.032202378 0.0911921 0.10898961 -0.016255707 -0.07343176 0.086760506 -0.02617532 0.06626892
0.08938955 0.012524232 0.052654162 -0.08048408 0.0740232 0.023556799 0.04431893 -0.024127588
-0.046846017 0.1044839 0.06808832 -0.12086542 -0.052547663 -0.1035776 -0.012129143 0.012791514
0.090785906 0.015566066 0.028017014 -0.085957766 -0.09477824 0.03913881 0.012374118 -0.1230329
-0.08291872 -0.013037041 -0.060108602 -0.055446163 0.04945819 0.024729699 0.10633446 -0.016649812
-0.07103272 -0.009514034 0.12175949 -0.08372508 0.111465946 -0.05351962 -0.06751697 0.058207244
-0.109186426 -0.1065072 0.077213794 -0.011205986 0.124255836 0.06705126 -0.01093173 0.06732853
0.11176774 -0.06339927 -0.02230291 0.08163877 0.11208235 0.118405506 -0.014543802 0.039389193
-0.10962054 0.123865634 -0.12131794 0.11611161 -0.109970465 -0.045522973 0.028027117 -0.08900197
0.011905804 0.009743243 -0.06473479 -0.11121221 0.121959046 0.050363183 0.073062986 0.119960934
-0.06899519 0.122231185 0.08806436 0.042363748 -0.048359305 0.03519459 -0.07898916 -0.062342137
-0.11518499 0.12142278 0.006803602 0.05765207 -0.06293818 -0.07387103 -0.08953613 -0.0202754
-0.05135934 0.005798936 -0.06384459 -0.03542137 -0.05134061 0.065356895 -0.08911872 -0.0140410215
0.07431869 0.11308788 -0.081997275 0.088273555 -0.106272876 0.0747401 -0.04193315 -0.1055655
0.074040055 -0.074866876 0.1047986 -0.015476689 -0.015501305 0.01609008 0.06901242 -0.10365428
0.11184539 0.12491667 0.08385365 0.05412163 0.07609345 0.015149012 -0.057467908 0.11630446
-0.089573786 0.1039308 -0.04557845 -0.0098614395 0.043071568 -0.07192862 -0.12294045 -0.08812839
0.02455081 -0.07864103 -0.11125702 -0.06964667 -0.057616577 0.08364092 -0.031172603 0.014945462
0.10597025 -0.010412693 0.039840236 -0.06331946 -0.074357 0.07836342 -0.007154301 -0.053541347
-0.06431779 0.0636237 0.10112882 0.06189744 0.082176834 0.11067462 -0.013125688 0.09697318
-0.08120218 0.11907232 -0.09767865 -0.06463118 -0.016812772 0.010845065 0.06441681 -0.06712335
-0.11167872 0.028887972 0.10679951 -0.041757464 0.010731339 -0.068762675 -0.059181362 -0.05525969
0.0737049 -0.06823325 0.11447306 -0.039376467 0.087668896 0.01670894 -0.034424573 0.09675668
-0.054243296 0.03210123 -0.09857161 0.09320237 0.008892521 0.117440686 -0.10232474 0.04880862
0.110981554 -0.066697806 -0.08461557 -0.06556913 -0.059028193 -0.10892005 0.089358926 -0.03228244
0.118303105 -0.07947862 -0.006200671 -0.0648603 -0.04535076 -0.0654843 0.09168705 0.09583102
0.055790618 -0.050769866 -0.04259406 -0.07504922 -0.009569302 -0.088796735 -0.083716914 -0.08337356
-0.102115825 -0.018882453 -0.11718623 -0.052024975 0.075536564 -0.04424116 -0.063406825 -0.028237343
00000000: 22d2 8b3d a63b 863d 6ccc 153d 42c3 d9bd
00000010: 7807 3dbd c8fc 163d 0092 79bb d8ba bfbd
00000020: 8c45 8dbd 4e10 b8bd 681e e53c 547f 3abd
00000030: 5081 943d 4646 9e3d a6cb e23d 0463 493d
00000040: 9437 2d3d 5038 6ebc ec67 aabd 4e5e 893d
00000050: 183a d73d 68fb 82bd b4f8 6c3d dc7c e9bd
00000060: dad3 cfbd 02e1 d2bd 58a2 543d 0897 ab3d
00000070: cc4d 52bd 5057 fc3c 503c 2ebd faa7 953d
00000080: a4e6 03bd ecc2 ba3d f235 df3d b02a 85bc
00000090: 6463 96bd 7eaf b13d a06d d6bc 00b8 873d
000000a0: de11 b73d 7032 4d3c e4ab 573d d6d4 a4bd
000000b0: 7a99 973d 30fa c03c c487 353d 38a7 c5bc
000000c0: 9ce1 3fbd a8fb d53d e471 8b3d 4a88 f7bd
000000d0: 383c 57bd 7e20 d4bd 50b9 46bc 8093 513c
000000e0: f6ed b93d d008 7f3c f083 e53c a00a b0bd
000000f0: 181b c2bd 0450 203d d0bc 4a3c acf8 fbbd
00000100: 4ad1 a9bd 5099 55bc 7034 76bd 841b 63bd
00000110: ac94 4a3d f095 ca3c e2c5 d93d 3065 88bc
00000120: 9a79 91bd c0e0 1bbc 0a5d f93d 0e78 abbd
00000130: 4248 e43d 6437 5bbd 5646 8abd b86a 6e3d
00000140: 229d dfbd 7220 dabd 4422 9e3d 5099 37bc
00000150: d879 fe3d 2c52 893d 001b 33bc 8ae3 893d
00000160: 7ce6 e43d 7ad7 81bd 98b4 b6bc 3a32 a73d
00000170: 6e8b e53d 967e f23d 2049 6ebc 9056 213d
00000180: bc80 e0bd 44ad fd3d 8a75 f8bd eccb ed3d
00000190: 3238 e1bd 4c76 3abd 2099 e53c aa46 b6bd
000001a0: 9010 433c 20a2 1f3c ac93 84bd 3ac3 e3bd
000001b0: aac5 f93d a049 4e3d 0ca2 953d 14ae f53d
000001c0: 5a4d 8dbd 5854 fa3d 165b b43d 9c85 2d3d
000001d0: 6814 46bd 3428 103d 12c5 a1bd 785a 7fbd
000001e0: 1ce6 ebbd 82ac f83d c0f0 de3b 9424 6c3d
000001f0: bce5 80bd b249 97bd b85e b7bd 9818 a6bc
00000200: 2c5e 52bd 0005 be3b f4c0 82bd 0016 11bd
00000210: 884a 52bd d6d9 853d e083 b6bd 500c 66bc
00000220: 6634 983d 9e9a e73d 30ee a7bd c4c8 b43d
00000230: 98a5 d9bd 5611 993d 18c2 2bbd ba32 d8bd
00000240: 50a2 973d ce53 99bd a6a0 d63d f091 7dbc
00000250: 30f9 7dbc 58cf 833c 6256 8d3d b248 d4bd
00000260: 320f e53d 50d4 ff3d 76bb ab3d a4ae 5d3d
00000270: e2d6 9b3d 9033 783c 7863 6bbd 0831 ee3d
00000280: 7672 b7bd acd9 d43d 78b0 3abd e091 21bc
00000290: d06b 303d 504f 93bd 34c8 fbbd a87c b4bd
000002a0: c81e c93c 8c0e a1bd b8da e3bd eaa2 8ebd
000002b0: 5cff 6bbd ee4b ab3d b05d ffbc d0dd 743c
000002c0: ee06 d93d 009a 2abc 842f 233d a2ad 81bd
000002d0: 7c48 98bd 007d a03d a06e eabb 2c4e 5bbd
000002e0: 0cb9 83bd 244d 823d a01c cf3d 2c88 7d3d
000002f0: 544c a83d 60a9 e23d 200d 57bc e099 c63d
00000300: 544d a6bd 30dc f33d be0b c8bd 5a5d 84bd
00000310: f0ba 89bc 80af 313c f6ec 833d f877 89bd
00000320: d0b7 e4bd 78a6 ec3c b4b9 da3d e009 2bbd
00000330: 80d2 2f3c 72d3 8cbd 2868 72bd fc57 62bd
00000340: 98f2 963d e0bd 8bbd da70 ea3d 3849 21bd
00000350: c08b b33d 30e1 883c c800 0dbd 5e28 c63d
00000360: 382e 5ebd 947c 033d eadf c9bd e2e0 be3d
00000370: f0b1 113c be84 f03d a28f d1bd 8ceb 473d
00000380: 4c4a e33d dc98 88bd ee4a adbd 1c49 86bd
00000390: 8cc7 71bd 7a11 dfbd d001 b73d 983a 04bd
000003a0: e648 f23d b0c5 a2bd 002f cbbb 7ad5 84bd
000003b0: b8c1 39bd a21c 86bd 6cc6 bb3d 0e43 c43d
000003c0: b484 643d 10f4 4fbd 1c77 2ebd 68b3 99bd
000003d0: 90c8 1cbc 10db b5bd c673 abbd c2bf aabd
000003e0: 1a22 d1bd 60af 9abc 56ff efbd 2418 55bd
000003f0: eab2 9a3d 3836 35bd 70db 81bd 0052 e7bc

weight f4 [32, 64]
-0.043949395 -0.06280042 -0.082022876 -0.04911217 0.05482699 -0.083386794 0.061959565 -0.016843915
0.10985774 0.110985905 -0.034476414 0.017551884 -0.05075176 -0.0672808 0.08688162 -0.047709495
-0.0138717 -0.07908139 0.10590474 0.04438202 -0.09757164 -0.111688316 0.06318118 -0.0020155013
-0.067248195 0.063606635 -0.101402864 -0.06307879 0.06732988 0.021360546 0.08055964 0.08893494
-0.055538237 0.0014487654 -0.088753566 0.11833443 0.12167242 0.013962254 0.045575917 -0.120540455
-0.054230124 -0.009578839 0.04852909 0.084665895 0.035978645 -0.010392189 0.104958296 0.10058081
0.09842363 -0.10415383 0.027188763 -0.031271875 0.05562289 0.008128256 0.029858723 0.018354565
0.036895126 -0.053248584 -0.062401906 0.05775954 -0.09393197 0.011661664 0.11413929 -0.03765641
0.07148972 0.09651017 -0.0411122 0.09932335 0.041880712 -0.056885242 -0.05110511 0.08283174
0.041782573 0.026512936 -0.08669606 -0.09650539 0.047361 0.090752795 -0.06350562 -0.002769813
0.0629082 -0.07632433 -0.09594846 0.018170863 0.105366364 0.05590269 0.0102030635 -0.10212006
0.01978591 0.10446145 0.08316673 0.032638744 0.014995024 0.091010734 0.03678012 0.10749264
-0.02649188 -0.07808988 -0.011012077 0.048802316 -0.108989015 0.123890206 0.08535735 -0.070950836
0.07400313 -0.029033482 0.003987476 0.011641055 -0.115030676 -0.081700906 0.061665446 0.018852085
0.05732487 0.042107522 -0.106627345 -0.09527685 0.017039359 -0.12451786 0.09722969 0.06292179
0.108324185 0.09280211 -0.07134311 -0.11828682 -0.008500457 0.108405784 -0.06379479 0.12161088
0.06909308 -0.043544367 -0.11089273 0.08831282 -0.07603194 0.066623956 -0.06362632 0.010779202
-0.025259256 -0.0033217072 -0.10838339 -0.1086096 -0.089636624 0.07073571 0.10096416 0.039047733
0.05369942 -0.074994326 0.10620618 -0.0017232895 0.08078897 0.026989043 0.004599735 0.086609244
-0.10879238 -0.005739808 -0.11420733 0.005853802 -0.012948453 -0.045118704 -0.047016308 0.11314197
-0.08008425 0.053550676 -0.10550411 -0.120065644 -0.054278046 -0.099152505 -0.0071070045 -0.08570388
0.10434273 -0.05742255 0.110851526 -0.036986366 -0.0701251 0.12361081 -0.07458587 -0.08835003
0.12345992 -0.08442092 0.086520806 0.120378256 0.034513354 0.09020896 0.115308255 0.06256336
0.108238414 -0.088578716 0.11220798 0.105746254 0.059515774 -0.10491952 -0.0030635297 -0.020666867
0.01607871 0.0282951 -0.037455946 0.114070535 0.06026919 -0.030036137 -0.07742041 0.06665486
-0.114262775 -0.01997237 0.00015293062 -0.08541085 0.046785712 -0.050750107 0.11101194 -0.07612729
-0.0777016 0.10468441 0.022473902 0.08544056 -0.08819772 0.069941625 0.0734469 -0.089457795
0.0016475469 -0.03628744 0.10521717 0.09921652 -0.02711156 0.044534087 0.034429297 0.09581263
-0.06462124 0.035058305 -0.08328143 0.0001513958 -0.045679033 0.02697502 0.044566363 0.016105384
-0.06794751 0.047487766 -0.102645636 -0.044501826 0.09370546 0.037270486 -0.07577874 -0.11965178
0.119167775 0.095916435 -0.0016439855 0.09323993 -0.034275055 0.017017499 -0.100879446 0.03880179
0.053306863 -0.00011822581 0.038362756 0.0519578 -0.039583907 -0.044388473 -0.06757073 -0.114578635
00000000: 4804 34bd 829d 80bd 9cfb a7bd d829 49bd
00000010: 4492 603d b2c6 aabd 50c9 7d3d 40fc 89bc
00000020: 18fd e03d 944c e33d 2437 0dbd f8c8 8f3c
00000030: 14e1 4fbd 84ca 89bd feee b13d 086b 43bd
00000040: 2046 63bc 6cf5 a1bd 96e4 d83d ecc9 353d
00000050: a4d3 c7bd d8bc e4bd 2265 813d 8016 04bb
00000060: 6cb9 89bd 3244 823d 4eac cfbd 742f 81bd
00000070: 40e4 893d 50fc ae3c 74fc a43d 8623 b63d
00000080: 107c 63bd 80e4 bd3a 6ec4 b5bd 5259 f23d
00000090: 642f f93d f0c1 643c d0ad 3a3d eadd f6bd
000000a0: 6820 5ebd 90f0 1cbc 70c6 463d 5065 ad3d
000000b0: 585e 133d 0044 2abc 60f4 d63d 50fd cd3d
000000c0: 5492 c93d 9a4e d5bd f8ba de3c f016 00bd
000000d0: d4d4 633d 602c 053c 489a f43c 505c 963c
000000e0: 581f 173d 301b 5abd 2499 7fbd 4495 6c3d
000000f0: 685f c0bd 9010 3f3c dcc1 e93d 9c3d 1abd
00000100: 3469 923d 20a7 c53d 4465 28bd 0a6a cb3d
00000110: 1c8b 2b3d 8000 69bd 9853 51bd b0a3 a93d
00000120: 3424 2b3d a831 d93c b48d b1bd 9ea4 c5bd
00000130: 9cfd 413d 9adc b93d 3c0f 82bd c085 35bb
00000140: 04d6 803d ee4f 9cbd a080 c4bd 10db 943c
00000150: 52ca d73d 38fa 643d c02a 273c 5224 d1bd
00000160: 1016 a23c e2ef d53d 5253 aa3d 34b0 053d
00000170: b0ad 753c d663 ba3d c0a6 163d 1a25 dc3d
00000180: 8005 d9bc 96ed 9fbd 006c 34bc f0e4 473d
00000190: a235 dfbd 26ba fd3d d6cf ae3d ac4e 91bd
000001a0: f48e 973d a0d7 edbc 60a9 823b 20ba 3e3c
000001b0: 3495 ebbd ce52 a7bd e894 7c3d b06f 9a3c
000001c0: 7ccd 6a3d f078 2c3d 705f dabd 8220 c3bd
000001d0: 2096 8b3c 3803 ffbd 5c20 c73d 24dd 803d
000001e0: 12d9 dd3d 080f be3d 561c 92bd 5c40 f2bd
000001f0: 8045 0bbc da03 de3d d8a6 82bd 200f f93d
00000200: ac80 8d3d 945b 32bd ba1b e3bd 5add b43d
00000210: a2b6 9bbd 2472 883d 844e 82bd 409b 303c
00000220: 80ec cebc 00b1 59bb 1cf8 ddbd b66e debd
00000230: 6893 b7bd e2dd 903d 4cc6 ce3d 84f0 1f3d
00000240: ecf3 5b3d a096 99bd a082 d93d 00e0 e1ba
00000250: b074 a53d 2018 dd3c 60b9 963b 3060 b13d
00000260: 8ace debd 0015 bcbb 88e5 e9bd 40d1 bf3b
00000270: c025 54bc 64ce 38bd 2c94 40bd fab6 e73d
00000280: 3603 a4bd f457 5b3d 8a12 d8bd fae4 f5bd
00000290: a852 5ebd 7810 cbbd e0e1 e8bb 8485 afbd
000002a0: a4b1 d53d e833 6bbd 2006 e33d 047f 17bd
000002b0: c09d 8fbd aa27 fd3d 7ac0 98bd dcf0 b4bd
000002c0: 8ed8 fc3d e0e4 acbd d231 b13d e088 f63d
000002d0: e05d 0d3d 7abf b83d bc26 ec3d 3821 803d
000002e0: 1aac dd3d c268 b5bd 4ccd e53d 7e91 d83d
000002f0: d0c6 733d 0ce0 d6bd 80c5 48bb 904d a9bc
00000300: 80b7 833c 20cb e73c 686b 19bd d09d e93d
00000310: d4dc 763d 580e f6bc 988e 9ebd 5882 883d
00000320: 9a02 eabd 189d a3bc 005c 2039 e2eb aebd
00000330: 60a2 3f3d 58df 4fbd 3a5a e33d a0e8 9bbd
00000340: 0422 9fbd c864 d63d 301b b83c 76fb ae3d
00000350: 02a1 b4bd 8e3d 8f3d 546b 963d a635 b7bd
00000360: 80f2 d73a 24a2 14bd 1a7c d73d 0832 cb3d
00000370: 1019 debc 6069 363d bc05 0d3d 6a39 c43d
00000380: 2458 84bd 4c99 0f3d 748f aabd 00c0 1e39
00000390: f019 3bbd b8fa dc3c 388b 363d 70ef 833c
000003a0: 1028 8bbd 8882 423d e037 d2bd 8c47 36bd
000003b0: a6e8 bf3d f0a8 183d e231 9bbd fe0b f5bd
000003c0: 3c0e f43d d66f c43d 007b d7ba 94f4 be3d
000003d0: 0064 0cbd 4868 8b3c e299 cebd a0ee 1e3d
000003e0: 4c58 5a3d 00f0 f7b8 4422 1d3d b4d1 543d
000003f0: bc22 22bd b0d0 35bd 8662 8abd 34a8 eabd

bias f4 [32]
-0.10734561 0.011872441 -0.08309606 -0.06945418 -0.027139246 0.041315377 -0.123088405 -0.012470037
-0.0501557 0.10922809 -0.111557126 0.048942655 0.06680103 0.08431244 -0.082088605 -0.004955694
0.038932994 0.07493597 -0.040170565 -0.03862928 0.06823987 0.036974907 0.048996747 0.092406526
0.04681368 -0.09805849 -0.068684354 0.10265659 -0.10456899 0.073084354 0.1231073 0.015322283
00000000: 04d8 dbbd a084 423c 442e aabd fe3d 8ebd
00000010: 2053 debc 503a 293d c615 fcbd 204f 4cbc
00000020: 1070 4dbd fab2 df3d 1078 e4bd 1878 483d
00000030: face 883d 00ac ac3d 121e a8bd 6063 a2bb
00000040: 3478 1f3d 0878 993d e489 24bd bc39 1ebd
00000050: 58c1 8b3d 0073 173d d0b0 483d a23f bd3d
00000060: b4bf 3f3d e4d2 c8bd 62aa 8cbd 9e3d d23d
00000070: 4428 d6bd 40ad 953d ae1f fc3d 500a 7b3c

weight f4 [6, 32]
0.17473416 -0.062934935 -0.07221041 0.1743377 -0.0032526553 -0.05392143 -0.11261357 0.16568245
0.03488645 0.15537898 -0.04904823 -0.016721934 -0.080601804 -0.082748845 -0.050548375 -0.17672382
-0.11929674 0.029696107 -0.060394645 -0.15396565 0.056306735 0.12683274 0.16488354 0.027503088
0.057730123 -0.14225924 0.07306734 -0.0045804977 0.009948656 -0.010053694 -0.07816573 -0.050605908
-0.07121083 0.060772866 0.09662725 0.15513985 -0.17656887 -0.05815047 -0.04714787 0.108420566
-0.015722647 0.11261962 0.022763073 0.034563214 0.05769819 0.06696439 0.005652353 -0.14057685
-0.03322664 -0.08556693 0.058949992 0.095670596 0.07030651 -0.037498593 -0.105899855 0.07413562
0.15400366 -0.15958354 0.06383209 -0.03413774 -0.019978106 0.0220097 -0.15008035 0.1410148
-0.16567567 -0.11723367 0.16933392 0.09566258 0.15664808 0.022022024 0.06915392 -0.10063297
0.11077507 -0.08212783 0.1303852 0.1004024 0.12260626 0.08059083 0.124749854 -0.028271794
-0.07172106 0.084095195 0.05747132 -0.0374016 0.056628168 -0.024046674 0.11705963 -0.03830771
-0.0715891 0.12040229 -0.08853494 0.16340666 -0.05345677 0.08964969 0.17073987 -0.0051312894
-0.11337013 0.07229249 0.011504844 0.024105698 -0.039456636 0.04249449 -0.018293902 0.074045315
0.1730266 0.07015216 0.08931489 0.16246818 0.06160474 0.10895763 0.12781833 0.024790794
-0.11900626 -0.00012369454 -0.08617675 -0.1365434 -0.12688273 0.103160426 -0.03657335 -0.13994153
-0.14449999 0.12397273 -0.14893907 0.021867618 0.0064092726 0.048078954 0.10202314 -0.0100746155
0.076195076 0.12143843 -0.025758028 0.031608835 0.108639136 -0.10801753 0.082828805 -0.10235975
0.042710096 -0.055058427 -0.16659355 -0.111929804 0.022656232 -0.028101027 0.06510344 -0.1305728
-0.1418202 0.123775676 -0.15216707 -0.0012741387 -0.081202246 0.06724709 -0.016400918 0.122744456
-0.15667409 -0.0004942566 0.006158367 0.1711183 0.1761771 -0.13496187 -0.16798438 -0.07834041
-0.101581216 -0.040064692 -0.15667827 0.14596386 0.06915176 -0.00057937205 0.16481175 -0.058951534
-0.12536405 0.13709028 -0.17500195 -0.0077611357 -0.1597591 0.13432117 0.083520845 0.1401986
0.113751486 0.14296742 -0.079056785 -0.056916177 -0.06780406 -0.028892472 -0.01850976 -0.106134005
0.0305195 0.16272043 0.1428694 -0.13336623 -0.12034868 -0.11240227 0.08102439 -0.12730971
00000000: 83ed 323e 08e4 80bd 0de3 93bd 9585 323e
00000010: 802a 55bb b8dc 5cbd f2a1 e6bd a9a8 293e
00000020: 18e5 0e3d ab1b 1f3e cce6 48bd 70fc 88bc
00000030: 8f12 a5bd 3a78 a9bd d00b 4fbd 17f7 34be
00000040: d951 f4bd 4045 f33c 6060 77bd 2ca9 1dbe
00000050: e4a1 663d 71e0 013e 3bd7 283e 284e e13c
00000060: 6c76 6c3d 68ac 11be 54a4 953d 0018 96bb
00000070: b0ff 223c 40b8 24bc 5b15 a0bd 2448 4fbd
00000080: fcd6 91bd f8ec 783d 82e4 c53d fbdc 1e3e
00000090: 78ce 34be 302f 6ebd 201e 41bd 9a0b de3d
000000a0: c8cc 80bc 1ea5 e63d a079 ba3c 2892 0d3d
000000b0: f054 6c3d a024 893d 6037 b93b 61f3 0fbe
000000c0: a818 08bd b73d afbd 8c75 713d f2ee c33d
000000d0: dcfc 8f3d 2098 19bd 06e2 d8bd 6ad4 973d
000000e0: 23b3 1d3e de69 23be 66ba 823d 04d4 0bbd
000000f0: 20a9 a3bc b04d b43c aaae 19be 2f66 103e
00000100: e2a6 29be 3518 f0bd df65 2d3e beea c33d
00000110: 5b68 203e 8867 b43c 92a0 8d3d a918 cebd
00000120: 0ade e23d a332 a8bd b383 053e c69f cd3d
00000130: fe18 fb3d ce0c a53d da7c ff3d 409a e7bc
00000140: 7ee2 92bd 1a3a ac3d 0c67 6b3d 6c32 19bd
00000150: f0f2 673d 88fd c4bc f6bc ef3d 8ce8 1cbd
00000160: 4e9d 92bd 7a95 f63d ce51 b5bd 1354 273e
00000170: 7cf5 5abd 429a b73d 6fd6 2e3e 6024 a8bb
00000180: 992e e8bd 160e 943d d07e 3c3c 5079 c53c
00000190: 489d 21bd b40e 2e3d 18dd 95bc 12a5 973d
000001a0: e32d 313e f0ab 8f3d baea b63d 0f5e 263e
000001b0: 4055 7c3d 2e25 df3d cfe2 023e 1016 cb3c
000001c0: 8eb9 f3bd 00b4 01b9 707d b0bd 08d2 0bbe
000001d0: 8ced 01be c645 d33d f0cd 15bd d54c 0fbe
000001e0: cef7 13be 6ae5 fd3d 7c83 18be b823 b33c
000001f0: e004 d23b 70ee 443d 82f1 d03d 0010 25bc
00000200: 2a0c 9c3d b6b4 f83d 8002 d3bc 4478 013d
00000210: 327e de3d 4b38 ddbd 26a2 a93d fda1 d1bd
00000220: c8f0 2e3d f284 61bd 8097 2abe 743b e5bd
00000230: 9099 b93c 2034 e6bc f454 853d e0b4 05be
00000240: 5139 11be 1a7e fd3d afd1 1bbe 0001 a7ba
00000250: 5d4d a6bd d8b8 893d 385b 86bc 7261 fb3d
00000260: 2c6f 20be 0091 01ba 20cc c93b a339 2f3e
00000270: c567 343e 7233 0abe 1904 2cbe f070 a0bd
00000280: d009 d0bd e01a 24bd 4570 20be 8d77 153e
00000290: 709f 8d3d 00e1 17ba 69c4 283e 2a77 71bd
000002a0: 6f5f 00be 6561 0c3e b633 33be 2051 febb
000002b0: e497 23be 7d8b 093e fa0c ab3d 3990 0f3e
000002c0: 8af6 e83d 0d66 123e 86e8 a1bd f020 69bd
000002d0: dbdc 8abd e8af ecbc c8a1 97bc c95c d9bd
000002e0: 0804 fa3c 2fa0 263e 5b4c 123e 2891 08be
000002f0: 5e79 f6bd 2933 e6bd 1ef0 a53d 7a5d 02be

bias f4 [6]
0.12759252 0.14141802 -0.059545994 0.004541412 -0.11695864 -0.10206243
00000000: 9da7 023e e3cf 103e 80e6 73bd 20d0 943b
00000010: 0388 efbd 1b06 d1bd

weight f4 [2, 32]
0.03930533 0.13490282 0.12580775 -0.15195115 0.034992784 -0.0042048395 -0.03691426 0.14420427
0.14059372 0.06611824 -0.12421787 0.14615466 -0.15222445 0.13450582 -0.15984747 0.07974805
0.13996647 0.01981853 -0.09054064 0.119486615 0.025665402 0.012531355 0.09406002 -0.10672541
-0.15163343 -0.16529013 -0.079821534 0.15507428 -0.06847776 -0.039711013 -0.09005481 -0.037007794
-0.078257024 -0.025682181 -0.02927272 0.10624741 0.03201279 0.13998558 0.15542991 -0.13003713
0.0058140308 -0.04304032 -0.17233965 -0.1555091 -0.09739814 0.11994068 0.051811114 -0.017394364
0.0920587 0.040542528 0.14368357 0.03222826 -0.16045058 0.13210772 -0.0035113841 0.1759751
-0.11582864 -0.07279452 0.06905316 0.13787524 0.11461826 -0.0012122095 0.059595615 -0.17229654
00000000: a0fe 203d f723 0a3e bfd3 003e 1599 1bbe
00000010: 9854 0f3d c0c8 89bb 6833 17bd 49aa 133e
00000020: cdf7 0f3e 0069 873d f065 febd 91a9 153e
00000030: bae0 1bbe e5bb 093e 0eaf 23be f252 a33d
00000040: 5f53 0f3e 785a a23c 5f6d b9bd 66b5 f43d
00000050: 4040 d23c 5050 4d3c 8aa2 c03d da92 dabd
00000060: cb45 1bbe d141 29be 7979 a3bd cbcb 1e3e
00000070: 113e 8cbd 04a8 22bd a86e b8bd 7c95 17bd
00000080: 3845 a0bd 7063 d2bc 58cd efbc 3e98 d93d
00000090: d81f 033d 6158 0f3e 0529 1f3e 7428 05be
000000a0: a083 be3b 0c4b 30bd ce79 30be c73d 1fbe
000000b0: ad78 c7bd 76a3 f53d e437 543d a07e 8ebc
000000c0: 4689 bc3d ec0f 263d c921 133e c801 043d
000000d0: 284d 24be 3f47 073e 401f 66bb d132 343e
000000e0: 9137 edbd 4b15 95bd be6b 8d3d 2b2f 0d3e
000000f0: fabc ea3d 00e3 9eba 881a 743d 816e 30be

bias f4 [2]
-0.10193025 0.10651575
00000000: cfc0 d0bd ee24 da3d

weight f4 [1, 32]
0.021146819 -0.08195201 0.06926526 -0.06565657 0.0057861954 -0.07521834 0.14012678 -0.05740694
0.1181521 -0.081402674 0.16374265 -0.1322647 -0.054205522 -0.054582827 0.09197186 0.0077006966
0.036773205 0.105818585 -0.0307692 -0.12464878 0.032811 0.12795295 0.07830699 -0.026585624
0.031024277 0.0784259 0.05982943 -0.10498445 0.07904129 0.07138087 -0.08735716 -0.10888444
00000000: 183c ad3c 75d6 a7bd f2da 8d3d f476 86bd
00000010: 209a bd3b 130c 9abd 657d 0f3e 8a23 6bbd
00000020: baf9 f13d 72b6 a6bd 27ac 273e 6670 07be
00000030: 9c06 5ebd 3e92 5fbd be5b bc3d 2056 fc3b
00000040: 809f 163d 6ab7 d83d b00f fcbc dc47 ffbd
00000050: d464 063d 1906 033e 6a5f a03d 18ca d9bc
00000060: a026 fe3c c29d a03d b40f 753d 1602 d7bd
00000070: 66e0 a13d 2230 923d 50e8 b2bd cefe debd
