simplified game v3/MARLv1/defender_agent_final_3.pth (torch, 124610 bytes, 11 tensors)

weight_ih_l0 f4 [256, 25]
000000 70 a8 54 3d 80 bf 98 bc 80 fc 5d 3b da f7 87 3d
       0.051918447 -0.018646002 0.0033872426 0.06639071
000010 72 05 fb 3d 48 38 f5 3c 20 6f d8 bd 24 8c e1 3d
       0.12256898 0.029934064 -0.105680704 0.11013058
000020 9a 04 ed 3d 50 72 92 3c e2 af db bd 48 2e 4d 3d
       0.11573143 0.017876774 -0.10726906 0.050092965
000030 88 94 d8 3d fa 2e ae 3d 42 53 bd bd 08 fd 4d bd
       0.10575205 0.08505054 -0.09244396 -0.050290138
000040 90 32 14 3c 28 9f ea bc 44 e9 1b bd dc 96 a0 bd
       0.009045258 -0.028640345 -0.038064256 -0.07841274
000050 70 61 02 3c b0 a0 95 3d 3c 57 26 bd 08 37 b6 3d
       0.007957801 0.07306039 -0.040610537 0.08897215
000060 4c 0f bf bd c4 80 1a 3d 70 eb a3 bd 60 3e 37 3d
       -0.093290895 0.037720457 -0.080038905 0.04473722
000070 82 6e ca bd 98 57 c4 bd 04 32 8a 3d ac e9 ff bd
       -0.09884359 -0.0958702 0.06747821 -0.12495741
000080 40 f2 9f bd 1c 62 47 3d 1e 47 f6 3d ce 28 ee bd
       -0.078098774 0.04867755 0.12025283 -0.116288766
000090 cc 6b 0d 3d 30 23 e7 3c c6 3d b9 3d 74 e9 f3 bd
       0.03452663 0.02821502 0.090449855 -0.11909762
0000a0 36 97 88 bd 72 e4 c7 3d 00 46 a1 bb 80 a7 c2 ba
       -0.06669466 0.09760369 -0.0049216747 -0.0014850944
0000b0 ee 42 9c 3d 00 4c 46 3a 00 e8 de bb 48 8d ac 3c
       0.07629953 0.00075644255 -0.006802559 0.021063462
0000c0 b8 3c bf 3d d8 9c 82 bd dc 34 ac bd 60 c5 ad bd
       0.09337753 -0.06377572 -0.084085196 -0.08484912
0000d0 c0 d8 d7 bd c8 df 90 3d 08 0d b8 3d 80 5b 4e bc
       -0.10539389 0.07073933 0.089868605 -0.0125950575
0000e0 24 82 6e 3d d0 40 41 3c a6 a9 d2 bd 08 9f 1a bd
       0.05822958 0.011795238 -0.10286264 -0.03774932
0000f0 4c 2c f3 3d b0 54 c5 3c 5a e3 86 3d 32 59 86 bd
       0.11873683 0.024088234 0.065863326 -0.065599814
000100 b8 a7 c7 bd 3a 45 d4 bd 24 39 11 bd dc 82 47 bd
       -0.09748787 -0.103647664 -0.035454884 -0.04870878
000110 04 10 f6 3d 50 7b 95 3d b0 d5 74 bc 34 11 29 3d
       0.120147735 0.072989106 -0.014943525 0.04127617
000120 4c 21 a9 3d 30 98 7d 3c a0 df 4f bd cc 3e ea 3d
       0.08258304 0.015478179 -0.050750375 0.11437759
000130 4a 5b ee 3d 30 b0 74 bc e0 b2 70 3d 88 25 5b bd
       0.11638506 -0.0149345845 0.05876434 -0.05350259
000140 40 5a 50 bc 7c 34 b6 bd 80 3e 2f 3c da 7c c8 3d
       -0.01271683 -0.08896729 0.0106960535 0.097894385
000150 d0 30 59 3c 00 a2 ef bc 58 12 cf bd fc ab 3d 3d
       0.013256267 -0.029252052 -0.10110921 0.046306595
000160 30 9f f3 bd e0 5c a4 3c ba d9 de bd 46 40 d9 bd
       -0.11895597 0.020063818 -0.10881372 -0.10607962
000170 d4 9c d6 3d 38 a8 4f 3d 56 c0 f4 3d 5c af d5 bd
       0.10479131 0.050697535 0.11950748 -0.10433838
000180 30 3c 9f bc 16 4a ec bd 64 7d 59 3d de 00 a9 3d
       -0.01943788 -0.11537568 0.053098097 0.082521185
000190 58 bc bc bc dc e2 d3 3d e0 05 fc 3d f0 f2 c3 3d
       -0.023039028 0.10346004 0.12305808 0.09567821
0001a0 9c b6 84 3d a4 a9 22 3d 14 2d c6 3d 50 47 8c bd
       0.064801425 0.039712563 0.09676567 -0.06849539
0001b0 ec c5 1b 3d 2c 7b ea 3d 34 84 e0 bd 00 7c 8f b9
       0.03803055 0.114492744 -0.10962716 -0.00027367473
0001c0 00 d0 ea bd 38 7f 99 bd 00 de 44 3d 9a 74 9e 3d
       -0.11465454 -0.07494968 0.04806328 0.07737084
0001d0 26 ef c1 3d 4c fe b3 3d ce ba bb 3d 00 1e da 3c
       0.09469442 0.08788738 0.091664895 0.026625633
0001e0 20 74 c5 bb ba c2 cb bd 90 58 dd bd 70 30 ad bc
       -0.006025806 -0.099492505 -0.108079076 -0.02114126
0001f0 de 01 a7 bd d2 82 95 3d 80 b9 ba 3b 10 bc 90 3c
       -0.08154653 0.073003426 0.005698383 0.0176678
000200 20 39 cb bb ec 4c 82 bd 22 96 b4 bd 70 7e c1 bd
       -0.006201878 -0.06362328 -0.08817698 -0.09447944
000210 7c c4 63 3d 64 5d e3 bd 10 de dc bc 68 3f d6 3c
       0.055607304 -0.11101797 -0.026961356 0.026153281
000220 fc 6c f0 3d 60 67 66 3d 3e 83 a5 bd 66 4a df bd
       0.11739537 0.05625093 -0.08081673 -0.10902862
000230 1a bb 84 bd f8 a3 97 bc c0 fa 9c bd 68 c8 a1 bc
       -0.06480999 -0.018510804 -0.07665014 -0.019748881
000240 60 9b f0 bb 8e f6 d5 3d e0 c0 54 bc 94 f6 be 3d
       -0.007342741 0.10447417 -0.012985438 0.09324375
000250 26 61 90 3d 2a 75 fe 3d 50 a1 10 bd 88 5e 6f 3d
       0.070497796 0.12424691 -0.03531009 0.05843976
000260 30 a0 25 bc 60 ea a1 3c 30 9a b6 bc d4 0d 7c bd
       -0.010108992 0.019765079 -0.02229032 -0.061536625
000270 72 1f a7 bd c0 2a 9b bc 44 03 fb bd 46 af 80 bd
       -0.081602946 -0.018941283 -0.12256482 -0.06283431
000280 be 9d 95 bd 88 10 fc bd c0 f9 d7 bd aa 83 c5 bd
       -0.073054776 -0.123078406 -0.10545683 -0.096442536
000290 6a 15 eb bd 64 8a 68 bd 80 a2 a0 3c 74 95 45 bd
       -0.11478694 -0.056772605 0.019608736 -0.048238233
0002a0 50 3b ec bd c4 f8 f1 3d c4 3b 5b bd 38 f7 f9 bc
       -0.115347505 0.118150264 -0.053523794 -0.03051339
0002b0 20 fd b8 3c 94 ad 2d 3d 64 1b b8 3d 28 01 9a bd
       0.022581637 0.042401865 0.08989599 -0.07519752
0002c0 86 a6 ac 3d 00 f1 e3 bd e2 e6 9a bd 00 75 a7 bd
       0.08430199 -0.111299515 -0.07563569 -0.08176613
0002d0 00 d2 0b 3b f0 49 e7 bc c0 35 63 bb 44 96 ff bd
       0.0021334887 -0.028233498 -0.0034669489 -0.12479833
0002e0 00 fe ea 3a 94 3a a7 3d d0 c3 a9 3c a0 b0 81 3c
       0.0017928481 0.0816547 0.020723253 0.015831292
0002f0 a2 04 fa bd ec 05 75 3d 80 6a 40 bc 60 4d 8a 3d
       -0.12207915 0.0598201 -0.011744142 0.06753039
000300 f0 3b 56 3c 9e e0 a1 bd f2 e2 84 bd e4 de 17 bd
       0.013075814 -0.079041705 -0.06488599 -0.0370778
000310 ca bd bf bd 94 c5 db bd ec 6d 4f 3d 80 37 3b 3b
       -0.09362371 -0.107310444 0.05064194 0.0028567016
000320 10 9f 04 3c 70 aa 94 3d c0 6d a9 3c 98 9f 26 3d
       0.008094564 0.07259071 0.020682216 0.040679544
000330 fc 70 dd 3d 6c bb 9a bd ec be 15 3d 80 a4 e8 3a
       0.10812566 -0.07555279 0.03655903 0.001774922
000340 b0 2d c6 3c 20 f8 37 3d 28 a1 32 bd 46 7a a8 3d
       0.024191707 0.044914365 -0.04361072 0.08226447
000350 70 15 bb 3c 80 de fa 3a 00 bf 39 ba 6c a0 5f bd
       0.02283737 0.0019139796 -0.0007085651 -0.05459635
000360 ea ae a8 bd 02 2a d3 bd 08 10 a8 3d 60 d4 e7 bd
       -0.08236487 -0.10310747 0.08206183 -0.11319804
000370 f6 80 c4 3d c4 61 02 bd e0 32 70 3d f6 e0 ec bd
       0.0959491 -0.031831518 0.05864227 -0.115663454
000380 98 7c a5 3d d0 6c 53 3d e0 38 46 bd e4 14 ea bd
       0.08080405 0.051617444 -0.048394084 -0.11429766
000390 38 f6 88 bd 24 e1 39 bd 68 1d 82 3d 5e 0c c3 3d
       -0.066875875 -0.045380726 0.06353265 0.09523843
0003a0 40 f1 dd 3d 02 3e 89 3d 22 3f ad bd f8 46 08 bd
       0.108370304 0.0670128 -0.08459307 -0.033270806
0003b0 54 6b 68 3d 9a 04 de 3d d0 eb 9e 3d 60 56 2c 3d
       0.05674298 0.108407214 0.077598214 0.04207456
0003c0 64 0d 6c 3d 20 8e d9 bc 3c b8 df 3d a0 d5 60 bc
       0.057629958 -0.026557028 0.10923812 -0.013722807
0003d0 8e 05 cc bd d0 ac ce 3c be a6 82 3d 88 d0 4b bd
       -0.09961997 0.025228888 0.0637946 -0.049759418
0003e0 f4 2e ef 3d f0 7c 70 bd ce b7 af bd e6 85 cf bd
       0.116788775 -0.0587129 -0.0857998 -0.10132961
0003f0 0e 23 89 3d e8 75 40 3d c0 50 fe 3d 30 c0 cc 3c
       0.06696139 0.046987444 0.124177456 0.024993986

weight_hh_l0 f4 [256, 64]
000000 7c a0 1c bd 9a e7 e1 3d 8c a4 a2 bd e0 eb a4 bc
       -0.038238987 0.110305026 -0.07941541 -0.020132005
000010 fe ce b6 bd c0 bb ad bd 00 5a 94 ba b8 c3 d7 bc
       -0.089261994 -0.08483076 -0.0011318326 -0.026338443
000020 54 81 bb 3d e6 b3 fc 3d f4 01 ec 3d 60 5c b1 3d
       0.09155527 0.123390004 0.1152381 0.08660197
000030 c0 bf db 3d 60 07 c5 3d c0 43 e7 bb 20 85 4b bc
       0.10729933 0.09620547 -0.007057637 -0.012421876
000040 58 fa 82 3d 20 65 04 bd 0e 1a e7 3d 10 1c 11 bd
       0.063954055 -0.032323003 0.112842664 -0.035427153
000050 b0 88 ab 3c e0 e1 9e bc 26 6d 83 bd da 20 cd 3d
       0.020939201 -0.019394815 -0.06417303 0.100160316
000060 f0 55 8e bc 8e 77 d5 bd 4c b5 fa 3d 90 14 e5 bc
       -0.017374963 -0.10423194 0.12241611 -0.027963907
000070 50 8b f6 3c e0 0a ff bc 20 dd cb 3d dc 7f 48 bd
       0.030095726 -0.031133115 0.099542856 -0.04895006
000080 12 ed e7 bd 92 2a c2 3d 90 ab db 3d 30 8c fd 3c
       -0.113245144 0.09480776 0.10726082 0.030950636
000090 70 5c 66 bd 58 13 21 3d 10 24 1f 3c 30 c0 23 3d
       -0.0562405 0.03932509 0.009713188 0.039978206
0000a0 80 6b 74 bb 5e 87 c9 bd 70 70 fa bd 18 c2 c9 bc
       -0.003729552 -0.09840272 -0.12228477 -0.024628684
0000b0 be 08 d2 3d 88 e7 18 3d 9e 12 ab bd 10 33 07 bc
       0.10255574 0.03733018 -0.0835316 -0.00825192
0000c0 24 f6 54 bd 0c b7 e2 bd 60 b1 fc bb dc 0c 3a 3d
       -0.05199255 -0.1107007 -0.0077115744 0.04542242
0000d0 86 6d f0 bd 38 b1 b5 3c 4c 5c 97 bd 46 b6 91 bd
       -0.1173964 0.022179231 -0.07390651 -0.07114844
0000e0 a0 00 86 3b 62 44 e9 bd 62 c8 80 3d e0 ab f2 bb
       0.00408943 -0.11389996 0.0628822 -0.007405743
0000f0 2c c2 2b 3d ac 13 1f bd 00 c4 16 ba fe 2b a6 3d
       0.041933224 -0.03883712 -0.0005751252 0.081138596
000100 ce 92 be 3d ec 0a 33 bd 44 e8 9a 3d 64 ac 6a bd
       0.093053445 -0.043711588 0.075638324 -0.05729331
000110 8a cd e7 bd b0 57 0a 3d 52 58 ac 3d b0 36 d2 3d
       -0.113185 0.03377503 0.08415283 0.10264337
000120 80 eb a1 3a 00 1e 36 3c 40 ca 6d bb 24 60 80 bd
       0.001235351 0.011115551 -0.003628388 -0.06268337
000130 98 a7 6f bd 1a 0f 90 3d 74 e4 63 bd f0 b5 41 bd
       -0.05850944 0.070341304 -0.05563779 -0.04729265
000140 54 78 c1 bd 18 c5 cb 3d ec 4d d3 3d 12 e9 cd 3d
       -0.09446779 0.09949702 0.10317597 0.1005422
000150 d0 08 51 3d 2c 1b d9 3d 8a 13 a6 3d 34 e5 95 bd
       0.051033795 0.10600886 0.081091955 -0.07319108
000160 b8 d7 6a 3d ac 11 8c 3d 82 60 d0 3d 40 a5 ae 3d
       0.05733463 0.06839308 0.101746574 0.08527613
000170 f4 db ad 3d f4 c7 80 3d 5c bf c8 3d a8 bf be bc
       0.08489218 0.06288138 0.09802124 -0.023284748
000180 ce dd e9 bd 08 ff 4e 3d 64 e0 3f bd 74 10 11 bd
       -0.11419259 0.050536186 -0.046844855 -0.03541608
000190 1a 6f e3 bd e8 ff 7c bd a6 34 94 bd c8 1b b1 3d
       -0.11105175 -0.06176749 -0.072366044 0.08647877
0001a0 10 f5 b7 bd 90 7f a7 3d 94 2d 9b 3d 40 b8 6b 3d
       -0.08982289 0.081786275 0.07577053 0.05754876
0001b0 30 d0 7a bd 7e 50 95 3d 98 59 07 3d 80 f7 8c bc
       -0.0612337 0.07290743 0.033044428 -0.017207861
0001c0 20 1c dc 3d 94 09 7f bd 7a ae 99 3d 36 25 c6 bd
       0.10747552 -0.062264994 0.07503982 -0.09675066
0001d0 38 d7 bd bc a8 0b bd bc 5c 74 4c 3d 68 cf a5 3d
       -0.023173913 -0.023076847 0.049915656 0.080962
0001e0 40 6d ff bb ac ee 35 bd 4a fc f5 bd c0 f6 86 3d
       -0.007795006 -0.04441707 -0.12011011 0.065900326
0001f0 72 ff c5 bd a0 67 18 bd 38 72 c5 3c aa 86 bd bd
       -0.09667863 -0.0372082 0.024102315 -0.09254201
000200 20 47 b3 3d 88 8f ff bc c6 ae c5 3d e8 6f cd 3d
       0.087538004 -0.03119637 0.09652476 0.1003111
000210 b6 7a f0 bd 6a 46 f5 3d f0 5c cd bc 0c a9 54 bd
       -0.11742155 0.11976321 -0.02506873 -0.05191903
000220 0e 97 84 bd 92 8b ca 3d 10 f0 70 bd 48 9c ce bd
       -0.06474124 0.09889902 -0.05882269 -0.10088402
000230 28 1b 78 3d a0 66 a9 3c ec a6 00 3d e0 e6 d5 3d
       0.060572773 0.020678818 0.03140919 0.104444265
000240 4a 51 8a bd e0 07 f4 bb 20 bb 0a 3d 70 71 15 bd
       -0.06753786 -0.007447228 0.033869863 -0.036485136
000250 48 68 34 3d 40 c5 93 bc 32 03 86 3d f0 76 dc 3c
       0.044044763 -0.018038392 0.06543578 0.026912183
000260 80 6f 5d 3b 00 aa ca 3d ac a4 d6 3d 4c 1e a8 3d
       0.0033788383 0.09895706 0.104806274 0.08208904
000270 20 e8 96 3d 82 cc aa 3d 08 55 89 bc 18 43 3d 3d
       0.07368493 0.08339788 -0.016764179 0.046206564
000280 80 a2 ca bb 4e 20 ac bd 10 73 73 3c b0 b0 ca bc
       -0.0061839223 -0.08404599 0.014858976 -0.024742454
000290 18 1b b7 3c 00 49 bf 3d 52 5a c8 bd 88 83 fa 3d
       0.022351786 0.093400955 -0.09782852 0.12232119
0002a0 7a 76 c0 3d 80 d5 ed bc 44 06 a3 bd ac 4b 79 bd
       0.093975976 -0.029032469 -0.079601794 -0.060863182
0002b0 54 2d f8 3d b4 d5 2b 3d 10 ce 0f 3d e8 05 9e bc
       0.12118021 0.04195185 0.035108626 -0.019289926
0002c0 d0 a4 e2 3d 30 b0 bb 3c 5e a0 9b 3d 14 31 31 bd
       0.11066592 0.022911161 0.07598947 -0.043259695
0002d0 a8 14 86 bc 18 62 ae 3c a8 2d 27 bd b0 87 d3 3c
       -0.016367272 0.02128701 -0.040815026 0.025821537
0002e0 e0 c5 74 3c 0a e4 b2 3d 32 b8 c9 bd 50 ab d8 3c
       0.014939755 0.08734901 -0.098495856 0.026448876
0002f0 60 38 e2 3b 3c d0 a3 bd 98 0f cb bd 92 7c cf bd
       0.006903693 -0.07998702 -0.09915084 -0.10131182
000300 16 55 dc bd a4 ab 48 bd 18 3a bb 3d cc 4e 07 bd
       -0.10758416 -0.048991814 0.0914194 -0.03303413
000310 4c e4 6f 3d c0 c4 33 3b f4 ff c2 bd 3c 76 8d 3d
       0.05856733 0.0027430505 -0.095214754 0.06907317
000320 b0 56 e3 3c 70 41 76 bc 88 6b 1e 3d e0 2a 8c 3b
       0.027751297 -0.01503025 0.03867677 0.004277572
000330 38 22 b4 3d aa c0 9e 3d 86 a6 9d bd fc 1c b0 3d
       0.08795589 0.077515915 -0.076977775 0.08599278
000340 e6 02 b8 bd 1c b0 a3 bd 50 98 fc bc 82 d8 eb 3d
       -0.08984928 -0.079925746 -0.030834347 0.11515905
000350 74 9e b3 3d a4 0a 7c bd e8 b1 a5 bd 02 07 f9 3d
       0.08770457 -0.061533585 -0.080905735 0.1215954
000360 ec 18 8e bd ac 58 9c 3d ce 1d ce 3d a8 ca ed 3d
       -0.06938347 0.076341 0.100642785 0.11610919
000370 c0 5e b7 3c c4 f8 6b 3d 50 93 82 bd 58 b2 e7 bc
       0.022384048 0.05761029 -0.06375754 -0.028283283
000380 30 33 2a bd 6c ec 9e bd 98 99 d3 bc 68 84 e8 bd
       -0.041552722 -0.07759938 -0.025830075 -0.113533795
000390 f6 e3 d2 bd d8 4a aa bd 10 f6 23 bd d4 19 09 3d
       -0.10297386 -0.083150566 -0.040029585 0.033471897
0003a0 0a 9c fd 3d fe 40 9d 3d e0 85 39 bc f0 03 db bd
       0.12383278 0.07678412 -0.011323422 -0.106941104
0003b0 3c f7 8a 3d e0 9d e4 bc 50 05 a3 3d c0 a3 4c bd
       0.067854375 -0.027907312 0.07959998 -0.04996085
0003c0 fc 2f 11 bd 5e 68 80 bd b0 0f 00 3d 02 6a b6 bd
       -0.035446152 -0.062699065 0.03126496 -0.08906938
0003d0 40 a4 c6 bb 18 a9 a7 3c 06 57 f4 3d 70 cc f3 bc
       -0.0060620606 0.020466372 0.11930661 -0.02976057
0003e0 28 3f 4f 3d 60 87 0a 3d 20 22 5d bc c4 85 91 bd
       0.05059734 0.03382051 -0.013496906 -0.07105592
0003f0 20 95 a7 bc de 33 9e bd 08 e4 76 bd 7a 16 9b bd
       -0.02045685 -0.07724737 -0.06027606 -0.075726464

bias_ih_l0 f4 [256]
000000 76 1a 82 bd c4 83 03 3d e4 19 c3 bd 1c f6 7b 3d
       -0.06352703 0.032108083 -0.095264226 0.061514005
000010 fc 0b 40 3d a6 f1 8c bd 2e f2 b2 3d b8 0c d4 3d
       0.04688643 -0.06882028 0.08737598 0.103539884
000020 0c ee 48 bd fc f8 91 bd 7c 6a 23 bd 98 06 44 bd
       -0.049055144 -0.07127568 -0.039896473 -0.04785785
000030 00 58 e5 bb 2a 25 da bd dc 5d 76 3d 28 55 cc bc
       -0.006999016 -0.1065162 0.060148105 -0.02494295
000040 40 6b d3 bb 20 95 55 3d 58 5a ee 3c 50 04 dc bd
       -0.006451994 0.05214417 0.029095814 -0.1074301
000050 20 c1 ef 3b 94 fc 33 bd b0 82 fb 3c 30 62 46 3d
       0.0073167235 -0.04394205 0.030701965 0.048433483
000060 c0 88 d0 3d 3e 6c ea 3d 50 d0 93 bc 24 c1 f1 3d
       0.10182333 0.11446427 -0.018043667 0.11804417
000070 d0 03 34 3d d0 c0 ed 3d 34 90 38 3d 98 b8 8c bc
       0.04394895 0.11609042 0.045059398 -0.017177865
000080 36 66 f7 3d b0 84 4e 3d 90 1d 73 bd 1c 60 0c 3d
       0.12080042 0.05041951 -0.059354365 0.034271345
000090 a0 e7 90 3d 58 9f 07 3d b2 ab 82 3d 9c 31 3d 3d
       0.07075429 0.033110946 0.063804045 0.04618989
0000a0 6c 9d f1 bd 34 88 6c 3d 14 a7 0e 3d 84 42 51 3d
       -0.11797604 0.05774708 0.034827307 0.051088825
0000b0 28 db 72 bd 20 bb 8c 3d be 3d ed 3d 20 d0 d4 bd
       -0.059291035 0.06871629 0.11584042 -0.10391259
0000c0 c0 4b f7 bc c0 e2 a1 3d fa cb 90 bd 2c 8a 3f 3d
       -0.030187488 0.07904577 -0.070701554 0.04676263
0000d0 60 a1 9a 3d 1e 7b d8 3d 40 50 ff 3b 54 c2 a5 bd
       0.07550311 0.10570358 0.007791549 -0.08093706
0000e0 d6 de d3 bd f6 9f c3 3d 6e a6 b2 3d 44 a6 06 bd
       -0.10345237 0.095519945 0.0872315 -0.032873407
0000f0 20 f5 ce bc 64 d3 d5 bd cc 0a 8c bd 00 50 d9 3c
       -0.02526337 -0.1044071 -0.06837997 0.026527405
000100 82 82 ba 3d 38 60 d6 3d 0a 42 8a 3d f8 1d d8 3c
       0.09106924 0.10467571 0.06750877 0.026381478
000110 c0 91 6b 3d 10 55 cc 3c 04 c3 83 bd c0 01 2a 3b
       0.057512045 0.024942905 -0.06433681 0.0025940984
000120 ec cb 23 3d 84 46 14 bd c0 00 78 bb a4 59 e4 3d
       0.039989397 -0.03620006 -0.0037842244 0.1114991
000130 7c 65 27 3d 80 56 84 bd b2 80 bf bd 5e 54 e2 3d
       0.040868267 -0.06461811 -0.093507186 0.11051248
000140 64 72 42 bd 46 0c 90 3d 88 ef b9 3c 20 ca ea 3d
       -0.047472373 0.07033591 0.022697225 0.114643335
000150 6c 0d 3f bd 5c 59 c5 3d 24 4e 20 3d 52 ea c4 bd
       -0.04664366 0.096361846 0.03913702 -0.096150056
000160 02 5b a7 bd 50 14 fa 3c 30 a9 a6 3d 44 0d 3b bd
       -0.08171655 0.030527264 0.08137739 -0.045666948
000170 80 f0 ac 3c 80 26 1e 3b 20 6e f9 3d 40 a7 87 bb
       0.021110773 0.0024131835 0.12179208 -0.004139811
000180 64 f6 03 bd 00 ad 55 3d 00 eb 2e 3b ac 13 6b bd
       -0.0322174 0.05216694 0.0026690364 -0.057391807
000190 58 9b 07 bd 00 4a 6b 3a ae 84 f8 bd 5c 72 0e 3d
       -0.03310713 0.00089755654 -0.12134682 0.03477703
0001a0 a0 47 88 bb 22 a9 b8 bd 00 80 b1 37 20 1a 66 bd
       -0.004158929 -0.090166345 2.1159649e-05 -0.05617726
0001b0 e8 67 68 bd 40 46 f6 bb fa 22 bd bd 30 38 2c bd
       -0.056739718 -0.0075156987 -0.09235187 -0.042045772
0001c0 10 c1 68 bc cc 0a 2f 3d 40 ef 2a bb a8 65 87 3d
       -0.014206186 0.042734906 -0.0026082546 0.06611186
0001d0 cc b4 fb 3d 50 5b 83 bd f0 d4 e3 3c c0 60 bb bc
       0.12290344 -0.06413901 0.027811497 -0.022873282
0001e0 30 d3 eb bc 70 66 dc 3c 54 18 4d 3d 44 35 09 3d
       -0.028787225 0.026904315 0.05007203 0.033498064
0001f0 90 09 59 3c 6c d3 d5 3d 00 14 bd 3b 72 d5 a9 bd
       0.013246909 0.10440716 0.0057702065 -0.082926646
000200 d2 b8 93 3d d0 98 f0 bc b0 7d 36 3d fa ab fa bd
       0.07212986 -0.029369742 0.04455346 -0.12239833
000210 ec 56 91 bd a2 62 fb bd 38 0c 29 bd da 0e b6 3d
       -0.07096657 -0.12274672 -0.04127142 0.088895515
000220 f2 d9 90 bd 0c 66 34 bd e0 67 5c bc 54 79 8c 3d
       -0.0707282 -0.044042632 -0.0134525 0.06859079
000230 9e d0 e7 bd 10 a3 13 3c d8 3e 67 bd f8 05 cf 3c
       -0.113190874 0.009011045 -0.056456417 0.0252714
000240 24 c3 54 bd 24 1f bc 3d a0 55 d4 3b 70 bc 7b bd
       -0.051943913 0.09185627 0.006479934 -0.061459005
000250 00 e2 a8 3a 40 d8 fc bd 0c 63 be 3d 8c 80 10 3d
       0.0012884736 -0.12345934 0.092962354 0.03527884
000260 16 33 f6 3d a8 48 a7 bc 50 eb 88 3c 9a 90 e6 bd
       0.120214626 -0.020420387 0.016713768 -0.11258049
000270 e0 23 c3 3b c8 73 c0 bc 90 c1 81 3c b0 51 ae 3c
       0.0059552044 -0.023492709 0.015839368 0.021279186
000280 96 19 86 3d 08 fd 8b bd 60 c3 d6 3c 80 a0 a2 3b
       0.06547849 -0.06835371 0.026216209 0.0049629807
000290 04 a9 64 3d 54 6e 6d bd 30 7b 3d 3c c0 7f ff bd
       0.05582525 -0.057966545 0.011565015 -0.12475538
0002a0 6e 2f 8d 3d c0 6e fa bc bc fb 88 3d 20 d6 e8 bd
       0.06893812 -0.030570388 0.066886395 -0.11368966
0002b0 70 63 08 3c 74 dd 3e 3d 10 dc f5 3d c8 53 f6 3d
       0.008324489 0.046597913 0.12004864 0.12027699
0002c0 10 f3 96 3c 80 27 10 bd fc d2 a1 bd f2 ca a0 bd
       0.018426448 -0.03519392 -0.0790157 -0.07851209
0002d0 70 6c ba 3c 3c 49 de 3d f0 64 7d 3c 00 a5 11 ba
       0.022756785 0.10853812 0.01546596 -0.0005555898
0002e0 44 ad 1c bd 60 4d b5 3d 1c 94 20 bd 98 3c 7c 3d
       -0.038251176 0.08852649 -0.039203748 0.061581224
0002f0 fc d7 d0 3d 60 b0 c5 bc 6c 81 17 3d c0 d5 c3 bd
       0.10197446 -0.024131954 0.03698866 -0.09562254
000300 ac 3e e5 3d ee 25 9f 3d 80 f1 ed 3d 00 6f d6 3c
       0.11193594 0.077709064 0.11618328 0.026175976
000310 f6 d0 88 3d e0 ce 14 3d a4 1e a0 3d dc 08 ad 3d
       0.06680481 0.036330104 0.07818344 0.084489554
000320 b0 72 7e bc 7c 3a a5 bd 10 c3 0f bc 60 4a 65 3c
       -0.015530273 -0.08067796 -0.008774534 0.013994783
000330 24 37 88 3d b6 68 9d 3d ce 2a c8 bd 32 fd d9 bd
       0.06651142 0.07685988 -0.09773789 -0.10643996
000340 e8 bc 9e 3c ca 51 a9 bd d4 3f 2c bd 88 17 df 3d
       0.019377187 -0.08267553 -0.04205306 0.1089316
000350 f0 2b ef 3c 18 a2 04 bd 50 03 6b bc 22 dc cf bd
       0.029195756 -0.032381147 -0.0143440515 -0.10149409
000360 84 7f 23 bd 60 b4 96 bb fa fc 85 3d 94 53 50 bd
       -0.03991653 -0.004599139 0.06542392 -0.050860956
000370 20 13 c1 3b 3a 01 9a 3d e0 71 3b 3d c0 88 f8 3b
       0.0058921725 0.07519765 0.045762897 0.0075846612
000380 20 bb 91 3b 90 ee 1e bd b6 81 9e 3d 46 ec f6 3d
       0.004447356 -0.03880173 0.07739584 0.12056784
000390 88 ef c0 3c 3c b9 6b 3d 3c c5 ca bd 70 7e 70 bd
       0.023551717 0.0575497 -0.09900901 -0.05871433
0003a0 1a 2b ed bd fc 0d 64 3d e0 cb 27 3c 90 34 b0 3c
       -0.115804866 0.0556774 0.010241479 0.021509439
0003b0 c4 e6 c9 3d 04 64 77 bd 2e 79 a5 bd 82 cb b7 bd
       0.09858468 -0.060398117 -0.08079754 -0.08974363
0003c0 00 17 a3 3c 0e 00 b3 3d 98 69 aa 3c 8c fd 42 3d
       0.019908428 0.08740245 0.020802304 0.047605082
0003d0 82 55 ed 3d a0 82 18 3d 2e 74 f9 3d 34 de 3c 3d
       0.11588575 0.03723395 0.12180363 0.046110347
0003e0 0e bd a9 3d 74 84 b8 3d 18 a0 a3 bc 80 5e fe ba
       0.082880124 0.090096384 -0.0199738 -0.0019406825
0003f0 4e 73 f5 bd 74 36 f3 3d 24 01 ea bd d0 c0 06 3d
       -0.11984883 0.118756205 -0.11425999 0.032898724

bias_hh_l0 f4 [256]
000000 ac 8a 98 bd 9c e2 9a 3d c4 78 bb bd f8 c9 dd bd
       -0.074483246 0.075627536 -0.091538936 -0.10829538
000010 14 4b b7 3d 50 cd 5f 3c 80 26 1b bc b8 3c c7 bd
       0.08949867 0.01365979 -0.009469628 -0.09728378
000020 7a 68 be bd ee 41 f6 bd 20 66 d7 3d a6 c7 f8 bd
       -0.09297271 -0.12024294 0.10517526 -0.12147455
000030 6a 7e a5 bd 30 a5 a1 bd dc 97 7c 3d 92 3d 95 bd
       -0.08080752 -0.07892835 0.061668262 -0.07287134
000040 b0 24 d9 3d 80 2d 35 bd ce f9 f2 3d ea 06 a0 3d
       0.10602701 -0.044232845 0.11864053 0.07813819
000050 64 b7 61 bd cc d4 82 bd 34 32 ac bd 56 3b 87 bd
       -0.055106536 -0.06388244 -0.08408013 -0.06603114
000060 82 f2 bb 3d 44 d7 d5 3d 6e ab 87 3d e8 c1 ee bc
       0.09177114 0.10441449 0.066244945 -0.029145196
000070 6e b0 da bd 60 27 94 bb e0 78 f9 3d 64 66 45 bd
       -0.106781825 -0.0045212954 0.12181258 -0.04819335
000080 18 e7 f1 3d 50 3f e3 bd 18 d0 c0 bc 3c ec 80 3d
       0.11811656 -0.1109606 -0.023536727 0.06295058
000090 c4 da 75 3d 70 35 a6 3c 10 97 d9 3c 90 39 bf 3d
       0.060023084 0.020289153 0.02656129 0.09337151
0000a0 68 2c 8b bd 10 15 ea 3d b8 ad 9a 3c 00 b4 d6 bb
       -0.06795579 0.114297986 0.018881664 -0.0065522194
0000b0 ae 63 f4 3d 48 d3 d9 3c 80 a0 33 bc 10 d2 1d bd
       0.11933075 0.026590005 -0.010963559 -0.03853041
0000c0 a0 73 aa bb aa 7e ab 3d d8 88 c8 bc 00 89 d1 3d
       -0.005201772 0.08373769 -0.024479315 0.10231209
0000d0 5e 58 fc 3d 90 25 21 bc fa 48 b2 bd 40 f1 8c 3b
       0.12321542 -0.009835616 -0.087053254 0.00430122
0000e0 0c 94 01 bd 0a 7a ca bd 88 6e 8f 3c 92 94 92 3d
       -0.03163533 -0.09886558 0.01750876 0.07157244
0000f0 18 8a 18 3d 7e 35 da 3d 20 4f c7 3c c2 89 f7 3d
       0.03724107 0.10654734 0.024329722 0.12086822
000100 7e 12 83 bd d0 63 e9 3c c0 fc 69 bd 5c 78 fe bd
       -0.064000115 0.028489977 -0.057125807 -0.124253005
000110 cc 08 d7 bd 54 99 37 bd 9a 25 9e bd c8 04 52 3d
       -0.10499725 -0.04482396 -0.07722016 0.05127409
000120 8a 73 81 3d c0 41 ad 3b ec c2 f2 3d d4 bc 2f bd
       0.063208655 0.005287379 0.11853585 -0.04290469
000130 20 64 da 3b 24 10 bd bd cc 95 08 bd 40 58 a0 3c
       0.006664768 -0.09231594 -0.033345982 0.01957333
000140 74 85 e4 3d 00 6a fc 3b 40 6d e7 bc 5a 43 a8 3d
       0.11158267 0.007703066 -0.028250337 0.08215971
000150 aa 45 cc 3d b4 05 09 3d 34 0a e1 3d 06 2d 88 3d
       0.09974225 0.033452705 0.10988274 0.066492125
000160 c8 c2 f8 3c a2 6e b6 3d 30 72 f2 bd 8e e3 da 3d
       0.030366316 0.0890782 -0.11838186 0.10687934
000170 6c 46 a2 3d 40 9a e1 3b 30 9f d5 bd ae c2 f2 3d
       0.07923588 0.006884843 -0.10430753 0.118535385
000180 80 51 ee 3d f0 15 a0 3d 30 ab d5 bc 10 72 e3 3c
       0.11636639 0.07816684 -0.026082605 0.02776435
000190 38 4c 1e bd 58 e5 60 3d d2 c5 8f bd fc 5a d4 3d
       -0.038646907 0.05490622 -0.07020153 0.103689164
0001a0 90 16 2a bc 3a 89 cf 3d 68 35 8d bc 30 52 59 3c
       -0.010381356 0.10133596 -0.01723738 0.013264224
0001b0 00 ca 7a bc 28 0a 3e bd 8c 4e b7 bd f8 dd 91 bd
       -0.01530695 -0.046396405 -0.089505285 -0.07122415
0001c0 a0 df 8a 3d f8 f3 c0 bd 20 c9 6f 3d 0e 0b f0 bd
       0.06780934 -0.09421533 0.058541417 -0.117208585
0001d0 24 3a b3 3d 30 1c 35 3d aa b7 f8 3d 82 b8 b6 bd
       0.08751324 0.044216335 0.12144406 -0.08921911
0001e0 b8 7f 83 3d 20 41 df bd 00 89 68 bc 7c 8a 22 3d
       0.06420845 -0.109010935 -0.01419282 0.03968285
0001f0 f4 d4 86 3d 0c 93 89 bd b2 fe db 3d 40 79 43 bc
       0.06583586 -0.067175 0.10741939 -0.011930764
000200 02 37 d2 bd e2 40 bf bd 42 d2 c9 bd dc b4 62 bd
       -0.10264398 -0.09338547 -0.098545566 -0.055348262
000210 c8 13 9f 3d 5c 5b bb 3d 20 4b b9 bb 70 f5 64 bc
       0.07767445 0.09148285 -0.0056547076 -0.0139745325
000220 86 52 87 3d 9a 9c e6 3d d0 b0 71 bd 90 12 d5 3c
       0.06607537 0.11260338 -0.059006512 0.026009828
000230 aa 8c df 3d 2a f2 e0 3d 60 c2 ab 3d a8 f6 f5 3d
       0.109155014 0.10983689 0.083866835 0.120099366
000240 72 1a f9 3d 82 96 f2 3d 66 ab eb 3d 98 e0 3b 3d
       0.12163247 0.11845113 0.11507301 0.045868486
000250 00 ac 63 3b 18 c1 68 3d 08 13 08 3d 6c 2b 41 3d
       0.003473997 0.056824774 0.033221275 0.04716055
000260 c0 ff 67 3c f0 39 d8 3c 78 5b a9 bd 48 9c 72 3d
       0.014160097 0.026394814 -0.082693994 0.059231073
000270 90 fd c5 bd b0 6b a3 3c 4e 9a 9d 3d 90 ff 11 3d
       -0.09667504 0.01994881 0.07695447 0.035644114
000280 32 56 f5 3d a6 4a 92 bd ce b3 a8 3d 8a 85 ff bd
       0.11979331 -0.07143144 0.0823742 -0.124766424
000290 7e f6 86 3d 24 38 09 3d 62 b5 e8 3d c8 d8 e8 bd
       0.065899834 0.033500805 0.11362721 -0.11369473
0002a0 64 c7 f5 3d 5e 29 be bd d2 69 cd 3d 20 e9 ba bd
       0.12000921 -0.09285234 0.10029949 -0.09126496
0002b0 40 bf 85 bd d0 43 4b bc ec 5a 8e 3d 7c 38 74 3d
       -0.06530619 -0.0124063045 0.06950936 0.05962418
0002c0 18 5b 0e 3d 98 29 64 bd ee f7 8e 3d f0 bf 26 bc
       0.034754843 -0.05570373 0.069808826 -0.010177597
0002d0 16 72 9f bd d4 82 d6 bd e0 d7 e5 3b 7e fa bd bd
       -0.07785432 -0.10474172 0.0070142597 -0.09276293
0002e0 b4 59 18 bd a8 64 5f 3d 90 05 70 3c 14 3b 2b 3d
       -0.037194923 0.054539353 0.014649764 0.04180439
0002f0 7a b2 d7 bd c4 f8 b3 3d 3e a4 a7 3d ea 5b cd 3d
       -0.105320886 0.08787683 0.081856236 0.10027297
000300 a0 57 18 bd 5c 8d 9e bd 6c 4d 63 bd 10 f9 3d 3d
       -0.03719294 -0.07741806 -0.055493757 0.046380103
000310 98 4d de 3c 60 8e 93 3b e0 ae 59 3c 04 e3 68 bd
       0.027136609 0.0045030564 0.013286322 -0.056857124
000320 00 be 36 3b ec 44 33 3d 00 a3 c7 bb ec 49 84 bd
       0.0027884245 0.0437669 -0.006092429 -0.06459412
000330 70 ac d1 3d e0 27 78 3c a4 02 d7 bd aa ff cc bd
       0.10237968 0.015146226 -0.104985505 -0.100097016
000340 98 01 3e bd d4 b3 52 bd fc 6b 07 bd a0 01 55 3c
       -0.04638824 -0.05144103 -0.033061966 0.013000876
000350 34 a0 09 bd 60 cf 93 3b c8 1e ec bd 38 fa a7 3c
       -0.033600047 0.004510805 -0.115293086 0.020505056
000360 50 8c 2d 3d 82 f6 9b 3d f6 17 ff 3d d0 0a 7b 3d
       0.04237014 0.07615377 0.12455742 0.06128961
000370 58 b7 d2 3c bc 64 ff bd c8 9d 2d 3d cc 56 78 3d
       0.02572219 -0.124703854 0.0423868 0.06062965
000380 70 98 25 bc ba 44 bd bd e0 12 2d bd 50 e7 52 bd
       -0.010107145 -0.09241624 -0.04225433 -0.051490128
000390 0c b3 c0 bd 1a af d1 3d 80 1a 2c 3c c8 81 01 bd
       -0.094091505 0.10238476 0.010504365 -0.03161791
0003a0 20 9e 93 bd 3c ce 5f bd ca 79 bd bd f4 25 1f bd
       -0.07207894 -0.05464004 -0.09251745 -0.038854554
0003b0 a0 25 3b 3c ec 0e f8 bd ec 3d a4 bd 30 21 7d 3d
       0.011422545 -0.12112221 -0.08019623 0.06179923
0003c0 24 da 25 bd 66 11 a2 bd ec a3 e0 bd 10 4b 5a 3d
       -0.04049124 -0.07913475 -0.109687656 0.05329424
0003d0 a8 36 d2 bd 80 d5 af bd 20 3a 74 3d 18 28 72 bd
       -0.10264331 -0.08585644 0.059625745 -0.059120268
0003e0 7c 1e bf 3d 2c cc bf bd 5c 81 a2 bd b2 5b ff bd
       0.09331986 -0.093651146 -0.079348296 -0.12468661
0003f0 90 ce f1 3d 00 46 fa 3c b4 ee 58 3d 96 d2 99 bd
       0.11806977 0.030550957 0.05296202 -0.07510869

weight f4 [32, 64]
000000 98 4f e4 3d 50 5d df 3c a8 45 3e bd 90 b4 25 3d
       0.11147994 0.027266175 -0.046453148 0.0404554
000010 90 b8 39 bc b6 75 8c 3d 88 90 c7 bd 00 07 4d bd
       -0.011335507 0.06858389 -0.09744364 -0.050055504
000020 7c 8e bc bd 9c fb 99 3d fe 34 8f 3d 34 bb a6 3d
       -0.09206864 0.07518694 0.06992529 0.08141175
000030 08 83 06 bd c0 93 4a 3c d2 2d cf bd a8 25 e9 3c
       -0.032839805 0.012364328 -0.101161614 0.028460339
000040 98 c5 e3 3c 14 81 e8 3d d8 4c 62 bd fc f8 e3 3d
       0.027804181 0.11352745 -0.055249065 0.111314744
000050 c8 83 93 bc 60 50 d5 bb 3a ed 8e bd 06 f5 98 bd
       -0.018007174 -0.0065098256 -0.06978841 -0.074686095
000060 60 6d a6 3c 00 95 5c ba 00 f6 f9 ba c4 53 af bd
       0.020315826 -0.0008414537 -0.0019070506 -0.08560899
000070 f4 1e 87 3d 74 22 90 3d f0 ab fb 3c e4 9a ee bd
       0.06597701 0.070378214 0.030721635 -0.11650637
000080 c8 37 77 3d ec 27 06 3d de b1 ad 3d e0 1d aa 3d
       0.06035593 0.032752916 0.08481191 0.083064795
000090 30 d9 e1 3d 60 a0 a0 bc 1e 1c e7 3d 00 35 36 ba
       0.11027753 -0.019607723 0.1128466 -0.00069506466
0000a0 44 03 16 bd e8 dd 0a 3d e6 51 89 3d d0 c2 8a 3d
       -0.036624208 0.033903033 0.06705074 0.06775439
0000b0 60 09 06 3d 22 1b f4 bd 9c 3b 9f 3d 10 d4 18 3c
       0.032723784 -0.11919238 0.077750415 0.009327903
0000c0 28 a6 e1 bd 1c 30 39 3d 68 b1 aa bd 20 9a 18 bc
       -0.1101802 0.045211896 -0.08334619 -0.00931409
0000d0 80 75 b4 3a 7c 7a 14 bd e4 36 47 bd c6 14 e0 3d
       0.0013767928 -0.036249623 -0.048636332 0.10941462
0000e0 a8 9a ad 3d 80 71 46 bb b0 f0 ef 3c 20 df 4b bd
       0.08476764 -0.0030280054 0.029289573 -0.049773335
0000f0 70 51 b4 bc 1c 99 8b 3d 06 fb ee bd d0 af 36 bc
       -0.022011489 0.06816313 -0.11668973 -0.011150315
000100 de 9f 96 bd d8 94 78 3d 6a 99 d9 bd d0 3d 1a bd
       -0.07354711 0.060688823 -0.106249645 -0.037656605
000110 9e f4 e4 bd c0 b9 2b 3c c6 97 a8 bd 4a e1 ce 3d
       -0.111794695 0.010481298 -0.082320735 0.10101564
000120 00 c3 e5 3b a2 5f de 3d 04 61 ca 3d b0 d9 1b bc
       0.007011771 0.10858084 0.098817855 -0.00951235
000130 a6 71 b7 bd 70 13 6a 3c 00 8d 34 3b 12 b4 fa bd
       -0.089572236 0.014286861 0.0027549863 -0.12241377
000140 68 b5 bc 3c ae 50 9d bd e6 83 b0 3d ca 17 a2 bd
       0.02303572 -0.07681404 0.08618908 -0.07914694
000150 00 9b bb 3c 00 8b 04 3b d8 36 ab bd 0c 23 79 bd
       0.022901058 0.0020224452 -0.0836007 -0.06082444
000160 48 87 9a bd fe 27 91 3d 98 19 ff 3d 12 54 c2 bd
       -0.07545334 0.07087706 0.124560535 -0.094886914
000170 98 41 a7 bc 24 9c 01 bd 0a 45 82 3d 92 ab fa 3d
       -0.02041702 -0.031643048 0.063608244 0.12239756
000180 6c e9 4e 3d 74 fb d5 3d 12 ac e2 3d b0 94 d2 3d
       0.050515577 0.104483515 0.11067976 0.10282266
000190 d0 d0 40 bd aa f6 c7 bd 94 76 ab bd ce 19 ec 3d
       -0.04707414 -0.09763844 -0.08372226 0.11528359
0001a0 bc 3c ad bd 78 1a cf bd 0e 47 ae 3d b4 81 2e bd
       -0.0845885 -0.101124704 0.08509646 -0.042604163
0001b0 04 1e bf bd 68 9f 03 bd e0 08 77 3d 76 30 8a bd
       -0.09331897 -0.032134444 0.0603112 -0.067475244
0001c0 ec 88 c8 bd ea f1 ee 3d 12 c7 b0 bd e0 b5 a8 bb
       -0.09791741 0.11667235 -0.0863172 -0.0051486343
0001d0 f2 96 b4 bd d0 d0 2d 3d 98 8d aa bd 08 c0 71 bd
       -0.08817853 0.042435467 -0.08327788 -0.059021026
0001e0 fe 2d 81 3d 30 55 6c 3c 04 09 de bd 00 71 01 ba
       0.063076004 0.014424607 -0.10841563 -0.0004937798
0001f0 18 91 98 bc 00 36 df ba d6 c3 f4 3d 00 92 5b 3c
       -0.018623874 -0.0017029643 0.11951415 0.013401508
000200 b8 df 49 bd 80 bc 33 3d 2c 12 0e 3d 4a a6 f2 bd
       -0.04928562 0.04388094 0.0346853 -0.11848123
000210 28 d5 d3 3d a2 99 d4 bd 14 ab 75 bd 20 5c 44 bd
       0.10343391 -0.10380866 -0.059977606 -0.04793942
000220 d8 71 75 3d a0 87 45 bc b6 b7 99 3d 78 14 8a bc
       0.059923023 -0.012056261 0.07505743 -0.016855463
000230 5c 85 a2 3d 66 18 ca 3d 3a d7 be 3d 02 ad e3 3d
       0.079355925 0.09867935 0.09318395 0.11116983
000240 c0 bf 26 3b 40 29 fb bb c0 c4 b1 3b 60 c8 68 3d
       0.0025443882 -0.0076648295 0.0054250658 0.056831717
000250 90 4e a4 bc b8 76 af 3c 80 0d 10 3c e8 3d 47 bd
       -0.020056993 0.021418914 0.008792281 -0.048643023
000260 ec 93 f2 bd 0c ec 20 bd 76 3f ef 3d 5c 83 92 bd
       -0.1184462 -0.03928761 0.11682026 -0.07153961
000270 1c 46 cd 3d b8 59 47 3d 84 31 a5 bd c0 14 a1 3b
       0.10023138 0.048669547 -0.08066085 0.0049158037
000280 c6 99 e2 bd 50 43 d8 3c 48 da 6d 3d fc 85 c5 3d
       -0.11064486 0.026399285 0.058069497 0.09644696
000290 b0 12 e7 3d 08 10 5a bd f8 c2 99 bd d0 e8 e4 3c
       0.11282861 -0.053237945 -0.075078905 0.027943045
0002a0 d8 1a 4e 3d 1c 0a 32 bd 82 e0 d2 3d c8 d1 02 3d
       0.05031857 -0.043466672 0.10296728 0.031938344
0002b0 d0 22 b0 bc f0 27 68 bd e8 d8 45 3d 42 06 89 3d
       -0.021500975 -0.056678712 0.04830256 0.06690647
0002c0 b0 f2 33 3d f8 4b dc bc bc 8d 76 bd be 7c f0 3d
       0.043932617 -0.026891693 -0.060193762 0.11742543
0002d0 5c f7 b2 bd ee 9a 85 3d ee 36 aa bd 48 9e ac 3c
       -0.08738586 0.06523691 -0.08311258 0.021071568
0002e0 9c d2 98 bd 20 e9 b4 3d a0 35 99 bd 90 89 6a bd
       -0.074620456 0.088335276 -0.07480931 -0.057260096
0002f0 12 4b eb bd 60 85 ad bd 8c cc bf bd 5a 68 91 bd
       -0.11488928 -0.08472705 -0.09365186 -0.070999816
000300 b4 4f cb 3d d6 df cb 3d 36 57 c4 3d 00 b6 44 bc
       0.099273115 0.09954803 0.09586947 -0.012006283
000310 8c 8e 2b 3d ac 8e d1 3d d8 65 9c 3d 38 89 1a 3d
       0.04188399 0.102322906 0.07636613 0.03772852
000320 b8 42 d3 bd d8 53 cb 3d 10 e0 c9 3c f2 ac f3 3d
       -0.1031546 0.09928101 0.024642974 0.11898221
000330 50 ad 50 bc fe 0a d7 bd 06 a9 d3 3d 00 b5 ba 3b
       -0.012736633 -0.105001435 0.10334973 0.0056978464
000340 f0 9b 61 bd 68 3c 9b 3d 20 92 b6 3c 70 a5 6b bc
       -0.055080354 0.07579881 0.022286475 -0.014382705
000350 d0 83 e9 bd 90 f2 df 3c dc 51 90 bd 00 1a 67 3d
       -0.11402094 0.027337343 -0.070468634 0.05642128
000360 20 0f eb bb 40 37 39 bc 58 62 36 bd ec 9c f4 bd
       -0.007173434 -0.0113046765 -0.04452738 -0.11943993
000370 18 3a 40 3d cc 37 66 bd 64 32 61 3d c0 5d 85 3b
       0.046930403 -0.056205556 0.054979697 0.0040700138
000380 bc 12 e2 3d ae 69 8f bd 6e e5 e3 3d 98 d0 be bd
       0.110387295 -0.07002579 0.111277446 -0.0931713
000390 72 cb f3 3d 4c 49 df bd d6 e3 a9 3d bc 90 fe bd
       0.119040385 -0.10902652 0.082954094 -0.1242995
0003a0 d0 a9 cc bd e0 cc c8 bb e0 44 c0 3b c8 75 f6 3c
       -0.09993327 -0.0061279386 0.0058675855 0.03008546
0003b0 d4 17 63 3d 50 c8 0e 3c 34 ea 5e bd b4 61 05 bd
       0.055442646 0.00871475 -0.054422572 -0.03256388
0003c0 38 a8 e2 3d e8 c4 d2 3c d4 5b 83 3d 60 4b 16 bc
       0.110672414 0.025728658 0.06413999 -0.009173244
0003d0 a6 d9 93 bd a6 15 d6 bd 04 8c 7e bd c0 2b 10 3d
       -0.072192475 -0.10453348 -0.062145248 0.035197973
0003e0 e0 22 fa bb 7e 4e a6 3d 46 ad f6 bd 4a 26 ad 3d
       -0.007633552 0.0812044 -0.12044768 0.08454569
0003f0 08 8b 84 3d 40 eb e7 3c 48 f8 ae 3d 4a 74 a4 3d
       0.064718306 0.028310418 0.0854345 0.08029993

bias f4 [32]
000000 38 28 7a bd e8 7b bd bd ee 93 9b 3d e0 20 8a 3c
       -0.06107351 -0.09252149 0.07596575 0.01686138
000010 10 be 41 bc c6 e6 fd 3d b8 a7 35 3d 88 40 d3 bc
       -0.0118251 0.12397532 0.044349402 -0.025787607
000020 58 e7 34 3d 3e 3a d3 3d ae a8 ea bd 40 32 97 3b
       0.04416594 0.10313843 -0.11457954 0.0046141446
000030 58 5f a4 3c 74 23 04 bd a8 f8 ee bd 68 bf c7 3c
       0.020064995 -0.032260373 -0.11668521 0.024383262
000040 58 67 c8 bd 02 27 8c bd be 78 8b bd 20 22 c8 3b
       -0.09785336 -0.06843378 -0.06810139 0.0061075836
000050 2c 33 0e 3d dc c2 74 bd 04 87 2c 3d b0 21 9f 3d
       0.03471677 -0.059756145 0.04212095 0.07770097
000060 1c b6 5a 3d 40 d2 de 3c a8 48 f1 3d a0 19 de 3c
       0.05339633 0.027199864 0.11781436 0.027111828
000070 32 cb 82 bd f0 7e a6 bc c8 ea e1 3d a2 30 cf 3d
       -0.06386413 -0.0203242 0.11031109 0.10116698

weight f4 [6, 32]
000000 2e 40 d1 3d a0 09 86 bc e0 93 e9 3c 4f f5 01 3e
       0.102173194 -0.016362011 0.028512895 0.12691234
000010 f8 db e6 3c 41 c1 14 3e 9a 86 30 be 06 ce a9 3d
       0.028181061 0.14526846 -0.17238846 0.08291249
000020 9e c2 ed 3d 3d 2e f6 bd 91 df 14 3e fa b7 a3 3d
       0.11609386 -0.12020538 0.14538409 0.07994075
000030 3a 99 15 be da 12 bd bd f8 d4 e4 bd b0 bb 0f 3d
       -0.14609233 -0.09232111 -0.11173433 0.035091102
000040 1a 36 fc 3d 2a 4d d1 3d 2b 48 05 3e 49 07 e9 bd
       0.123150066 0.10219796 0.13015811 -0.11378343
000050 5c f1 2b 3d ef 22 0c be 78 04 13 be c8 68 71 3d
       0.041978225 -0.13685201 -0.14357173 0.058937818
000060 91 ce 9f bd aa 59 28 be ac 52 51 3d 24 c6 1b 3d
       -0.07803071 -0.16440454 0.051104233 0.03803076
000070 ba a5 ae 3d 7c aa 12 bd bd 38 1e be 96 51 af 3d
       0.085277036 -0.035807118 -0.15451331 0.08560483
000080 61 90 08 3e 60 5b 4c bd 70 75 16 bc 8c 17 ce bd
       0.13336326 -0.04989183 -0.009183273 -0.10063085
000090 b8 ca 0f be c8 5c 16 be 6b 92 18 3e 80 7e a4 3b
       -0.14042175 -0.1468383 0.14899604 0.005019963
0000a0 70 a5 18 3c 38 57 4e bd 18 77 15 3d f2 b6 c2 3d
       0.009316787 -0.050376147 0.03649053 0.0950755
0000b0 ee 74 ac 3d c8 23 55 bd a1 25 05 3e 90 8d f7 3c
       0.0842074 -0.052036077 0.13002636 0.03021887
0000c0 03 6f a9 bd 80 d0 97 ba 56 71 a0 bd c2 0f eb 3d
       -0.08273127 -0.0011582524 -0.07834117 0.11477615
0000d0 40 da 64 bc 8c 08 3d bd 49 c3 0d 3e 4c 1f 58 3d
       -0.0139680505 -0.04615073 0.13844027 0.052764222
0000e0 2e ee c0 3d 20 18 f4 bb 81 1e 00 3e 62 5e ba bd
       0.09420429 -0.007449165 0.12511636 -0.09100033
0000f0 dc 41 30 bd e6 40 b6 3d 2a 1b fd 3d f8 67 27 bd
       -0.04303156 0.08899097 0.12358697 -0.040870637
000100 da ce ef 3d f6 30 f5 3d 2a a0 33 be 42 ea bd 3d
       0.11709376 0.11972229 -0.17541566 0.09273197
000110 0d e2 01 3e 40 c5 49 3c 5f f6 15 3e 1d f8 13 be
       0.12683888 0.0123150945 0.14644764 -0.14450116
000120 fc 61 09 bd 10 f7 a8 3c fa 56 2c be 5b a7 28 3e
       -0.03354071 0.020625621 -0.16830054 0.16470091
000130 9a 5e c8 3d 9a 75 0f be de 89 2d be 84 1e 1b be
       0.09783669 -0.14009705 -0.16947123 -0.1514836
000140 6c ba 61 bd 0b 79 11 be 6b 6d 26 3e 6b 48 16 3e
       -0.055109426 -0.1420633 0.16252677 0.14676063
000150 9e 26 fa 3d ef e7 21 3e 02 11 8e 3d 66 51 1f be
       0.12214397 0.15811132 0.06936838 -0.15558395
000160 c5 fc 0b 3e 68 33 7b bd 96 a4 5d bd 5b 7d 11 3e
       0.13670643 -0.06132832 -0.05411204 0.14207976
000170 e8 7e 4f bd 6e c8 f1 3d d0 3d 94 bc 60 ac 4f 3c
       -0.050658137 0.11805807 -0.01809588 0.012675375
000180 47 44 32 be 68 c0 af 3c d6 08 da 3d 38 4b 0a bd
       -0.17408858 0.021454051 0.106462166 -0.03376314
000190 a4 26 3e 3d 5c 23 22 3d e5 74 25 3e 2a 7c cf 3d
       0.04642357 0.039584503 0.16157873 0.10131104
0001a0 00 56 dd 39 cf 60 25 3e 1c ae 2c 3d c0 54 72 bc
       0.0004221648 0.16150211 0.04215823 -0.014790714
0001b0 22 18 ef bd f2 2a fb 3d 46 42 e6 3d d0 8a 8e 3c
       -0.11674525 0.122640505 0.112431094 0.017400175
0001c0 11 ec 1b be e8 5b 66 bd 7e 01 09 be ca 07 b1 3d
       -0.15226771 -0.056239992 -0.13379475 0.08644064
0001d0 40 62 bb 3b 10 27 80 bc f5 02 2f 3e 68 a0 9a bc
       0.0057184994 -0.015643626 0.17090972 -0.018875316
0001e0 8f 0f 2c 3e da e3 66 bd da fc f3 bd 7d d9 b3 bd
       0.1680281 -0.05636964 -0.11913462 -0.08781717
0001f0 00 a2 b9 3a 7a 7a f4 3d 00 e7 33 3c 00 2c 21 b9
       0.001416266 0.11937423 0.010980368 -0.00015370548
000200 e6 16 a1 bd a5 70 22 3e 31 0d 03 3e 49 e0 f4 bd
       -0.07865696 0.15863283 0.12798001 -0.119568415
000210 1f a5 32 3e e8 65 f8 3c 5e 21 cc 3d 58 01 ec bd
       0.17445801 0.03032203 0.09967302 -0.11523694
000220 3a 54 c3 3d 35 7d 0d 3e a4 53 18 bd 3f 78 8c bd
       0.09537549 0.13817294 -0.03718914 -0.068588726
000230 f3 7e 30 3e 5e af 9c 3d e2 85 9a bd 94 2d 08 3d
       0.17235927 0.07650636 -0.07545067 0.03324659
000240 40 35 e7 3b 34 35 4e bd 35 5e 18 3e 56 9b b4 bd
       0.0070559084 -0.050343707 0.14879687 -0.088186905
000250 50 8a 16 3d 14 2b a6 bd ec 66 13 be 0d 59 93 bd
       0.036753 -0.08113685 -0.1439473 -0.071947195
000260 7e 43 99 3d 38 01 b3 3c 6a 58 b2 bd 3f cf b1 bd
       0.07483576 0.021851167 -0.0870827 -0.08682107
000270 47 1c 99 bd b7 68 d1 bd 80 8d 18 bb ba 51 f9 3d
       -0.074760966 -0.10225051 -0.00232777 0.12173791
000280 08 a8 dd 3c ca c5 81 3d ba 03 0e be df e7 24 3e
       0.027057663 0.063365534 -0.13868609 0.16104077
000290 1a 04 d5 3d 7b e3 21 3e 9e 73 af 3d 83 00 16 3e
       0.10401173 0.15809433 0.08566974 0.14648633
0002a0 f0 97 46 bc 00 37 f1 3a 34 e2 58 3d 86 e4 70 bd
       -0.012121186 0.0018403232 0.0529501 -0.058811687
0002b0 a4 36 6c bd 14 c5 08 be 40 46 88 bc c0 59 23 3c
       -0.057669297 -0.1335643 -0.01663506 0.009970129
0002c0 a8 4a b7 bd 98 63 fa bd c4 ef e7 bd 55 dc 29 be
       -0.089497864 -0.12226027 -0.113250285 -0.16587956
0002d0 3e d7 f5 3d 35 51 33 be 28 5d 6d bd f0 c0 1b 3d
       0.12003945 -0.17511447 -0.05795017 0.038025796
0002e0 9a c9 12 be 40 4a b6 bb 7a 28 2b be b8 2d 70 3d
       -0.14334717 -0.0055630505 -0.1671466 0.05863735
0002f0 a2 ad 9b 3d 40 bd 4b bd 08 4f a1 bc aa 82 73 bd
       0.07601477 -0.04974103 -0.019691005 -0.059450783

bias f4 [6]
000000 10 9c 04 3d e8 64 fa bc e0 dd d6 bc 10 37 d3 bd
       0.032375395 -0.030565694 -0.026228845 -0.10313237
000010 41 00 d9 bd 9e 98 91 3d
       -0.105957516 0.071091875

weight f4 [2, 32]
000000 00 61 2f 3a 15 d7 04 3e f5 3a 20 3e fa df 9c 3d
       0.00066901743 0.12972672 0.1564749 0.07659908
000010 87 58 01 3e f7 2e 34 be 3e 2e ec 3d 18 74 bd 3c
       0.12631427 -0.1759604 0.115322575 0.023126647
000020 6e a5 b8 3d 4e db 99 3d a0 f5 61 3d 48 b0 58 bd
       0.09015928 0.07512532 0.055165887 -0.05290249
000030 b5 1b 0f 3e 4e 67 bb 3d c1 d5 06 be d8 57 cf 3c
       0.13975413 0.09150563 -0.13167478 0.025310442
000040 00 7b 49 3c 6c 77 19 3d 37 cb 26 3e 00 44 31 bb
       0.012297392 0.037467405 0.16288458 -0.0027048588
000050 18 00 44 3d 2b f8 31 3e 48 88 1a be 58 aa 4a 3d
       0.047851652 0.17379825 -0.1509105 0.04947886
000060 30 7f 33 3c be a4 f0 3d 80 fb a8 bb 8c 20 29 be
       0.010955617 0.11750172 -0.0051569343 -0.16516322
000070 8e c1 0e be 40 c9 45 bc 17 a2 87 bd 2e 72 23 be
       -0.13941023 -0.0120719075 -0.06622713 -0.15961525
000080 3a c9 c3 3d 58 19 10 3d c8 64 3d bd 5c 9a 69 3d
       0.09559865 0.03518042 -0.04623869 0.057031974
000090 f2 05 56 bd 8e 1d 82 3d 22 c9 26 be a8 16 6a bd
       -0.052251764 0.06353293 -0.16287664 -0.057150513
0000a0 a2 b0 ca bd 90 a4 07 3d f8 15 96 bc ad 05 23 3e
       -0.09896971 0.033115923 -0.018321022 0.15920134
0000b0 48 82 58 3d b0 f7 30 bd c4 c0 03 be 06 d6 e1 bd
       0.05285862 -0.043204963 -0.12866503 -0.1102715
0000c0 f8 15 0b bd 01 8d 29 3e 9b 99 00 be 9a 8d 12 be
       -0.033956498 0.16557695 -0.12558596 -0.14311829
0000d0 d4 21 1d 3d 41 dd 05 3e 10 5d 05 3c f6 e2 12 be
       0.03836234 0.13072683 0.008139864 -0.14344391
0000e0 d8 4f f8 bc 10 b3 55 3d 27 49 14 3e 8a e1 98 3d
       -0.03031151 0.05217272 0.1448103 0.07464893
0000f0 a9 3f 21 be 90 ca 84 bc 82 53 29 be d8 d7 79 3d
       -0.1574694 -0.01620987 -0.16535762 0.06099686

bias f4 [2]
000000 a0 fe e2 3b 07 8b 0a be
       0.0069273263 -0.13529597

weight f4 [1, 32]
000000 40 26 5f 3c dc 45 83 3d d3 32 84 bd 33 24 12 3e
       0.013619959 0.06409809 -0.064550065 0.14271621
000010 ac cd 88 3d cd 33 13 3e 39 9d 0d 3e 8d 83 83 bd
       0.06679854 0.14375229 0.13829507 -0.06421576
000020 e4 1d 63 3d b1 b4 06 be 0a 65 9a 3d de 24 8d bd
       0.055448428 -0.13154866 0.07538803 -0.068917975
000030 07 28 16 3e 76 d1 fb 3d 82 ff 92 3d 44 33 80 bd
       0.14663707 0.12295811 0.071776405 -0.06259778
000040 00 1c f3 b9 8b 7b af bd b4 59 a8 bd df 42 14 3e
       -0.00046369433 -0.08568486 -0.082202345 0.14478634
000050 c0 6b 9e bc 00 41 1f 3a c9 e2 9d bd 0a 4e 97 3d
       -0.019338489 0.00060750544 -0.077092715 0.07387932
000060 50 92 98 bd a2 3e 05 be 1f 92 09 be 73 68 0c 3e
       -0.07449782 -0.13012174 -0.13434647 0.13711719
000070 52 64 93 bd 00 d6 86 3c 40 df 07 bd 17 cf 92 bd
       -0.07196869 0.016459465 -0.033171892 -0.071684055
