simplified game v3/MARLv1/defender_agent_final.pth (torch, 443370 bytes, 33 tensors)

weight_ih_l0 f4 [256, 25]
-0.07712703 -0.064970754 -0.050878324 -0.045823757 -0.009655394 0.009806702 -0.03158821 -0.059497096
-0.0039329496 0.05355334 0.0616934 0.014900837 -0.045769043 0.08440139 0.060668558 0.040906683
-0.06753306 -0.11142814 -0.018266106 0.017558878 -0.08304304 -0.06384068 0.12525886 0.004255476
0.11307396 0.10309027 -0.03662762 0.056477424 -0.12890108 -0.039108504 -0.06368124 -0.05981511
0.016836371 0.09635911 0.022971313 0.11701438 0.06511616 0.023578819 -0.06254888 0.0063350387
0.12396937 0.1102545 -0.100905955 -0.09982463 -0.005101649 0.009144453 0.030515725 -0.09756676
0.03148896 -0.09425722 0.12048004 0.04774444 -0.1163597 0.091361135 0.016896224 -0.09143725
-0.11118981 0.07204363 0.10894958 0.12132508 -0.113758355 -0.07316469 0.110546246 -0.13034384
-0.06633068 0.088285156 -0.049948927 -0.09042007 0.041488145 0.009841065 0.051077448 0.08361391
-0.03871756 0.019276384 -0.016412735 0.020845786 -0.063497275 -0.07646038 0.07108515 -0.09502451
-0.08492679 -0.116229296 0.08430942 -0.04374468 -0.06952899 -0.072412364 0.08379709 -0.039860863
0.099445246 -0.07743101 -0.04296032 -0.079177335 0.08510848 -0.0784902 -0.091344416 -0.024370983
-0.06955688 0.038573112 -0.104552455 -0.039928216 -0.08305546 -0.10491246 -0.042230625 -0.067172796
0.023400275 -0.11479642 0.00027101184 0.014241757 -0.10164119 -0.081947766 -0.09846534 0.09070165
-0.11702985 0.0040609497 0.0711812 -0.006136227 0.10558207 -0.02076508 -0.0829199 -0.010576638
-0.051881813 -0.06986059 0.102789566 0.025513345 0.09548676 -0.10027147 0.06162486 -0.12390271
-0.08779331 -0.12850294 -0.09292891 0.017857626 0.0044332216 0.04391993 -0.015843576 -0.06823035
0.012511885 -0.029636858 0.118459865 0.02118324 -0.044465322 0.05685668 0.0016718311 0.09966489
0.0078897765 0.07862548 0.042132474 0.059060756 -0.104767114 -0.006131904 -0.09525601 -0.07713389
0.09962555 -0.03736762 -0.052516013 0.126644 0.021185713 0.055687927 0.0354848 0.11070741
-0.0950902 0.030532347 -0.030587133 -0.024806233 -0.110830344 -0.023873448 0.09887756 -0.052781597
0.062439855 -0.08493115 0.0799576 -0.06851315 0.05506232 -0.043485932 -0.016291456 0.0010964397
0.023910629 -0.05329933 0.08431511 0.08250368 -0.053045236 0.08716308 0.014141054 0.020553002
0.11872261 -0.07754592 0.037836365 0.06841043 0.06352668 -0.021402234 -0.017800048 0.01862621
-0.05129952 -0.084352985 0.07015199 -0.0046598646 -0.047012858 0.06414235 0.04352421 0.08004688
0.09884919 0.057263557 -0.11027102 -0.12174013 -0.08686161 0.11821157 -0.0060139364 -0.111364566
0.078531206 0.113697045 -0.12915428 0.018249195 -0.10122993 0.023678381 0.06476958 -0.047635645
0.09772984 -0.04561919 0.031078923 -0.016334627 0.025806952 -0.0051975553 0.110018946 0.08874725
-0.011741613 -0.0854808 -0.109749116 -0.03936116 0.002830547 -0.018312074 0.094142385 0.110303186
0.049951304 -0.0379562 0.039212458 -0.094369754 0.10194858 0.089505225 -0.027665088 -0.08005983
0.08703692 -0.08843556 0.10601672 -0.0006215853 -0.008557889 0.10338435 0.12700352 0.07735171
0.07804189 0.08893626 -0.029065846 0.09219945 -0.08552648 0.041100927 -0.050156247 0.011096801
00000000: c7f4 9dbd 630f 85bd ca65 50bd b1b1 3bbd
00000010: a831 1ebc 4aac 203c a462 01bd 3ab3 73bd
00000020: f9df 80bb bf5a 5b3d 38b2 7c3d a422 743c
00000030: 5278 3bbd a3da ac3d 987f 783d c48d 273d
00000040: c64e 8abd 7034 e4bd cda2 95bc a3d7 8f3c
00000050: 7812 aabd e7be 82bd dc43 003e 8571 8b3b
00000060: 5293 e73d fe20 d33d d806 16bd df54 673d
00000070: a5fe 03be 3d30 20bd 4f6b 82bd b000 75bd
00000080: 6eec 893c ed57 c53d 562e bc3c 3ca5 ef3d
00000090: 9f5b 853d 5e28 c13c a119 80bd 2896 cf3b
000000a0: a7e3 fd3d 1ccd e13d c8a7 cebd db70 ccbd
000000b0: bc2b a7bb 9ed2 153c 1dfc f93c 15d1 c7bd
000000c0: 91fa 003d ee09 c1bd 3dbe f63d ad8f 433d
000000d0: ff4d eebd 8c1b bb3d f369 8a3c 7443 bbbd
000000e0: 7cb7 e3bd 9c8b 933d f520 df3d 4979 f83d
000000f0: 24fa e8bd 5ed7 95bd 1266 e23d db78 05be
00000100: 61d8 87bd d9ce b43d 3f97 4cbd 282e b9bd
00000110: 79ef 293d 6b3c 213c 9636 513d c53d ab3d
00000120: 4e96 1ebd 82e9 9d3c 0074 86bc c8c4 aa3c
00000130: dc0a 82bd 4297 9cbd 1795 913d 369c c2bd
00000140: 19ee adbd a009 eebd 6baa ac3d 9f2d 33bd
00000150: 3765 8ebd ef4c 94bd cf9d ab3d 2545 23bd
00000160: f3a9 cb3d 2694 9ebd 29f7 2fbd ba27 a2bd
00000170: 5b4d ae3d 78bf a0bd c812 bbbd a8a5 c7bc
00000180: d673 8ebd d7fe 1d3d 991f d6bd c58b 23bd
00000190: fb18 aabd 58dc d6bd 05fa 2cbd e491 89bd
000001a0: efb1 bf3c 631a ebbd 9816 8e39 4256 693c
000001b0: 4229 d0bd 3bd4 a7bd 32a8 c9bd c9c1 b93d
000001c0: 59ad efbd b711 853b 73c7 913d 6712 c9bb
000001d0: 6a3b d83d 871b aabc e9d1 a9bd a349 2dbc
000001e0: 0682 54bd 1213 8fbd 5683 d23d 5d01 d13c
000001f0: 908e c33d 215b cdbd 596a 7c3d b4c0 fdbd
00000200: fbcc b3bd 4696 03be 8351 bebd 284a 923c
00000210: 8f44 913b 62e5 333d 63ca 81bc 5bbc 8bbd
00000220: a6fe 4c3c ffc8 f2bc 169b f23d 7988 ad3c
00000230: 4521 36bd 8de2 683d 5821 db3a 1b1d cc3d
00000240: 1f44 013c 6506 a13d 1a93 2c3d b1e9 713d
00000250: 2490 d6bd 24ee c8bb 9515 c3bd 5ff8 9dbd
00000260: 7b08 cc3d ca0e 19bd 081b 57bd f7ae 013e
00000270: a98d ad3c 0619 643d 8258 113d 91ba e23d
00000280: a7be c2bd f91e fa3c de91 fabc 7136 cbbc
00000290: 05fb e2bd 4092 c3bc 5180 ca3d 8431 58bd
000002a0: efc0 7f3d 62f0 adbd cfc0 a33d 9f50 8cbd
000002b0: 0789 613d 4e1e 32bd a975 85bc 69b6 8f3a
000002c0: 39e0 c33c 6650 5abd 67ad ac3d b0f7 a83d
000002d0: f645 59bd 8f82 b23d e1af 673c c55e a83c
000002e0: d724 f33d 65d0 9ebd 4efa 1a3d c41a 8c3d
000002f0: 471a 823d bd53 afbc 68d1 91bc fe95 983c
00000300: 721f 52bd 42c1 acbd d9ab 8f3d c7b1 98bb
00000310: 8e90 40bd 105d 833d 7146 323d 9eef a33d
00000320: 7271 ca3d 318d 6a3d c6d5 e1bd e452 f9bd
00000330: 80e4 b1bd e818 f23d 8e10 c5bb 1b13 e4bd
00000340: f8d4 a03d ffd9 e83d 0541 04be 567f 953c
00000350: a351 cfbd 2af9 c13c eaa5 843d 981d 43bd
00000360: 9526 c83d 30db 3abd 3a99 fe3c 32d0 85bc
00000370: 1a69 d33c 4150 aabb 9d51 e13d 1ec1 b53d
00000380: e55f 40bc 8f10 afbd 25c4 e0bd 2b39 21bd
00000390: b380 393b 3403 96bc b9cd c03d a3e6 e13d
000003a0: bd99 4c3d f677 1bbd 3e9d 203d ee44 c1bd
000003b0: 6bca d03d 844e b73d e5a1 e2bc 68f6 a3bd
000003c0: 6a40 b23d b41d b5bd 4b1f d93d e2f1 22ba
000003d0: 6336 0cbc 2dbb d33d 360d 023e 936a 9e3d
000003e0: 6dd4 9f3d 3724 b63d 7f1b eebc 11d3 bc3d
000003f0: 8228 afbd 7259 283d a370 4dbd 5bcf 353c

weight_hh_l0 f4 [256, 64]
-0.02210682 0.07148007 0.1130832 0.041257937 -0.02901105 -0.0074125207 -0.012855477 0.059262972
-0.045907315 -0.08649641 -0.11193884 -0.06507252 -0.049734276 0.1018435 -0.03850532 0.08305285
-0.037971403 0.084253125 0.024015961 -0.005848578 -0.101347715 0.09947788 -0.113812804 -0.09280135
0.10172281 0.004798062 0.03859345 0.070409596 0.080835864 -0.026876805 0.05374839 -0.10457291
-0.03489309 -0.114768386 -0.08267792 -0.02832833 -0.07275348 -0.0046643093 0.0375177 -0.06559416
-0.030856704 0.04232765 -0.059597287 0.06388489 -0.024553034 0.0059367027 -0.018763965 0.080162816
0.077690765 -0.037788875 0.07616799 -0.11022873 -0.113812186 -0.09977264 -0.049641177 0.12094056
0.076609366 -0.064567156 0.0066354517 0.07782568 -0.07848288 -0.013367485 0.03864557 -0.119369246
0.036333382 -0.023891902 -0.104922414 0.11694222 0.0016403976 0.034316063 0.09936302 -0.10777369
0.107162066 0.04092224 -0.032793652 0.11072279 0.124655634 -0.09930929 -0.030106612 -0.020684395
0.071893275 0.10057351 -0.06879696 -0.11124563 -0.045098405 -0.067197174 0.105538234 0.067459255
0.072327554 -0.06974419 0.051628686 0.021614553 0.109036356 -0.12381997 0.00029586707 -0.12829514
-0.024897756 0.11723014 -0.11364627 0.074982785 -0.049609315 0.039002165 -0.0014517877 -0.08542888
0.10894985 -0.08233429 0.08501924 0.026592668 0.10537049 -0.07602543 -0.12459955 -0.014569578
0.0074853795 0.117404446 -0.025893064 0.00429242 -0.08439459 -0.018135503 0.0149698155 0.067990124
-0.003225445 -0.07973134 -0.057578593 -0.060729656 -0.0759747 2.4725829e-05 -0.06660663 -0.09499878
0.023936423 0.059934232 0.12697607 -0.08018474 -0.12912561 -0.08288817 -0.025651507 -0.11476463
0.049529087 -0.01804753 0.0024633908 0.1010495 0.093562074 -0.05308289 0.08569608 -0.08664995
-0.05381374 0.07721006 -0.07303917 -0.04294983 0.11637158 -0.0010857305 -0.107187785 -0.08166034
-0.10926912 0.03650071 0.10691537 -0.043763954 0.10189795 0.09412114 0.10368125 0.0323891
-0.102348864 -0.09615492 0.060595836 -0.11781492 -0.10632976 0.08206404 -0.022990054 0.11763085
0.050506357 -0.024008676 -0.10766112 -0.021694798 -0.07950653 0.03258821 0.11192166 -0.08518684
-0.053991407 0.09662524 -0.11720113 -0.040817544 -0.09486726 0.037313133 -0.017285533 0.0072989864
-0.11715741 -0.041105352 0.02593047 -0.016573155 0.12467838 0.1138271 -0.03136477 -0.037593164
-0.003858048 -0.09568483 -0.03473009 -0.03721402 0.016872564 0.0046429895 0.058190856 0.09687352
-0.09924687 -0.095010296 -0.059126932 -0.099702306 0.071910895 -0.06240068 0.027236769 -0.045452125
-0.07126861 0.087421626 -0.06749241 -0.03755226 0.053954344 0.115503184 -0.062742785 0.03536371
0.058351245 -0.004141704 0.06693308 -0.07116627 -0.027721714 -0.077361315 0.061273642 0.0974293
0.029134827 -0.060118783 -0.00074585486 -0.012567949 0.09964492 -0.032052726 0.034353178 0.1066735
-0.027159574 -0.015015863 0.06987863 0.03074072 0.00502873 -0.029522156 0.07760636 -0.023752535
0.04872102 -0.06832481 0.1273095 -0.039133623 -0.11603265 0.07503163 0.09894825 0.01009046
-0.105271555 -0.06899769 -0.07832725 -0.04918161 0.1119462 0.03721608 -0.13185486 -0.104892015
00000000: 5d19 b5bc 2564 923d 2a98 e73d 15fe 283d
00000010: 95a8 edbc bbe4 f2bb c79f 52bc bbbd 723d
00000020: 4f09 3cbd 0825 b1bd 3140 e5bd be44 85bd
00000030: 2bb6 4bbd 5393 d03d c1b7 1dbd 9d17 aa3d
00000040: e787 1bbd e78c ac3d 1fbd c43c 6ea5 bfbb
00000050: 648f cfbd 0fbb cb3d b016 e9bd a20e bebd
00000060: 0c54 d03d 1039 9d3b 2a14 1e3d e832 903d
00000070: 468d a53d bf2c dcbc 4627 5c3d 522a d6bd
00000080: 0fec 0ebd b00b ebbd 0b53 a9bd d010 e8bc
00000090: c7ff 94bd 10d7 98bb 29ac 193d 3b56 86bd
000000a0: 33c7 fcbc c25f 2d3d 491c 74bd 15d6 823d
000000b0: 7223 c9bc ac88 c23b e3b6 99bc 672c a43d
000000c0: 561c 9f3d 82c8 1abd f7fd 9b3d 9abf e1bd
000000d0: 5d16 e9bd 9955 ccbd 8c54 4bbd afaf f73d
000000e0: 5fe5 9c3d c93b 84bd 346e d93b 1263 9f3d
000000f0: a2bb a0bd 4c03 5bbc d14a 1e3d dd77 f4bd
00000100: 50d2 143d f3b8 c3bc 90e1 d6bd 677f ef3d
00000110: 9c02 d73a 008f 0c3d d77e cb3d 74b8 dcbd
00000120: c977 db3d 149e 273d a352 06bd a1c2 e23d
00000130: 744b ff3d ab62 cbbd 24a2 f6bc 5272 a9bc
00000140: c83c 933d 7cf9 cd3d 6ce5 8cbd c0d4 e3bd
00000150: 1bb9 38bd ac9e 89bd 6e24 d83d 1428 8a3d
00000160: 7820 943d 0bd6 8ebd 9a78 533d 0111 b13c
00000170: 744e df3d 5395 fdbd 9b1e 9b39 cd5f 03be
00000180: 61f6 cbbc 5b16 f03d 60bf e8bd 9390 993d
00000190: 2333 4bbd bcc0 1f3d e949 beba 56f5 aebd
000001a0: 1921 df3d e19e a8bd 911e ae3d ded8 d93c
000001b0: 7ccc d73d 38b3 9bbd 0d2e ffbd 3db5 6ebc
000001c0: ea47 f53b be71 f03d b11d d4bc 6ea7 8c3b
000001d0: 12d7 acbd e890 94bc f543 753c 683e 8b3d
000001e0: fd61 53bb 2f4a a3bd 88d7 6bbd a9bf 78bd
000001f0: a098 9bbd 506a cf37 0f69 88bd b88e c2bd
00000200: 5116 c43c 997d 753d 0406 023e e637 a4bd
00000210: 8139 04be 46c1 a9bd 1c23 d2bc b809 ebbd
00000220: 03df 4a3d 6ad8 93bc d770 213b 0af3 ce3d
00000230: 799d bf3d 726d 59bd 6d81 af3d 8775 b1bd
00000240: cc6b 5cbd 4f20 9e3d 8f95 95bd 29ec 2fbd
00000250: 3954 ee3d 124f 8eba 4585 dbbd 893d a7bd
00000260: 7dc8 dfbd c581 153d 72f6 da3d d541 33bd
00000270: dfaf d03d 96c2 c03d d656 d43d 6faa 043d
00000280: 489c d1bd dfec c4bd 5733 783d f348 f1bd
00000290: 6bc3 d9bd 3111 a83d a355 bcbc 71e8 f03d
000002a0: c1df 4e3d d8ad c4bc 6f7d dcbd 4ab9 b1bc
000002b0: 52d4 a2bd 377b 053d 2f37 e53d 7076 aebd
000002c0: 1826 5dbd 74e3 c53d 2507 f0bd 4c30 27bd
000002d0: c449 c2bd a8d5 183d 649a 8dbc 562c ef3b
000002e0: 39f0 efbd 165e 28bd 236c d43c 6dc4 87bc
000002f0: 6157 ff3d 2f1e e93d 5878 00bd 4afb 19bd
00000300: 4ed7 7cbb 68f6 c3bd 2441 0ebd ba6d 18bd
00000310: 5538 8a3c 3824 983b 8959 6e3d a065 c63d
00000320: f141 cbbd c294 c2bd 152f 72bd b930 ccbd
00000330: 0546 933d db97 7fbd a51f df3c 022c 3abd
00000340: 47f5 91bd 1c0a b33d 7639 8abd 66d0 19bd
00000350: 3bff 5c3d ef8c ec3d 4a7f 80bd 8ad9 103d
00000360: b701 6f3d 22b7 87bb 3614 893d 9fbf 91bd
00000370: a618 e3bc 9c6f 9ebd 12fa 7a3d 0389 c73d
00000380: 29ac ee3c 1d3f 76bd 7985 43ba cce9 4dbc
00000390: a312 cc3d b849 03bd ebb5 0c3d a377 da3d
000003a0: c17d debc 1805 76bc 871c 8f3d f6d3 fb3c
000003b0: 0bc8 a43b 73d8 f1bc 15f0 9e3d ad94 c2bc
000003c0: b18f 473d e1ed 8bbd 6c5d 023e 944a 20bd
000003d0: 87a2 edbd 2faa 993d 61a5 ca3d 7552 253c
000003e0: 9d98 d7bd a94e 8dbd 0a6a a0bd a872 49bd
000003f0: 0d44 e53d e36f 183d f604 07be a0d1 d6bd

bias_ih_l0 f4 [256]
0.0013233605 0.08900445 0.058994986 -0.06244955 -0.008096739 0.080884665 -0.024924519 -0.09077938
0.11231301 0.04627698 0.0662208 0.008707455 -0.10317832 0.055214334 -0.046803083 -0.07284718
0.05839408 -0.04726232 0.033528782 0.07726154 0.114396244 0.03998642 0.005395754 -0.0052577974
0.1186912 0.11640172 -0.056669448 -0.118548445 0.063450746 0.03348655 -0.05976224 -0.09362782
0.012932298 -0.075251564 -0.013540426 0.036776185 -0.08654691 -0.010822778 -0.07646625 -0.092190504
0.04986652 0.015718447 0.06137418 -0.09030042 -0.032455 -0.015585238 0.055696383 0.030246371
0.05110163 -0.109808825 0.09435555 0.06068838 0.03305161 -0.030473301 -0.08569456 0.1004593
-0.08265151 -0.074415825 -0.100100614 -0.083174385 0.119005956 0.036978338 0.028254772 0.03382046
0.07833905 0.0045126965 -0.03982633 -0.0443043 -0.0016109815 -0.11546438 -0.034509506 0.029702105
0.00658413 -0.0708429 -0.109601215 -0.117205195 0.03555425 0.04692527 -0.0809079 -0.08754659
-0.008635814 -0.03889171 -0.062379982 0.08451904 -0.10235365 0.021397054 -0.019410787 0.10903341
0.09966766 -0.08266571 -0.031591948 -0.04038548 -0.022793619 -0.025240192 0.11957211 -0.030606655
-0.028268738 0.024039922 -0.047664255 0.11436172 -0.116264775 -0.02782725 -0.0076329005 -0.058099452
-0.07304632 -0.11501632 -0.043165583 0.08782792 0.028958919 -0.016926743 0.05970887 0.08332804
-0.061887737 -0.0107213175 -0.10216687 -0.063744746 0.11436217 -0.090606384 -0.030201998 -0.055085212
0.024568584 0.013264101 0.08960237 -0.10706381 -0.09974817 0.011762348 0.043540765 -0.11907007
-0.005097985 -0.013724528 -0.03138931 0.058902476 0.12328357 0.0778063 -0.11571575 -0.07821326
0.05610792 0.040638685 -0.10890889 0.051537953 -0.065185875 0.10039231 0.029113922 0.0534673
0.106858425 0.1050869 -0.013822726 -0.06358194 0.107225 -0.039179683 -0.12643872 -0.016941538
-0.055426605 0.07758728 -0.0124909915 -0.13055775 -0.0964609 0.12724395 0.12960477 0.13196814
-0.021039974 -0.10514033 -0.09249179 0.026582759 0.112138316 0.011552894 0.063698344 -0.10984526
-0.09485811 -0.040836554 -0.033195965 -0.10221177 0.019893393 0.12726718 0.019247277 0.02745183
0.09413682 -0.07576857 0.015256744 0.031826038 -0.05563245 -0.09731892 -0.10271454 -0.029290717
0.09330253 -0.078348055 -0.08319494 0.0663058 -0.026231432 0.03495995 -0.110253476 0.115552805
-0.0050413306 -0.03492196 0.10819627 -0.07415878 0.018900389 0.1075515 0.06455035 -0.039539445
0.00039815495 0.047846615 0.06196419 -0.09050755 0.06735388 -0.034577757 0.0828404 0.09077247
0.066460244 0.07092684 -0.084512934 0.029517071 -0.067960724 0.10727645 -0.098603345 -0.103041545
0.004702958 0.13121724 0.016132096 -0.099048056 -0.064037085 0.009519547 -0.085620955 0.0002948125
0.033691857 -0.09747504 -0.11828231 -0.020016741 -0.07838377 0.09861204 -0.07870785 -0.07696775
-0.09209712 -0.034547336 -0.053726703 0.09104354 -0.11894663 -0.102474645 0.030377606 0.09621437
0.051196877 -0.0013783381 -0.057079263 -0.0071111484 -0.05605076 0.041053563 -0.016052682 0.009414783
-0.022035101 0.04082703 -0.08988518 -0.1087224 0.05588247 0.105227716 -0.12249353 -0.023459805
00000000: 9c74 ad3a f747 b63d baa4 713d 19cb 7fbd
00000010: 2fa8 04bc dca6 a53d 812e ccbc 8aea b9bd
00000020: 5d04 e63d ee8c 3d3d c59e 873d b7a9 0e3c
00000030: 284f d3bd 6d28 623d 97b4 3fbd e730 95bd
00000040: a12e 6f3d 2296 41bd 7a55 093d 4c3b 9e3d
00000050: 9448 ea3d cdc8 233d ddce b03b 9a49 acbb
00000060: 5f14 f33d 0664 ee3d 391e 68bd 87c9 f2bd
00000070: 77f2 813d 3129 093d 40c9 74bd f1bf bfbd
00000080: fde1 533c 7e1d 9abd aad8 5dbc a0a2 163d
00000090: 823f b1bd 0552 31bc 569a 9cbd 60ce bcbd
000000a0: d640 4c3d f9c3 803c 7e63 7b3d 6def b8bd
000000b0: 89ef 04bd 3a59 7fbc e421 643d 3dc7 f73c
000000c0: f14f 513d 73e3 e0bd 7c3d c13d 6194 783d
000000d0: 2061 073d 25a3 f9bc a180 afbd 9bbd cd3d
000000e0: 3245 a9bd 5367 98bd 8d01 cdbd 5557 aabd
000000f0: 65b9 f33d 9976 173d 8d76 e73c 5387 0a3d
00000100: 3970 a03d 3edf 933b ef20 23bd 6d78 35bd
00000110: 9227 d3ba 9778 ecbd d759 0dbd d451 f33c
00000120: b0bf d73b 1516 91bd 9a76 e0bd 4709 f0bd
00000130: 55a1 113d b634 403d 0bb3 a5bd a04b b3bd
00000140: 3b7d 0dbc ea4c 1fbd 2782 7fbd 5218 ad3d
00000150: ca9e d1bd e048 af3c 5f03 9fbc e94c df3d
00000160: 8f1e cc3d a44c a9bd 8f66 01bd 3f6b 25bd
00000170: afb9 babc 85c4 cebc 39e2 f43d cfba fabc
00000180: d793 e7bc 5fef c43c 983b 43bd 7a36 ea3d
00000190: 3a1c eebd f9f5 e3bc 691d fabb b1f9 6dbd
000001a0: 4f99 95bd ad8d ebbd 65ce 30bd 20df b33d
000001b0: 413b ed3c f4a9 8abc 4a91 743d e4a7 aa3d
000001c0: ff7d 7dbd 77a8 2fbc dd3c d1bd 9b8c 82bd
000001d0: b736 ea3d d78f b9bd 2e6a f7bc 08a1 61bd
000001e0: 0e44 c93c ac51 593c 7381 b73d 4544 dbbd
000001f0: c548 ccbd ddb6 403c cd57 323d 02db f3bd
00000200: ff0c a7bb d8dc 60bc 1492 00bd b943 713d
00000210: 197c fc3d e958 9f3d 61fc ecbd 462e a0bd
00000220: 6bd1 653d c074 263d a00b dfbd 7619 533d
00000230: 2c80 85bd 7c9a cd3d 5280 ee3c 8700 5b3d
00000240: 97d8 da3d cd37 d73d b778 62bc 4037 82bd
00000250: c898 db3d e07a 20bd 2779 01be fbc8 8abc
00000260: 0207 63bd 14e6 9e3d 04a7 4cbc eeb0 05be
00000270: 4b8d c5bd 3d4c 023e 1db7 043e a822 073e
00000280: 065c acbc d053 d7bd 566c bdbd 16c4 d93c
00000290: c6a8 e53d 5948 3d3c 4774 823d 8df6 e0bd
000002a0: f844 c2bd 3b44 27bd 7ef8 07bd 6854 d1bd
000002b0: 78f7 a23c 5452 023e 77ac 9d3c a9e2 e03c
000002c0: ceca c03d 8d2c 9bbd 6cf7 793c 055c 023d
000002d0: dade 63bd 244f c7bd 005c d2bd 16f3 efbc
000002e0: 6615 bf3d f274 a0bd 1c62 aabd 56cb 873d
000002f0: 4de3 d6bc 2a32 0f3d 93cc e1bd f3a6 ec3d
00000300: bf31 a5bb 540a 0fbd 0296 dd3d 8fe0 97bd
00000310: fdd4 9a3c f643 dc3d f932 843d 1df4 21bd
00000320: 74bf d039 d0fa 433d 2ace 7d3d 065c b9bd
00000330: d5f0 893d 68a1 0dbd 3aa8 a93d ebe6 b93d
00000340: 4f1c 883d 1742 913d 1e15 adbd c9cd f13c
00000350: fe2e 8bbd c1b3 db3d 8df0 c9bd 7207 d3bd
00000360: 451b 9a3b d05d 063e 7527 843c b5d9 cabd
00000370: e025 83bd e0f7 1b3c 0a5a afbd 1091 9a39
00000380: 7900 0a3d fea0 c7bd ff3d f2bd 26fa a3bc
00000390: ac87 a0bd 1cf5 c93d 9531 a1bd 45a1 9dbd
000003a0: 6a9d bcbd 8281 0dbd 8810 5cbd 0975 ba3d
000003b0: 4a9a f3bd 3ade d1bd 75da f83c 0a0c c53d
000003c0: d1b3 513d 5aa9 b4ba f2cb 69bd a304 e9bb
000003d0: 7b95 65bd c827 283d ea80 83bc 7640 1a3c
000003e0: f582 b4bc 3e3a 273d b915 b8bd daa9 debd
000003f0: 04e5 643d a181 d73d e3dd fabd c72e c0bc

bias_hh_l0 f4 [256]
-0.011164676 0.026656317 -0.012949947 0.064090215 -0.02347402 -0.045181893 -0.080818154 -0.067932546
-0.036564816 0.09840061 0.039089993 0.03667806 -0.019967724 -0.054169428 0.043258417 0.020447476
0.047129188 0.05394966 -0.116479054 0.074210376 0.10891011 0.06818444 -0.039694265 0.01689771
0.06450604 0.119732365 0.08053579 0.025273118 -0.060389843 0.07455993 -0.027477983 0.028461747
0.095291495 -0.113429815 0.08772505 0.06482864 -0.09477125 0.11474954 -0.1069157 -0.031404056
-0.014835957 0.03928088 -0.03820555 -0.078840174 0.027887143 0.06983141 -0.11888576 -0.081783816
-0.03105181 -0.05870102 -0.10479398 -0.015102245 0.0060904683 0.032476805 0.008191391 -0.11687731
-0.08541356 -0.085185625 -0.010290277 0.04174122 -0.090739645 0.0075034606 -0.13159654 -0.05640437
0.07378406 0.10662942 -0.07749609 0.11669554 -0.0023153147 0.04891047 0.12141563 -0.08790791
0.09556174 0.0058298646 0.12089993 -0.03708665 -0.06043218 -0.12794214 0.103424616 0.06424172
0.11022381 0.103692 0.062287167 -0.007409062 -0.12296936 -0.1138226 0.049343646 0.11037431
-0.00018240348 -0.029732002 0.007920611 0.031446565 -0.083090626 0.09302489 -0.10462449 0.08959363
-0.008209063 -0.030959757 -0.074953176 0.104199514 0.09727134 -0.036598697 -0.010924673 -0.0607726
-0.055312097 0.10981404 -0.060724113 0.035936814 -0.01832564 -0.035325848 -0.098301195 0.104061216
-0.05474647 0.0080303475 0.025998332 -0.05857336 -0.05919209 -0.06148705 0.068992704 -0.053134233
-0.046836916 0.06510512 -0.10765644 0.0771328 -0.09861175 -0.01105586 0.0004846885 -0.0069604055
-0.10454563 -0.06170288 -0.04367897 -0.024157792 0.10613508 0.0047519733 -0.12944946 0.09628138
-0.0033544095 0.0014305797 0.061178397 -0.12597279 0.08479309 0.10914111 -0.074388444 -0.025986645
0.0516696 0.039289735 0.0010147912 -0.10411015 0.07889192 0.027901225 -0.05899404 -0.05955042
0.0561738 0.07221183 0.009428989 0.047351547 0.08130065 -0.020830689 -0.0010450392 0.016572889
-0.030173926 0.12598315 0.08537021 0.053260505 -0.07271056 0.018294346 -0.053450607 0.07860119
0.115106 0.04779454 0.012323368 0.024580847 0.07064831 -0.11365382 0.083790176 -0.07784572
0.1129258 -0.05997516 0.037704423 0.040163446 0.09256155 0.008298153 0.045189325 -0.020018866
0.04550504 -0.056705438 -0.044913586 -0.093557686 -0.116389975 -0.11551309 -0.083072685 -0.010931956
-0.052243702 0.09966701 -0.13053843 0.117952295 0.11180928 0.040560976 -0.09641931 0.0077101933
0.08397533 -0.012619311 -0.007551858 0.094222605 -0.02508304 -0.088024594 -0.0938945 0.06208112
0.07416657 -0.094818674 -0.054403484 0.12918018 -0.017749947 0.06628736 0.067058325 -0.026761303
-0.10190949 0.05110903 -0.07393664 0.07908147 0.03432129 0.08477405 0.07394673 -0.030128542
-0.11827887 0.059300844 -0.070619665 -0.108541645 -0.075902134 0.03397949 0.08073258 -0.023204368
0.011200507 0.07063837 -0.12935771 -0.06467494 0.013423157 -0.11566214 -0.0926046 0.033675462
-0.083631344 0.050689433 0.114868976 -0.08670474 0.013374094 0.040322512 0.03360499 0.08702334
-0.08226811 -0.074796915 -0.044709615 -0.062747866 -0.03499973 -0.012849437 0.0647996 -0.11407855
00000000: 0cec 36bc 595e da3c 042c 54bc bb41 833d
00000010: 974c c0bc a610 39bd fd83 a5bd 3820 8bbd
00000020: fdc4 15bd 4286 c93d d41c 203d bc3b 163d
00000030: 5a93 a3bc c3e0 5dbd bd2f 313d 7781 a73c
00000040: 890a 413d 52fa 5c3d 928c eebd 9cfb 973d
00000050: 440c df3d 49a4 8b3d 7496 22bd 116d 8a3c
00000060: be1b 843d 3e36 f53d f3ef a43d 9209 cf3c
00000070: 575b 77bd e0b2 983d 8219 e1bc 9c28 e93c
00000080: 3028 c33d e44d e8bd 31a9 b33d e1c4 843d
00000090: 6e17 c2bd cf01 eb3d 9ef6 dabd 8aa1 00bd
000000a0: 8412 73bc fde4 203d 6c7d 1cbd f576 a1bd
000000b0: 9473 e43c c503 8f3d 617a f3bd 467e a7bd
000000c0: 5e60 febc 7b70 70bd 3a9e d6bd 686f 77bc
000000d0: 8d92 c73b 6606 053d 2f35 063c 5f5d efbd
000000e0: 4eed aebd cd75 aebd 8d98 28bc d7f8 2a3d
000000f0: b5d5 b9bd 97df f53b 3ec1 06be 4508 67bd
00000100: 191c 973d 8660 da3d 45b6 9ebd 12fe ee3d
00000110: 89bc 17bb 5856 483d c2a8 f83d 1009 b4bd
00000120: e0b5 c33d 7308 bf3b 629a f73d 2ce8 17bd
00000130: bc87 77bd 4403 03be 49d0 d33d 2a91 833d
00000140: 05bd e13d 795c d43d d420 7f3d b7c7 f2bb
00000150: 5cd7 fbbd d31b e9bd 901c 4a3d ed0b e23d
00000160: 9043 3fb9 8790 f3bc 73c5 013c 1dce 003d
00000170: 6b2b aabd d583 be3d 5d45 d6bd dd7c b73d
00000180: 4e7f 06bc 519f fdbc 0d81 99bd 8e66 d53d
00000190: 3236 c73d 84e8 15bd 66fd 32bc b1ec 78bd
000001a0: f08e 62bd 2fe6 e03d d9b9 78bd 7b32 133d
000001b0: a71f 96bc d6b1 10bd 2352 c9bd 0c1e d53d
000001c0: d63d 60bd b891 033c 74fa d43c 9fea 6fbd
000001d0: 6873 72bd d8d9 7bbd 0c4c 8d3d 48a3 59bd
000001e0: 11d8 3fbd d555 853d fb7a dcbd cdf7 9d3d
000001f0: f5f4 c9bd a323 35bc ca1d fe39 1d14 e4bb
00000200: 051c d6bd 29bc 7cbd b8e8 32bd 90e6 c5bc
00000210: 595d d93d 71b6 9b3b 668e 04be 2c2f c53d
00000220: a7d5 5bbb 4a82 bb3a 3396 7a3d 03ff 00be
00000230: 00a8 ad3d 6085 df3d f858 98bd f2e1 d4bc
00000240: 81a3 533d 46ee 203d be02 853a b437 d5bd
00000250: 1692 a13d 1c91 e43c bca3 71bd 24eb 73bd
00000260: 8016 663d cce3 933d 0c7c 1a3c b2f3 413d
00000270: f580 a63d 1fa5 aabc b2f9 88ba dec3 873c
00000280: 4f2f f7bc ba01 013e 94d6 ae3d b027 5a3d
00000290: 46e9 94bd 06de 953c 06ef 5abd a9f9 a03d
000002a0: b2bc eb3d 35c4 433d f4e7 493c c65d c93c
000002b0: 10b0 903d 55c3 e8bd 2f9a ab3d 946d 9fbd
000002c0: a445 e73d 83a8 75bd f46f 1a3d 6d82 243d
000002d0: e990 bd3d faf4 073c 7118 393d 9bfe a3bc
000002e0: 7e63 3a3d f643 68bd 4ff7 37bd 2c9b bfbd
000002f0: de5d eebd 2092 ecbd 0322 aabd f21b 33bc
00000300: 7efd 55bd 381e cc3d deab 05be f990 f13d
00000310: 44fc e43d 4423 263d 7d77 c5bd caa5 fc3b
00000320: 42fb ab3d 3ac1 4ebc 9475 f7bb c8f7 c03d
00000330: f37a cdbc 3d46 b4bd c24b c0bd c648 7e3d
00000340: a5e4 973d 4b30 c2bd 30d6 5ebd cf47 043e
00000350: 5668 91bc abc1 873d e055 893d 853a dbbc
00000360: ecb5 d0bd b457 513d 186c 97bd 77f5 a13d
00000370: 7b94 0c3d 049e ad3d 6271 973d 22d0 f6bc
00000380: 313c f2bd 71e5 723d 0ba1 90bd 154b debd
00000390: 9472 9bbd 142e 0b3d 1f57 a53d 1617 bebc
000003a0: 5582 373c daaa 903d 5976 04be 4c74 84bd
000003b0: cdec 5b3c 46e0 ecbd 7ba7 bdbd 48ef 093d
000003c0: e946 abbd b99f 4f3d 6d40 eb3d 4192 b1bd
000003d0: 041f 5b3c 3829 253d 63a5 093d 4b39 b23d
000003e0: 2f7c a8bd 202f 99bd 6e21 37bd f481 80bd
000003f0: e05b 0fbd 7286 52bc a7b5 843d 04a2 e9bd

weight f4 [32, 64]
-0.04365494 0.043649137 0.11127245 0.12760527 -0.069360755 0.069519386 0.08586826 -0.045056954
0.0064453497 0.02842376 -0.055905275 -0.082030706 -0.08069392 0.04767096 0.111754626 -0.084125705
-0.001749825 0.09164388 0.12577866 0.015630651 -0.005868624 -0.09297623 -0.10305286 -0.111324
-0.08470305 0.007825963 -0.073619 0.08109967 0.121622816 -0.10766235 -0.088475354 -0.037544932
0.0029527945 0.09486894 -0.10202058 -0.063485526 0.0134405745 -0.09063616 -0.092311166 -0.11236218
0.07268767 0.021726158 0.105011 0.107990876 -0.092551194 0.11832228 -0.07150278 -0.0981771
-0.04392613 -0.110516325 -0.011808438 0.11575545 0.11695483 -0.0713073 -0.008240295 -0.07324642
-0.004836831 -0.08610334 0.016149137 -0.07001201 0.058805544 -0.08998532 -0.057619665 -0.11900746
-0.03179834 0.06873671 -0.024882937 -0.10998528 0.06426988 0.041521605 -0.06940357 0.05026858
0.035543658 -0.027966963 0.062181454 -0.06325057 0.016548093 0.08131063 -0.06723991 0.025386276
-0.06925011 0.033987876 0.014637765 0.025295444 0.020585865 0.11255553 -0.043942876 -0.12369918
-0.031859998 0.06887594 -0.086849004 -0.08868411 0.10698635 0.07699447 0.018552484 -0.07318334
-0.12259404 0.0999245 -0.09144074 0.021828828 0.022407433 0.07290891 0.10787571 -0.10075324
-0.07419126 -0.031660862 -0.11793043 0.048791625 -0.007318422 -0.08251866 -0.004565674 0.013840215
0.12455794 0.0922805 -0.11685738 -0.08592571 -0.018462565 -0.10842908 0.01679258 0.0940913
0.09492836 0.10060305 0.084471375 -0.09735161 -0.074041635 0.031045007 -0.03515068 -0.12856345
-0.045876227 0.10026533 -0.09648539 -0.06757751 0.0052019954 0.12617308 -0.08826396 0.12805158
0.0128341 -0.0052064154 0.06395651 -0.085409306 -0.0052701314 0.11663392 -0.040269196 -0.11034896
-0.11775057 0.066231355 -0.02561257 -0.10391955 0.09965858 -0.11363421 0.08807422 -0.013345683
-0.00064057723 -0.09133086 0.0003704524 -0.113314934 -0.018958269 -0.017970506 0.07434784 0.0019823357
0.09958572 -0.09025258 0.112208866 0.03776445 -0.067268945 -0.123481065 0.08114312 -0.03746916
0.035512913 0.036117442 -0.100862764 0.114587195 0.095062524 0.050754752 -0.039703373 -0.013562083
0.11416738 0.08025609 0.0046263426 0.027450552 0.09286104 0.041433852 0.11558639 -0.10150308
0.09904498 0.02931228 -0.013259608 -0.06937348 -0.1143375 0.03335924 0.112434804 -0.0011379065
0.072874784 0.09958914 -0.029012194 0.024193585 -0.029694356 0.07911615 -0.005006865 -0.03254909
-0.11936949 -0.053586088 -0.05716698 -0.020183908 0.10523648 0.0013679947 0.040920787 0.0044350266
0.06879238 0.11191886 0.06193963 0.03791266 -0.12133609 -0.078114495 0.10389848 -0.05300072
-0.019252831 -0.014317615 0.068534985 -0.09515177 0.07352894 0.06909849 0.009902917 -0.07598387
-0.102836154 -0.001781207 0.07683342 0.066605054 0.06278647 0.11738737 -0.08334148 -0.010281996
-0.024311677 0.042847462 -0.032405965 0.07850917 0.093048245 0.025271941 0.09607106 -0.07192726
-0.073360346 0.013194938 -0.004102467 0.09708614 0.06742106 -0.01010186 -0.019672208 -0.0035649424
0.085423775 -0.094076715 -0.068230286 -0.0050499146 -0.03912002 0.041140765 -0.039076816 0.08297387
00000000: 86cf 32bd 70c9 323d cfe2 e33d f5aa 023e
00000010: 030d 8ebd 2e60 8e3d b3db af3d a48d 38bd
00000020: 8333 d33b f2d8 e83c eefc 64bd b7ff a7bd
00000030: db42 a5bd a042 433d 9cdf e43d 194a acbd
00000040: 625a e5ba c9af bb3d 1fcc 003e da0b 803c
00000050: 964d c0bb 526a bebd 610d d3bd d6fd e3bd
00000060: cb78 adbd 7838 003c 8fc5 96bd 9517 a63d
00000070: 6215 f93d 147e dcbd 9132 b5bd b7c8 19bd
00000080: ac83 413b a64a c23d 2af0 d0bd b304 82bd
00000090: db35 5c3c 739f b9bd a30d bdbd 251e e6bd
000000a0: 46dd 943d 0efb b13c 0210 d73d 522a dd3d
000000b0: 7b8b bdbd f452 f23d 0d70 92bd 1311 c9bd
000000c0: e3eb 33bd 6256 e2bd 2e78 41bc 3211 ed3d
000000d0: 0486 ef3d 9009 92bd 4d02 07bc 3802 96bd
000000e0: 477e 9ebb f356 b0bd 324b 843c 7562 8fbd
000000f0: 15de 703d 394a b8bd 9902 6cbd 2fba f3bd
00000100: fa3e 02bd d5c5 8c3d 4dd7 cbbc f63f e1bd
00000110: ed9f 833d 8f12 2a3d 7523 8ebd 6de6 4d3d
00000120: 3a96 113d f91a e5bc fbb1 7e3d 8489 81bd
00000130: de8f 873c 3086 a63d 14b5 89bd e1f6 cf3c
00000140: 00d3 8dbd df36 0b3d 3cd3 6f3c 6438 cf3c
00000150: b0a3 a83c 8483 e63d 72fd 33bd ff55 fdbd
00000160: a17f 02bd d40e 8d3d e4dd b1bd 04a0 b5bd
00000170: a91b db3d 47af 9d3d 61fb 973c 26e1 95bd
00000180: 9612 fbbd 37a5 cc3d 4845 bbbd 5fd2 b23c
00000190: cb8f b73c 4451 953d f1ed dc3d b757 cebd
000001a0: 96f1 97bd d2ae 01bd 8285 f1bd bad9 473d
000001b0: 60cf efbb 8bff a8bd a69b 95bb 12c2 623c
000001c0: 3c18 ff3d 8ffd bc3d ec52 efbd d2f9 afbd
000001d0: ce3e 97bc 1110 debd 9890 893c f1b2 c03d
000001e0: cd69 c23d f908 ce3d 54ff ac3d 4860 c7bd
000001f0: 24a3 97bd 1952 fe3c 29fa 0fbd 23a6 03be
00000200: b6e8 3bbd e957 cd3d 229a c5bd 1466 8abd
00000210: 8075 aa3b 8433 013e bcc3 b4bd f41f 033e
00000220: 1e46 523c 949a aabb a1fb 823d 13eb aebd
00000230: 11b1 acbb c4dd ee3d 50f1 24bd a3fe e1bd
00000240: 3627 f1bd 4ea4 873d 74d1 d1bc c6d3 d4bd
00000250: cc19 cc3d 0db9 e8bd 4260 b43d daa7 5abc
00000260: 69ec 27ba ad0b bbbd 4839 c239 a911 e8bd
00000270: 5f4e 9bbc e236 93bc ae43 983d 13ea 013b
00000280: 99f3 cb3d 58d6 b8bd c3cd e53d e5ae 1a3d
00000290: 4dc4 89bd a4e3 fcbd 5d2e a63d 4379 19bd
000002a0: fd75 113d e2ef 133d 2391 cebd b1ac ea3d
000002b0: 24b0 c23d 37e4 4f3d 01a0 22bd 8033 5ebc
000002c0: 96d0 e93d 4e5d a43d 9398 973b fbdf e03c
000002d0: ee2d be3d 8bb6 293d 8fb8 ec3d d9e0 cfbd
000002e0: 18d8 ca3d 4e20 f03c d43e 59bc af13 8ebd
000002f0: c729 eabd b3a3 083d 3844 e63d ce25 95ba
00000300: 603f 953d 64f5 cb3d fbaa edbc a031 c63c
00000310: 9441 f3bc a607 a23d a110 a4bb 3252 05bd
00000320: fe77 f4bd 167d 5bbd ec27 6abd b958 a5bc
00000330: 3986 d73d 494e b33a 8e9c 273d b353 913b
00000340: 05e3 8c3d b735 e53d 69b4 7d3d 4e4a 1b3d
00000350: 0e7f f8bd 7efa 9fbd bac8 d43d 4817 59bd
00000360: 1db8 9dbc 6e94 6abc 125c 8c3d eede c2bd
00000370: 5796 963d 8283 8d3d d83f 223c 6e9d 9bbd
00000380: c39b d2bd 6477 e9ba d75a 9d3d 3b68 883d
00000390: 3196 803d ca68 f03d f0ae aabd d175 28bc
000003a0: 4829 c7bc d280 2f3d 1ebc 04bd 6ac9 a03d
000003b0: 1490 be3d 1a07 cf3c e7c0 c43d 994e 93bd
000003c0: f33d 96bd 952f 583c fd6d 86bb 19d5 c63d
000003d0: 0d14 8a3d 4682 25bc 9c27 a1bc cfa1 69bb
000003e0: a9f2 ae3d 4bab c0bd 52bc 8bbd c179 a5bb
000003f0: 503c 20bd 3883 283d 030f 20bd 34ee a93d

bias f4 [32]
-0.015876753 0.07843708 -0.059727106 -0.09939389 0.05779116 -0.07165237 -0.007418449 0.04319993
0.1263421 0.038843527 0.093319595 0.0442522 -0.013517912 0.0043641995 -0.08583313 -0.07450372
-0.10047079 0.026587468 0.08529166 -0.061694447 -0.113285154 -0.12541552 -0.109770596 0.004296195
0.03166333 0.001698877 -0.099417485 -0.12009336 -0.073351264 -0.089051455 0.07378075 -0.080012895
00000000: f70f 82bc 9fa3 a03d 69a4 74bd 068f cbbd
00000010: 6cb6 6c3d 7abe 92bd 7616 f3bb 69f2 303d
00000020: d35f 013e 641a 1f3d 581e bf3d cb41 353d
00000030: 3b7a 5dbc 8f01 8f3b 48c9 afbd 6895 98bd
00000040: a1c3 cdbd f6cd d93c 65ad ae3d 51b3 7cbd
00000050: 0c02 e8bd ed6c 00be 68cf e0bd 19c7 8c3b
00000060: 68b1 013d daac de3a 659b cbbd 82f3 f5bd
00000070: 3039 96bd 9c60 b6bd 5d1a 973d cddd a3bd

weight f4 [6, 32]
-0.17798254 -0.09357666 -0.14043184 -0.053901542 -0.11445634 -0.15499015 0.17094167 -0.012640832
-0.058945477 -0.15043661 -0.09236102 -0.100915276 -0.14564756 0.11882551 -0.034672502 0.14122114
0.11965909 0.12471304 -0.03770314 0.012385018 -0.1632652 -0.08184964 -0.16009319 -0.07699324
0.15226778 0.082844734 0.15858231 0.015401468 -0.019697161 -0.051024392 -0.08557119 -0.15458994
0.061436493 -0.13817745 -0.061579313 0.118258014 0.008635456 0.00083832163 0.04513412 0.04327697
0.06268146 0.13555416 0.019236596 0.07135963 -0.16906913 0.12165653 0.0052639362 0.038799115
-0.007410935 -0.09649177 0.1466442 -0.13196023 0.059977196 0.031094188 0.10287538 -0.12856464
0.009612143 0.020538209 0.073597446 0.14345868 -0.10979086 -0.035614595 0.11812499 0.02245521
-0.17031722 -0.04455219 -0.15521051 0.095442146 0.06343517 0.11906197 0.16286878 -0.030878529
-0.1516726 0.17027833 -0.0016302178 -0.10984167 -0.0961126 0.083092764 -0.07676947 0.12549841
-0.1524318 -0.06786304 0.1549182 0.10917266 -0.09371867 0.16696225 0.0011336224 -0.0511559
0.16934495 -0.14642116 -0.09135511 0.14982446 0.020711021 -0.1116422 -0.1320927 0.1428521
-0.041881636 -0.16850968 -0.13675614 -0.14708608 0.05391176 -0.14057848 0.07500119 -0.05765985
-0.11132499 0.11676831 0.021339785 -0.08071799 -0.111630045 0.16049051 0.16047937 0.13211465
-0.09811523 0.15849721 0.110525414 -0.03210896 -0.07448798 0.1575697 -0.12161425 0.1736124
-0.0338791 0.16437533 0.06210698 0.11620949 0.107009314 0.02106002 0.109691635 -0.08042782
-0.057737503 -0.15529308 0.10939473 0.11945076 -0.0665527 -0.08575656 0.0016735848 0.020305736
0.025186367 -0.01866687 0.034335084 -0.16727981 0.056307647 0.15882152 0.011210567 -0.07081815
0.10196799 -0.15036227 0.08821013 -0.11595895 -0.09712827 0.1378842 -0.009754879 -0.113672815
-0.04214355 -0.08666547 -0.1016184 -0.043044433 -0.060556054 0.16937582 -0.17528564 -0.15203783
0.14343229 -0.16273436 0.029332075 -0.12536801 0.14166394 0.1720139 -0.17449822 -0.08335768
-0.059900224 0.056667343 -0.062651716 -0.1711094 -0.021984968 0.1402487 -0.07752451 -0.14758603
0.046059065 0.079956874 0.03120047 0.080330454 -0.020070624 0.14404769 -0.003507272 -0.09233966
0.14833765 0.041842762 0.010685577 0.16892304 0.06441958 -0.14745884 -0.05943629 0.013955605
00000000: 0e41 36be 1fa5 bfbd 5dcd 0fbe ddc7 5cbd
00000010: 1668 eabd bdb5 1ebe 550b 2f3e 7e1b 4fbc
00000020: d070 71bd 0e0c 1abe c627 bdbd abac cebd
00000030: a224 15be ca5a f33d c104 0ebd 469c 103e
00000040: d30f f53d 8d69 ff3d 9c6e 1abd 88ea 4a3c
00000050: fe2e 27be c9a0 a7bd 78ef 23be a2ae 9dbd
00000060: 16ec 1b3e 80aa a93d 6763 223e 7056 7c3c
00000070: f15b a1bc f4fe 50bd f33f afbd d34c 1ebe
00000080: d5a4 7b3d 647e 0dbe 973a 7cbd 4231 f23d
00000090: ba7b 0d3c d0c2 5b3a 8ede 383d 3143 313d
000000a0: 235f 803d b6ce 0a3e 1196 9d3c ff24 923d
000000b0: 7520 2dbe 0f27 f93d 197d ac3b d2eb 1e3d
000000c0: 6ed7 f2bb 7a9d c5bd e629 163e 9520 07be
000000d0: a6aa 753d 3db9 fe3c 54b0 d23d 73a6 03be
000000e0: 407c 1d3c bf3f a83c 42ba 963d d5e6 123e
000000f0: 08da e0bd 9ce0 11bd 84eb f13d fdf3 b73c
00000100: a367 2ebe 5b7c 36bd 81ef 1ebe 2c77 c33d
00000110: 4cea 813d c3d6 f33d 13c7 263e f8f4 fcbc
00000120: 1050 1bbe 715d 2e3e 08ad d5ba abf4 e0bd
00000130: afd6 c4bd 8a2c aa3d 5039 9dbd a882 003e
00000140: 1517 1cbe c7fb 8abd e0a2 1e3e ea95 df3d
00000150: 93ef bfbd 27f8 2a3e 0e96 943a d988 51bd
00000160: c368 2d3e 6eef 15be 6318 bbbd 956b 193e
00000170: 29aa a93c aaa4 e4bd 4f43 07be d247 123e
00000180: 148c 2bbd cd8d 2cbe cd09 0cbe bc9d 16be
00000190: 94d2 5c3d cef3 0fbe 399a 993d bc2c 6cbd
000001a0: 5bfe e3bd 3924 ef3d c6d0 ae3c 794f a5bd
000001b0: 4b9e e4bd a057 243e b454 243e 1049 073e
000001c0: a3f0 c8bd 184d 223e 265b e23d af84 03bd
000001d0: 278d 98bd f459 213e e410 f9bd 73c7 313e
000001e0: d0c4 0abd 0252 283e e363 7e3d 3eff ed3d
000001f0: b327 db3d 1086 ac3c 02a6 e03d 57b7 a4bd
00000200: 297e 6cbd 2605 1fbe 580a e03d 9aa2 f43d
00000210: c84c 88bd 23a1 afbd 305c db3a 3758 a63c
00000220: a453 ce3c 44eb 98bc f2a2 0c3d 664b 2bbe
00000230: d9a2 663d 1ca2 223e 87ac 373c 1b09 91bd
00000240: 98d4 d03d 91f8 19be 83a7 b43d e37b edbd
00000250: 30eb c6bd 8431 0d3e eed2 1fbc 4bcd e8bd
00000260: b79e 2cbd aa7d b1bd 4f1d d0bd 5c4f 30bd
00000270: a009 78bd db70 2d3e 147e 33be ceaf 1bbe
00000280: eadf 123e d6a3 26be d249 f03c 7960 00be
00000290: 5a10 113e 6924 303e a9af 32be 6eb7 aabd
000002a0: f059 75bd 041c 683d 8b4f 80bd 4d37 2fbe
000002b0: d219 b4bc 5b9d 0f3e 2cc5 9ebd cb20 17be
000002c0: 6ea8 3c3d 6ec0 a33d 2198 ff3c 4b84 a43d
000002d0: 266b a4bc 3d81 133e 43da 65bb 931c bdbd
000002e0: d3e5 173e 5163 2b3d 8f12 2f3c 29fa 2c3e
000002f0: 6aee 833d 73ff 16be 7873 73bd 0da6 643c

bias f4 [6]
0.03516016 0.03328976 -0.0068528973 -0.13802557 0.01449515 0.07826227
00000000: 1a04 103d d85a 083d 458e e0bb 9356 0dbe
00000010: 117d 6d3c f847 a03d

weight f4 [2, 32]
0.036579978 0.1391317 0.16029511 0.17142203 -0.06800759 -0.09286049 -0.030144501 -0.10560389
-0.09739673 -0.14268564 -0.047026 -0.1507719 0.17444539 -0.16570619 0.14638768 0.03510472
0.0756624 0.17248693 0.02352888 0.01926674 0.15508477 -0.093289606 0.020118495 0.10148893
-0.037277654 0.12422194 0.1553823 0.007947847 0.11093536 0.16795929 0.078845896 -0.039031126
0.10427612 0.041066308 0.16068932 -0.058422145 0.03735138 -0.09272738 0.11204762 -0.119447395
-0.029459668 0.01098941 -0.14220993 0.14389703 0.112805955 -0.05835995 -0.035709545 -0.16394436
-0.1362239 0.11721296 0.024619455 -0.15026382 -0.0021443781 -0.071232595 -0.036345985 0.054534197
0.056632414 -0.10858382 0.15544465 -0.00734815 0.0443581 -0.082488775 -0.14802186 0.031977467
00000000: e3d4 153d 8a78 0e3e 6724 243e 4289 2f3e
00000010: 9047 8bbd a42d bebd 9af1 f6bc da46 d8bd
00000020: f077 c7bd 2f1c 12be 569e 40bd f363 1abe
00000030: d0a1 323e e2ae 29be a7e6 153e f8c9 0f3d
00000040: e3f4 9a3d 6aa0 303e a3bf c03c 48d5 9d3c
00000050: 8bce 1e3e 9f0e bfbd 8bcf a43c 6ed9 cf3d
00000060: 74b0 18bd 1368 fe3d 8a1c 1f3e b037 023c
00000070: 1432 e33d 85fd 2b3e f579 a13d 1adf 1fbd
00000080: b88e d53d 2535 283d be8b 243e 0f4c 6fbd
00000090: c3fd 183d dae7 bdbd 3979 e53d d6a0 f4bd
000000a0: 6755 f1bc ed0c 343c 7b9f 11be be59 133e
000000b0: cf06 e73d d80a 6fbd 2c44 12bd 08e1 27be
000000c0: 477e 0bbe 590d f03d bdae c93c c2de 19be
000000d0: b288 0cbb 65e2 91bd 87df 14bd 405f 5f3d
000000e0: 64f7 673d 3261 debd e22c 1f3e c0c8 f0bb
000000f0: d7b0 353d e0ef a8bd 0b93 17be cefa 023d

bias f4 [2]
-0.0776786 0.0012317173
00000000: f515 9fbd 9371 a13a

weight f4 [1, 32]
-0.072846055 0.10720915 0.102456786 0.17120746 -0.031033417 0.10465862 -0.10132546 0.018847583
0.13108695 -0.052378375 -0.048626225 0.10953961 0.051827855 -0.0031651147 0.084260784 0.048263818
0.1546098 -0.12200858 0.086003564 -0.13471046 -0.038133387 -0.046383776 0.18037103 -0.054489907
-0.11889106 0.1105391 0.07605469 0.022664443 -0.14896433 -0.10133592 -0.039299667 -0.030289209
00000000: 5030 95bd 7990 db3d ddd4 d13d 0251 2f3e
00000010: cb39 febc 4257 d63d b983 cfbd 3f66 9a3c
00000020: a83b 063e b58a 56bd 4b2c 47bd 4e56 e03d
00000030: 7249 543d d06d 4fbb eb90 ac3d 48b0 453d
00000040: 0852 1e3e a2df f9bd a322 b03d 8af1 09be
00000050: c131 1cbd eafc 3dbd 2fb3 383e cf30 5fbd
00000060: 287d f3bd 5362 e23d 90c2 9b3d c8aa b93c
00000070: 1b8a 18be 3589 cfbd b0f8 20bd 1321 f8bc

exp_avg f4 [256, 25]
2.9196788e-05 -0.00016890229 4.9291273e-05 -5.5193064e-05 0.00010479805 3.7070226e-05 0.00012757386 0.00017264858
1.8362169e-06 -3.0142266e-07 -1.1623283e-06 1.2852848e-06 -9.95623e-06 -5.5948276e-06 1.3262285e-05 -3.986407e-06
-8.765762e-06 7.836081e-05 -1.6540946e-05 3.7017875e-05 -0.00034764767 -2.4977991e-05 -0.00012760334 -0.00025969069
2.8055234e-05 2.6406693e-05 0.0001649466 -1.8041674e-05 0.00025826288 7.726954e-07 0.00014292423 -6.640063e-05
0.00021062579 1.2307041e-06 6.233027e-07 3.38627e-07 1.5349286e-05 1.0476481e-05 2.5046575e-05 2.8757406e-05
-1.5289023e-06 3.9844694e-05 0.0007384188 0.00016322275 0.0003110201 0.0003098663 3.3491488e-05 0.00012820939
0.00017932412 0.00027313092 3.8339927e-06 0.00015355533 -3.5222274e-05 0.0002205322 -4.7886283e-06 7.107052e-05
-7.582384e-05 0.0002947201 -1.8678602e-06 -4.035755e-07 8.679538e-06 6.182739e-05 9.56517e-06 5.0779996e-05
4.0143947e-05 -3.3821058e-07 6.674625e-05 0.0012505756 0.00026424797 0.00041497505 0.00041675338 3.6904716e-05
9.3577924e-05 0.00021353175 0.00042366653 -0.00011630185 -0.00060317386 -2.4509118e-05 -0.0004826135 -6.999472e-05
-0.00038117665 8.538358e-05 -0.00052671507 -6.7852416e-06 -1.0259296e-06 -2.2250308e-05 -7.285429e-05 -2.9324345e-05
-9.164146e-05 -9.6724e-05 -1.233733e-06 -5.672754e-05 -0.0018484934 -0.00033898058 -0.0007407972 -0.0005548059
-1.673472e-05 -0.00016926725 -0.00046676153 -0.00063742604 1.3295889e-05 -6.810996e-05 4.407419e-06 -6.104641e-05
-2.6352764e-06 -1.2684397e-05 1.1122695e-05 9.885386e-06 -1.8418866e-06 -1.285449e-06 -9.5893874e-08 -1.3459354e-05
-1.0462429e-05 2.290935e-06 -9.845791e-06 -8.365812e-06 -7.697508e-06 4.3952405e-05 -1.9476649e-05 -8.632409e-06
-9.610981e-05 -6.156963e-06 -3.9162896e-06 -8.2105405e-05 1.6651642e-05 -0.00014689486 -0.0013331522 2.5662774e-05
-0.0014311088 -3.739493e-05 -0.0008376507 0.0002561999 -0.001151669 -2.4920113e-05 -3.0458962e-06 -1.7614197e-05
-0.00015534014 -3.41924e-05 -0.00019618939 -0.00028593725 -1.3514864e-06 -0.00018527907 -0.0043075774 -0.0008216052
-0.0019222506 -0.0015698827 -0.000116446085 -0.0003328775 -0.001297392 -0.0015368906 1.3176001e-05 1.3909165e-05
2.8469157e-07 -2.9775685e-05 -1.2392469e-05 -7.62977e-05 -2.2554666e-05 -5.5708217e-05 1.1980632e-06 -1.6215207e-06
-1.7516817e-06 -1.6725855e-05 -9.0668445e-06 4.202153e-05 -2.2800608e-05 -3.6243684e-06 1.7597013e-06 -6.313719e-05
-1.5752088e-05 -9.720407e-06 1.8397343e-05 -9.7125385e-06 -3.5810648e-05 5.6814282e-05 -1.949953e-05 -1.9148678e-05
-0.00040689242 3.3652734e-05 -0.00031280963 -5.4775635e-05 -8.096941e-05 0.00013313217 -0.00033914397 1.2275744e-06
1.5724414e-06 -1.4909314e-05 -5.894289e-05 -1.7727809e-05 -0.00014722865 -7.64137e-05 3.5439436e-06 -8.026784e-05
-0.0014722883 -0.0003040685 -0.0006062062 -0.0006328021 -4.3673376e-07 -7.208587e-05 -0.00050008844 -0.00049835414
4.705591e-05 0.00041561914 -3.5880423e-06 0.0002821646 -3.258279e-05 0.00024682467 -8.055276e-05 0.00026643393
4.481665e-06 3.3884925e-07 5.3546564e-06 5.4718348e-05 9.250592e-06 4.3216107e-05 9.108708e-05 -5.5862324e-07
1.0313071e-05 0.0015126943 0.00022973245 0.0005416436 0.00023328295 2.935475e-05 9.7552496e-05 0.00033447324
0.0005164672 -8.4858575e-06 -0.0002109661 1.550283e-05 -7.106918e-05 5.597791e-05 -0.00014933746 5.6431098e-05
-6.7946436e-05 -4.6297964e-06 4.318174e-07 -2.4745984e-06 -3.249867e-05 -2.5080385e-06 7.516713e-06 -5.4836775e-05
1.2600965e-06 2.2700453e-05 -0.00088469987 -0.00011960048 -0.00028313 -2.439963e-05 -2.943592e-05 -8.448033e-05
-0.00010943287 -0.00030559787 -0.000112083595 -0.0010308314 0.00010653886 -0.001239818 5.6375688e-05 -0.00047013356
00000000: a0eb f437 5d1b 31b9 1abe 4e38 1a7f 67b8
00000010: 06c7 db38 da7b 1b38 59c5 0539 0009 3539
00000020: ef73 f635 37d3 a1b4 4c01 9cb5 0d82 ac35
00000030: af09 27b7 34bb bbb6 1581 5e37 fac2 85b6
00000040: a910 13b7 a455 a438 69c1 8ab7 a443 1b38
00000050: 7b44 b6b9 d487 d1b7 43cd 05b9 1827 88b9
00000060: 2858 eb37 f183 dd37 84f5 2c39 3358 97b7
00000070: 7567 8739 396b 4f35 eedd 1539 9140 8bb8
00000080: 6edb 5c39 ac2e a535 0951 2735 8acc b534
00000090: 57c2 8037 25c4 2f37 1c1b d237 0f3c f137
000000a0: af34 cdb5 ea1e 2738 7292 413a c626 2b39
000000b0: 6910 a339 8d75 a239 3679 0c38 f26f 0639
000000c0: f408 3c39 0333 8f39 bfa5 8036 b203 2139
000000d0: a1bb 13b8 a93e 6739 01ae a0b6 b20b 9538
000000e0: 9d03 9fb8 aa84 9a39 30b3 fab5 ffaa d8b4
000000f0: 559e 1137 54a9 8138 187a 2037 9bfc 5438
00000100: 3c60 2838 4f93 b5b4 1ffa 8b38 5bea a33a
00000110: c38a 8a39 0291 d939 b17f da39 23ca 1a38
00000120: 443f c438 7ee7 5f39 8f1f de39 15e7 f3b8
00000130: 501e 1eba ee98 cdb7 4a07 fdb9 21ca 92b8
00000140: aad8 c7b9 f60f b338 4013 0aba c8ac e3b6
00000150: acb2 89b5 2ca6 bab7 59c9 98b8 8dfd f5b7
00000160: a22f c0b8 4dd8 cab8 be96 a5b5 bbee 6db8
00000170: 2549 f2ba 34b9 b1b9 0f32 42ba 6570 11ba
00000180: 8a61 8cb7 557d 31b9 acb7 f4b9 f018 27ba
00000190: 6911 5f37 42d6 8eb8 71e3 9336 0b06 80b8
000001a0: b4d9 30b6 12cf 54b7 9c9b 3a37 69d9 2537
000001b0: be36 f7b5 b187 acb5 37ee cdb3 7ccf 61b7
000001c0: ca87 2fb7 f7bd 1936 5a2f 25b7 e45a 0cb7
000001d0: 8c24 01b7 8959 3838 c961 a3b7 ead3 10b7
000001e0: 908e c9b8 e997 ceb6 ac68 83b6 0130 acb8
000001f0: 21af 8b37 ca07 1ab9 2abd aeba 6346 d737
00000200: 0b94 bbba 80d8 1cb8 c995 5bba 9252 8639
00000210: 99f3 96ba 890b d1b7 1968 4cb6 33c2 93b7
00000220: cde2 22b9 cf69 0fb8 30b8 4db9 d9e9 95b9
00000230: b864 b5b5 7947 42b9 9426 8dbb fe60 57ba
00000240: 07f4 fbba 86c4 cdba 8434 f4b8 1086 aeb9
00000250: 400d aaba 7e71 c9ba 7e0e 5d37 695b 6937
00000260: b6d7 9834 ccc6 f9b7 40e9 4fb7 0402 a0b8
00000270: c733 bdb7 3ea8 69b8 23cd a035 07a3 d9b5
00000280: 531b ebb5 804e 8cb7 cd1d 18b7 4640 3038
00000290: ef43 bfb7 2d3a 73b6 e02e ec35 8568 84b8
000002a0: 5a23 84b7 d514 23b7 fe53 9a37 09f3 22b7
000002b0: 6433 16b8 df4b 6e38 ec92 a3b7 79a1 a0b7
000002c0: 2d54 d5b9 5926 0d38 9900 a4b9 e4be 65b8
000002d0: 1fce a9b8 6599 0b39 22cf b1b9 23c3 a435
000002e0: ad0c d335 0423 7ab7 7239 77b8 2eb6 94b7
000002f0: 6461 1ab9 4b40 a0b8 7dd4 6d36 7855 a8b8
00000300: ccf9 c0ba 626b 9fb9 cfe9 1eba a1e2 25ba
00000310: 3b78 eab4 cf2c 97b8 5e18 03ba fba3 02ba
00000320: e65d 4538 75e7 d939 19ca 70b6 7eef 9339
00000330: 81a9 08b8 3f68 8139 6fee a8b8 28b0 8b39
00000340: 3661 9636 16eb b534 26ac b336 6181 6538
00000350: fd32 1b37 f142 3538 0106 bf38 4cf4 15b5
00000360: 4d06 2d37 9945 c63a 56e4 7039 16fd 0d3a
00000370: 6a9d 7439 d83e f637 1995 cc38 3d5c af39
00000380: 8763 073a 7b5e 0eb7 c836 5db9 130c 8237
00000390: fa0a 95b8 d3c9 6a38 7897 1cb9 6eb0 6c38
000003a0: 777e 8eb8 a659 9bb6 88d4 e734 4711 26b6
000003b0: 2e4f 08b8 c64f 28b6 1338 fc36 8a00 66b8
000003c0: 9620 a935 da6c be37 34eb 67ba 05d2 fab8
000003d0: 1171 94b9 cead ccb7 28ed f6b7 082b b1b8
000003e0: 537f e5b8 a738 a0b9 6c0e ebb8 f61c 87ba
000003f0: 9d6d df38 6481 a2ba ef74 6c38 427c f6b9
