simplified game v3/MARLv1/defender_agent_final.pth (torch, 124610 bytes, 11 tensors)

weight_ih_l0 f4 [256, 25]
0.07336512 0.063671246 0.09751588 -0.10149175 -0.09820272 -0.051934227 0.061424762 -0.026571378
-0.11622617 0.097095385 0.046252787 0.09774178 0.08933957 0.03146264 -0.0043055713 -0.12116009
-0.018157318 0.04429491 0.11238983 0.028361574 0.08327526 0.037093922 0.019876659 -0.10945782
0.008617401 -0.031533286 0.12384185 -0.093940124 -0.11636506 -0.0814649 0.0836615 0.059483886
-0.12467717 -0.09065761 -0.109093964 0.07044996 -0.12373088 0.013073549 -0.10293265 0.07591553
-0.03842768 -0.09226167 0.11524366 -0.039956108 -0.12450254 -0.09485726 0.062538296 0.07969625
-0.0029293597 0.07698235 -0.090417236 0.0179701 -0.01169914 -0.010260269 -0.0069243014 0.024227291
0.112216115 -0.068054646 0.08307004 -0.06315008 -0.08317202 -0.058273926 0.023331776 -0.09983371
-0.11728062 0.02425602 0.07575126 0.04450284 0.03714867 -0.049593687 0.09187256 0.10269044
0.08915402 -0.08729677 -0.016637608 -0.067105845 0.007854179 0.05777833 -0.10068981 0.11027099
-0.053520188 -0.09122528 0.11227243 -0.03325051 -0.05768162 -0.08257823 0.11925456 0.045660257
0.10050143 -0.11003955 -0.07946625 0.0803161 0.0053460747 -0.056580946 -0.055405766 -0.022637278
0.057857126 -0.07852699 0.048698083 0.057434574 0.081641346 0.11992216 0.07238577 -0.024223074
0.08266473 -0.002469793 0.03650044 0.09623453 -0.01413843 0.07968435 0.0395409 0.0076753497
0.029991612 -0.108365476 0.035704777 -0.00091701746 0.07954784 -0.032909334 0.037682697 0.025347024
-0.00041472912 0.005172789 -0.026104197 -0.12392558 0.0202097 0.092653126 0.08411753 -0.077266276
0.07950953 0.027198508 -0.042840168 -0.08156903 -0.0010554492 0.08029044 -0.048803955 0.015622452
0.054814726 -0.12399298 -0.099706694 0.020696998 0.04706116 0.05000384 -0.11033279 0.109685674
0.08273372 -0.051707238 0.017512292 0.052522644 0.0105755925 -0.042879 0.034043863 0.08958213
-0.011879355 0.0060464144 0.06748083 0.045907035 -0.052824795 -0.05194734 -0.027807608 -0.112056896
-0.014809087 0.11592485 0.083213136 -0.08254467 -0.08940828 -0.10825315 0.0587385 -0.031539768
-0.080852196 0.10787071 0.082278386 -0.0038853139 0.027760386 -0.04343587 0.045161933 -0.03318356
-0.020567954 -0.056713194 0.09444071 0.09636198 -0.10166392 -0.049074918 0.115885735 -0.04823166
-0.005646944 -0.11992848 0.076858446 -0.08910099 -0.05076447 0.046954364 -0.11124459 0.12034196
0.04239905 0.0628462 -0.086871564 0.059515014 0.022380218 0.04497318 -0.101403385 -0.10201594
0.11140409 0.080941096 0.0816313 0.0067886114 -0.07436055 0.03487362 0.12346524 0.105591685
-0.086952895 0.09191699 -0.03374 0.019966543 -0.064601555 -0.057251036 0.05883506 -0.0808309
-0.051550657 0.0015803277 -0.03900501 -0.053693563 0.058304057 -0.08137904 -0.044315353 0.05239536
0.059657037 0.033812463 -0.089902535 0.10620625 -0.02076137 0.055233523 -0.033013403 0.0974613
0.070297554 0.07434353 -0.046058014 0.024721965 -0.08614124 -0.011372358 0.09676984 -0.036220104
-0.038214117 0.09666571 0.016598463 0.022744104 -0.072803065 0.111019194 -0.07866022 -0.09998502
-0.012153998 -0.05706796 -0.017025307 0.1094262 0.0062237233 -0.046832204 -0.10470599 -0.015250355
00000000: 7440 963d 1266 823d 68b6 c73d e8da cfbd
00000010: 821e c9bd fcb8 54bd 8898 7b3d 38ac d9bc
00000020: fc07 eebd f2d9 c63d 9073 3d3d d82c c83d
00000030: aaf7 b63d f8de 003d c015 8dbb c822 f8bd
00000040: a8be 94bc 946e 353d a42c e63d 8856 e83c
00000050: 388c aa3d ccef 173d 60d4 a23c 6c2b e0bd
00000060: 0030 0d3c 0c29 01bd cca0 fd3d ae63 c0bd
00000070: ce50 eebd 12d7 a6bd b856 ab3d 60a5 733d
00000080: be56 ffbd b2aa b9bd a86c dfbd 1248 903d
00000090: 9e66 fdbd 7032 563c 5ace d2bd 9a79 9b3d
000000a0: 5866 1dbd b0f3 bcbd de04 ec3d 04a9 23bd
000000b0: 30fb febd 8644 c2bd 1414 803d ca37 a33d
000000c0: 80fa 3fbb eca8 9d3d ac2c b9bd 0836 933c
000000d0: c0ad 3fbc b01a 28bc 40e5 e2bb 5078 c63c
000000e0: 90d1 e53d 3c60 8bbd a020 aa3d d454 81bd
000000f0: 1856 aabd a4b0 6ebd 4822 bf3c 9e75 ccbd
00000100: d230 f0bd 90b4 c63c 7a23 9b3d 9c48 363d
00000110: 3429 183d c022 4bbd ae27 bc3d 5e4f d23d
00000120: 6296 b63d a6c8 b2bd 984b 88bc ca6e 89bd
00000130: d0ae 003c f8a8 6c3d 7636 cebd c2d5 e13d
00000140: fc37 5bbd 52d4 babd 16ef e53d b031 08bd
00000150: 9043 6cbd c61e a9bd bc3b f43d 4006 3b3d
00000160: b2d3 cd3d 6a5c e1bd 34bf a2bd c47c a43d
00000170: 202e af3b 6cc1 67bd 28f1 62bd d071 b9bc
00000180: 98fb 6c3d c2d2 a0bd a477 473d 8440 6b3d
00000190: 9433 a73d c099 f53d fe3e 943d 786f c6bc
000001a0: 204c a93d 40dc 21bb 7c81 153d 9c16 c53d
000001b0: e0a4 67bc 8c31 a33d a4f5 213d 8081 fb3b
000001c0: f8b0 f53c b8ee ddbd 2c3f 123d 0064 70ba
000001d0: fae9 a23d f0cb 06bd 2c59 1a3d 90a4 cf3c
000001e0: 0070 d9b9 8080 a93b 78d8 d5bc b2cc fdbd
000001f0: d08e a53c ecc0 bd3d d045 ac3d c83d 9ebd
00000200: e4d5 a23d 68cf de3c 2c79 2fbd aa0d a7bd
00000210: 0057 8aba 506f a43d a8e6 47bd 50f5 7f3c
00000220: 6885 603d 08f0 fdbd 0633 ccbd c08c a93c
00000230: 34c3 403d d4d0 4c3d 28f6 e1bd e2a2 e03d
00000240: 4c70 a93d f8ca 53bd f075 8f3c fc21 573d
00000250: 4045 2d3c e4a1 2fbd 9471 0b3d d676 b73d
00000260: a0a1 42bc 0021 c63b 6433 8a3d 0409 3c3d
00000270: d05e 58bd bcc6 54bd c8cc e3bc 167e e5bd
00000280: d0a1 72bc 026a ed3d a66b aa3d 2e0d a9bd
00000290: b01b b7bd d4b3 ddbd c897 703d d82f 01bd
000002a0: d695 a5bd 52eb dc3d 9281 a83d c0a0 7ebb
000002b0: c069 e33c d0e9 31bd b8fb 383d 7ceb 07bd
000002c0: 207e a8bc 184c 68bd 226a c13d 6e59 c53d
000002d0: 2c35 d0bd c802 49bd 8055 ed3d 908e 45bd
000002e0: 000a b9bb 109d f5bd f667 9d3d 947a b6bd
000002f0: 68ee 4fbd 3853 403d 34d4 e3bd d875 f63d
00000300: a0aa 2d3d 82b5 803d b8e9 b1bd 04c6 733d
00000310: b856 b73c cc35 383d 94ac cfbd bced d0bd
00000320: d427 e43d 72c4 a53d 502e a73d 0073 de3b
00000330: 584a 98bd a4d7 0e3d 58db fc3d 7440 d83d
00000340: 5c14 b2bd fa3e bc3d f432 0abd e090 a33c
00000350: d24d 84bd 1080 6abd 08fd 703d ac8a a5bd
00000360: c826 53bd 0023 cf3a b8c3 1fbd c8ed 5bbd
00000370: 3cd0 6e3d 0eaa a6bd 0484 35bd 849c 563d
00000380: f05a 743d f07e 0a3d d21e b8bd aa82 d93d
00000390: c013 aabc 8c3c 623d 1039 07bd ca99 c73d
000003a0: 2af8 8f3d 6c41 983d 54a7 3cbd b885 ca3c
000003b0: d26a b0bd 2053 3abc 442f c63d 885b 14bd
000003c0: 6886 1cbd acf8 c53d 80f9 873c d851 ba3c
000003d0: c619 95bd 085e e33d 9c18 a1bd f2c4 ccbd
000003e0: 9021 47bc 18c0 69bd a878 8bbc d81a e03d
000003f0: 60f0 cb3b 20d3 3fbd 1870 d6bd a0dc 79bc

weight_hh_l0 f4 [256, 64]
-0.02083236 -0.10489866 -0.122622505 -0.10536894 -0.12085752 -0.06817497 -0.109052 -0.11249599
0.119500205 -0.09689413 0.06346765 -0.04577455 -0.008925319 0.082297534 -0.024570122 -0.09892209
-0.08716793 0.01831755 -0.027684733 -0.06474498 -0.087357655 -0.070330024 -0.1150139 -0.06494458
-0.065914035 0.031365573 0.11741577 0.11212388 0.07134873 -0.09101294 0.039132804 -0.016053125
0.060751364 -0.08188619 0.034850895 -0.003833294 -0.089530975 0.020017773 -0.08103447 0.06661673
0.0363746 -0.039941967 0.11978176 0.017059699 -0.101831555 0.04916604 0.113689765 -0.042996764
0.05016975 -0.06292969 0.10098004 -0.09287873 0.11961532 0.015195996 -0.058067575 -0.0029321462
0.11762135 -0.053183436 0.096901566 0.092569605 -0.10830821 0.037781894 0.03694585 0.050463334
-0.11755547 -0.04510072 0.110541746 -0.039206073 0.050194815 0.0768785 0.010398179 0.0042877495
-0.066663325 0.120917305 -0.119527414 -0.0591373 0.057008952 -0.059997827 0.029951394 0.11289109
0.109940544 0.117868006 0.043611795 0.011967152 -0.054397628 -0.10577695 0.011944622 -0.103239045
-0.0064217597 -0.020653859 -0.117644385 0.10760707 -0.103397444 0.10155076 0.08639802 0.032053158
-0.023165688 -0.1136719 -0.06505069 -0.11647983 -0.015537187 -0.07351749 -0.05314812 -0.07967478
-0.121044055 0.11839622 -0.04625252 0.0683711 0.0055942833 -0.1032763 -0.017975613 -0.010745183
-0.050389066 0.09249242 0.110896066 0.0038377345 -0.008040741 -0.07220465 0.066100806 0.10899317
0.07250252 -0.01187931 0.037462607 0.09923114 -0.07500738 0.10873753 0.08714883 -0.0069294274
-0.10075873 -0.0008946061 0.020933867 0.019253388 -0.05769314 0.086211264 -0.11764848 0.05562426
-0.10408172 -0.019929081 0.121220395 0.010606304 0.07418068 -0.04165119 0.05471164 0.000954777
0.10691711 0.08249566 0.033565 -0.03322512 -0.1192489 -0.08410086 -0.020258233 0.10351089
-0.110435724 0.038029015 -0.0014455765 -0.10796712 0.029546663 -0.046012238 0.08525163 0.048783183
-0.11266652 -0.06454621 -0.10407467 0.008916512 0.09663783 0.029700875 -0.0542254 -0.037147373
-0.10716878 -0.060594782 -0.031503096 -0.11453925 -0.06802559 0.06335756 -0.06186284 0.056256726
0.051249474 -0.007591203 -0.00664407 -0.031220287 -0.124719664 -0.0101124495 -0.09935135 0.09163663
-0.094898835 0.09349489 0.070074365 0.015518367 0.063838705 -0.035631612 -0.07003635 0.080106795
0.052516 0.047196552 -0.08452152 0.018509477 0.034245685 -0.015770018 0.0575687 0.05226679
0.12090148 0.017236844 -0.12272103 -0.12449679 0.050617933 0.11157745 -0.07284108 -0.028249308
-0.063225806 -0.100781575 0.09743391 0.07164337 0.008137226 -0.062118277 -0.070497915 -0.08504243
-0.043686256 -0.07317835 0.07386723 -0.036334828 -0.027039006 0.044366628 -0.05986041 0.04638669
-0.05750777 0.10612585 -0.05775079 0.056105793 -0.08344932 -0.020972729 -0.028717205 -0.047956213
0.09611072 -0.08576131 0.035153985 -0.12194008 0.05654055 0.033820525 -0.04324378 0.08943239
0.02635014 -0.016832978 0.07412562 0.033277556 0.06681886 0.048798293 -0.08360903 -0.06420204
0.09202635 0.009396732 0.102693394 0.009984806 -0.08933255 0.04942219 0.04581423 0.10705283
00000000: a0a8 aabc 1cd5 d6bd 8221 fbbd accb d7bd
00000010: 2684 f7bd 529f 8bbd a856 dfbd 4c64 e6bd
00000020: 86bc f43d 6e70 c6bd 54fb 813d 187e 3bbd
00000030: 803b 12bc 9c8b a83d 4847 c9bc aa97 cabd
00000040: 1a85 b2bd b00e 963c 18cb e2bc 0499 84bd
00000050: 92e8 b2bd 3009 90bd 688c ebbd aa01 85bd
00000060: f0fd 86bd 3079 003d ae77 f03d 34a1 e53d
00000070: 481f 923d fe64 babd b849 203d d881 83bc
00000080: 6cd6 783d f2b3 a7bd d0bf 0e3d 0038 7bbb
00000090: 045c b7bd 50fc a33c 66f5 a5bd 5a6e 883d
000000a0: 88fd 143d 309a 23bd 2450 f53d c8c0 8b3c
000000b0: 108d d0bd 5462 493d 2ed6 e83d 601d 30bd
000000c0: cc7e 4d3d 48e1 80bd a0ce ce3d 3437 bebd
000000d0: e0f8 f43d a0f8 783c 44d8 6dbd 4029 40bb
000000e0: 76e3 f03d e0d6 59bd 5474 c63d 2295 bd3d
000000f0: b2d0 ddbd 30c1 1a3d 8854 173d a4b2 4e3d
00000100: ecc0 f0bd 88bb 38bd b663 e23d 8c96 20bd
00000110: 1499 4d3d 7a72 9d3d 205d 2a3c 4080 8c3b
00000120: c886 88bd 7ea3 f73d caca f4bd f439 72bd
00000130: 3882 693d 48c0 75bd a05c f53c 7233 e73d
00000140: 8228 e13d c864 f13d 48a2 323d e011 443c
00000150: 0cd0 5ebd 96a1 d8bd 60b3 433c fe6e d3bd
00000160: a06d d2bb 4832 a9bc 8aef f0bd 1861 dc3d
00000170: 0ac2 d3bd d8f9 cf3d 72f1 b03d 2c4a 033d
00000180: f8c5 bdbc d0cc e8bd 4c39 85bd fa8c eebd
00000190: b08f 7ebc 5690 96bd d8b1 59bd 882c a3bd
000001a0: f2e5 f7bd b879 f23d 4873 3dbd 2606 8c3d
000001b0: 4050 b73b 8682 d3bd 9841 93bc 900c 30bc
000001c0: c464 4ebd aa6c bd3d 7a1d e33d 8082 7b3b
000001d0: 50bd 03bc 08e0 93bd dc5f 873d d037 df3d
000001e0: 347c 943d 70a1 42bc 6472 193d b239 cb3d
000001f0: 789d 99bd c8b1 de3d 167b b23d 4010 e3bb
00000200: 985a cebd 0084 6aba 807d ab3c 48b9 9d3c
00000210: a44f 6cbd 888f b03d b0f1 f0bd 44d6 633d
00000220: cc28 d5bd 5042 a3bc 6642 f83d 10c6 2d3c
00000230: 0aec 973d 709a 2abd 5019 603d 004a 7a3a
00000240: 5cf7 da3d 7cf3 a83d 747b 093d 1017 08bd
00000250: c438 f4bd 123d acbd 98f4 a5bc 84fd d33d
00000260: 202c e2bd 50c4 1b3d 8079 bdba de1d ddbd
00000270: d80b f23c 5477 3cbd 6898 ae3d e0d0 473d
00000280: b4bd e6bd ce30 84bd 1a25 d5bd 9016 123c
00000290: 0eea c53d 404f f33c 741b 5ebd d827 18bd
000002a0: 4e7b dbbd 3c32 78bd 6409 01bd 8e93 eabd
000002b0: 0051 8bbd 9cc1 813d e463 7dbd 746d 663d
000002c0: f8ea 513d a0bf f8bb 80b6 d9bb b0c1 ffbc
000002d0: 066d ffbd b0ae 25bc b878 cbbd fcab bb3d
000002e0: 525a c2bd 407a bf3d 2683 8f3d c040 7e3c
000002f0: debd 823d 74f2 11bd 386f 8fbd 080f a43d
00000300: 041b 573d 2c51 413d 9e19 adbd 30a1 973c
00000310: 3445 0c3d 2030 81bc 28cd 6b3d b415 563d
00000320: 329b f73d 4834 8d3c 2a55 fbbd 2cf8 febd
00000330: c054 4f3d b882 e43d b42d 95bd 186b e7bc
00000340: 887c 81bd 9266 cebd 6e8b c73d c2b9 923d
00000350: 0052 053c bc6f 7ebd 3661 90bd ba2a aebd
00000360: 5cf0 32bd 88de 95bd b447 973d d4d3 14bd
00000370: e880 ddbc c8b9 353d 3030 75bd f8ff 3d3d
00000380: 448d 6bbd 8258 d93d 188c 6cbd 30cf 653d
00000390: 7ae7 aabd 00cf abbc 5840 ebbc bc6d 44bd
000003a0: b2d5 c43d a0a3 afbd a0fd 0f3d b8bb f9bd
000003b0: 1097 673d 6487 0a3d 6420 31bd 5428 b73d
000003c0: 40dc d73c 50e5 89bc 2ccf 973d 0c4e 083d
000003d0: 54d8 883d b8e0 473d 363b abbd 5c7c 83bd
000003e0: 5078 bc3d c0f4 193c ea50 d23d 5097 233c
000003f0: fcf3 b6bd ec6e 4a3d b4a7 3b3d 843e db3d

bias_ih_l0 f4 [256]
-0.07205747 -0.03770885 0.08183901 -0.09127757 0.03832884 -0.08731735 0.0971729 -0.11256416
0.06831455 -0.044907913 -0.09809819 0.097726464 0.0953819 0.028605834 -0.1111868 0.025205478
0.092230365 0.014325321 0.002880782 0.0031905323 0.010462746 -0.082040235 0.083541766 -0.049053058
-0.09835479 0.026231408 -0.024815142 0.077380344 -0.093177885 0.026629254 0.07291415 0.016926497
0.010998741 -0.12414421 0.11842376 -0.025422499 -0.014050856 0.12451996 0.046421066 -0.082463235
0.032412603 0.023415 0.0017531663 0.07555929 -0.110238254 0.029246628 -0.024035662 0.10912207
-0.10450868 0.09726629 -0.10745862 0.05734521 -0.011939168 -0.02196744 -0.086205825 0.077662006
0.036108777 0.031533822 -0.022573695 -0.04644595 -0.04126957 -0.02675341 0.03468862 0.07121019
0.08051549 0.074318886 -0.06896433 -0.047368065 -0.015577048 -0.07589345 -0.10986146 -0.056683257
0.04813215 -0.06913182 -0.059930086 -0.05928713 0.09817566 -0.01011771 -0.05801037 0.008948892
0.12399383 0.025997445 -0.036640972 -0.042928368 0.023912758 0.10713591 0.014652148 0.066818744
-0.048784524 0.024455547 -0.024669826 0.0036039948 0.027650371 -0.013069972 -0.06352654 -0.04616998
-0.10240011 -0.12401208 0.11814484 -0.12368891 0.07775015 -0.005187899 0.09035137 0.038914666
0.035744563 -0.067791864 -0.06393178 -0.0027468204 -0.041667163 0.09434377 0.050411582 0.031173855
-0.022918671 -0.03541331 -0.087440655 0.059403345 0.034507215 -0.089380115 -0.109659016 -0.011009544
-0.01360786 -0.08321412 0.03211178 -0.055026725 -0.07560977 -0.03782679 0.07254277 0.012037292
0.064475164 -0.019774213 0.0031745732 -0.07349759 -0.089634776 -0.041123644 0.08429858 0.009653464
-0.09775916 0.015307099 -0.08494215 -0.11304061 0.06996025 0.008677036 0.11075562 0.035994694
-0.051852137 -0.0013611168 -0.11523594 -0.0832461 -0.122602165 -0.013646662 -0.093826905 -0.0052457154
-0.02268678 -0.01895608 -0.10278875 -0.043406323 -0.11536807 -0.097780034 -0.09207331 0.12029764
-0.056067765 0.09150097 -0.055418357 0.04512061 -0.05474426 0.011749372 0.11896932 0.017829254
-0.0383541 0.030432537 0.10849543 0.06496608 -0.032176882 -0.052945018 -0.0952404 -0.02600637
0.09518023 0.11983919 0.04158333 -0.08603306 0.059488565 -0.031024992 -0.11354348 -0.09632783
-0.0012842566 0.021553442 -0.11494769 0.09495014 -0.04594405 0.079067215 0.105685696 -0.047028065
0.06609483 0.10252258 -0.012317255 -0.06792848 -0.08416338 0.06555407 0.05609514 0.016196787
0.102384225 0.11161545 -0.12010682 -0.004169956 -0.1199009 -0.00715898 -0.06615941 -0.03857653
0.08835018 0.04141669 -0.05658613 0.11038871 -0.05492249 -0.07985072 -0.12234901 0.045526713
0.061973855 0.10463199 -0.020599842 0.031055987 0.09794873 -0.027084634 -0.081364974 0.08982386
0.0061936975 0.08349277 0.06581548 0.036101937 0.12464842 -0.011430979 0.01920715 0.12436579
-0.008398175 0.061672717 0.08698782 -0.0184737 0.026001766 -0.053151548 -0.0758059 0.040496558
0.09299423 0.08450782 -0.06856194 -0.11983955 0.1147234 0.061822876 -0.07696609 0.012823656
0.10038665 -0.06465538 -0.04838732 -0.10647285 0.009422287 -0.045905888 0.098306865 -0.011745259
00000000: de92 93bd 9874 1abd 369b a73d bcef babd
00000010: b4fe 1c3d 70d3 b2bd 9602 c73d 0a88 e6bd
00000020: 80e8 8b3d 5cf1 37bd b4e7 c8bd d024 c83d
00000030: 9657 c33d c856 ea3c e8b5 e3bd b87b ce3c
00000040: 46e3 bc3d c0b4 6a3c 80cb 3c3b 4018 513b
00000050: f06b 2b3c b604 a8bd f217 ab3d dceb 48bd
00000060: 3c6e c9bd 40e3 d63c 2049 cbbc 9679 9e3d
00000070: 0cd4 bebd 9825 da3c 0454 953d 70a9 8a3c
00000080: 1034 343c 523f febd 2888 f23d d842 d0bc
00000090: 9035 66bc 5204 ff3d 0424 3e3d 7ce2 a8bd
000000a0: 14c3 043d d0d0 bf3c 80ca e53a d4be 9a3d
000000b0: 98c4 e1bd a096 ef3c 70e6 c4bc 647b df3d
000000c0: a608 d6bd 8c33 c73d 4413 dcbd d0e2 6a3d
000000d0: 809c 43bc 10f5 b3bc ae8c b0bd 420d 9f3d
000000e0: cce6 133d 9c29 013d 78ec b8bc 1c3e 3ebd
000000f0: 480a 29bd f829 dbbc a815 0e3d a6d6 913d
00000100: 4ee5 a43d 8034 983d 2c3d 8dbd 0405 42bd
00000110: e036 7fbc 066e 9bbd 0cff e0bd b42c 68bd
00000120: 3826 453d fc94 8dbd 4079 75bd 10d7 72bd
00000130: 5210 c93d c0c4 25bc 489c 6dbd 609e 123c
00000140: 7af0 fd3d 98f8 d43c d814 16bd a8d5 2fbd
00000150: b0e4 c33c 126a db3d 900f 703c 44d8 883d
00000160: 48d2 47bd 0057 c83c 6018 cabc 0031 6c3b
00000170: 0883 e23c 7023 56bc 341a 82bd bc1c 3dbd
00000180: 26b7 d1bd 0cfa fdbd ecf5 f13d 9c50 fdbd
00000190: 783b 9f3d 40ff a9bb 240a b93d fc64 1f3d
000001a0: e468 123d 76d6 8abd aaee 82bd 0004 34bb
000001b0: 30ab 2abd 4e37 c13d 607c 4e3d 5060 ff3c
000001c0: f0bf bbbc 8c0d 11bd 1614 b3bd ec50 733d
000001d0: 7057 0d3d ec0c b7bd e894 e0bd 6061 34bc
000001e0: 80f3 5ebc 2a6c aabd a487 033d b463 61bd
000001f0: 4cd9 9abd 44f0 1abd 4e91 943d 1038 453c
00000200: 8e0b 843d 88fd a1bc 800c 503b e885 96bd
00000210: 7092 b7bd 4471 28bd bca4 ac3d 9029 1e3c
00000220: f435 c8bd a0ca 7a3c 26f6 adbd d681 e7bd
00000230: 5247 8f3d 202a 0e3c d8d3 e23d 2c6f 133d
00000240: e862 54bd 8067 b2ba d200 ecbd ee7c aabd
00000250: d816 fbbd 4096 5fbc 5228 c0bd 40e4 abbb
00000260: a0d9 b9bc c849 9bbc e882 d2bd d4ca 31bd
00000270: 1846 ecbd e640 c8bd ee90 bcbd 9c5e f63d
00000280: 50a7 65bd dc64 bb3d 5cfe 62bd 64d0 383d
00000290: 843b 60bd 7080 403c 30a6 f33d a80e 923c
000002a0: 3019 1dbd a84d f93c da32 de3d f00c 853d
000002b0: e8cb 03bd e0dc 58bd 660d c3bd 500b d5bc
000002c0: daed c23d 406e f53d 4853 2a3d 1a32 b0bd
000002d0: 48aa 733d 2028 febc 7c89 e8bd 8647 c5bd
000002e0: 8054 a8ba d890 b03c b269 ebbd 3875 c23d
000002f0: d42f 3cbd feed a13d be71 d83d 80a0 40bd
00000300: ba5c 873d 5cf7 d13d 50ce 49bc 161e 8bbd
00000310: da5d acbd 3641 863d 04c4 653d 20af 843c
00000320: d2ae d13d a496 e43d 90fa f5bd 20a4 88bb
00000330: 9a8e f5bd e095 eabb 967e 87bd 6c02 1ebd
00000340: f0f0 b43d 8ca4 293d dcc6 67bd 7a13 e23d
00000350: 68f6 60bd c688 a3bd 1e92 fabd 387a 3a3d
00000360: 4cd8 7d3d 4c49 d63d 00c1 a8bc 2069 fe3c
00000370: 5899 c83d 98e0 ddbc aea2 a6bd 92f5 b73d
00000380: 80f4 ca3b 42fe aa3d 44ca 863d a0df 133d
00000390: ac47 ff3d 0049 3bbc 5058 9d3c 7eb3 fe3d
000003a0: 8098 09bc 889c 7c3d ac26 b23d 2856 97bc
000003b0: a801 d53c 70b5 59bd 2040 9bbd b8df 253d
000003c0: c273 be3d 7012 ad3d 346a 8cbd 706e f5bd
000003d0: 1af4 ea3d fc39 7d3d 66a0 9dbd 501a 523c
000003e0: 8497 cd3d 0a6a 84bd c831 46bd 700e dabd
000003f0: f05f 1a3c d007 3cbd 1c55 c93d 306f 40bc

bias_hh_l0 f4 [256]
-0.06683993 0.10095881 0.09540045 -0.09869045 0.04905343 0.10772437 -0.046630472 0.101894155
-0.06702 -0.06715368 0.06131743 -0.00674811 0.0063860416 -0.031127945 0.030408025 -0.053398773
0.024791315 -0.013220593 -0.12327632 0.027110472 -0.045628622 0.053119585 0.10136455 0.112584025
0.03284557 -0.0055658817 -0.07232982 0.0006174296 0.061235577 -0.013843685 -0.013560623 -0.00843519
-0.08677496 -0.057000324 -0.051080152 -0.09676552 0.00056026876 -0.04704298 0.06363468 0.06816608
-0.06728661 0.022561714 0.049390167 0.038231388 0.010717019 -0.03858003 -0.0029195994 -0.07729697
-0.0556553 0.08346172 0.095174775 0.10325253 0.048343748 0.038193464 -0.0353736 0.038671628
0.060260743 0.10214625 -0.04637699 0.05305873 -0.012220204 0.07753649 0.03872651 0.10798152
-0.009768635 -0.11036657 0.108838215 -0.048994035 -0.10277638 -0.109160155 0.030502766 0.0048888028
-0.044487685 0.077720046 0.08492769 -0.09467608 0.011600554 -0.095819056 0.08680309 -0.06290096
-0.09043759 0.05587955 0.010870948 -0.0746306 0.0650996 0.12271519 0.010701686 -0.118694484
0.04852362 -0.03454487 0.0890332 0.021655187 -0.1224636 -0.03244129 0.030417979 -0.113251194
0.008642495 -0.03576143 -0.120973125 -0.08502826 0.044091344 0.04182659 0.08719584 0.015954077
-0.09907445 -0.089914694 0.12272197 0.07647374 -0.044107243 0.07627073 0.063041985 0.054780275
0.10074881 0.060727164 0.08517954 0.08073558 0.0072149932 0.042491168 -0.08629997 0.06289083
0.014072955 0.040724292 -0.0123128295 0.12261985 -0.105698615 0.09948985 -0.059230343 0.02930826
-0.001518473 0.057990238 -0.020201758 0.047670916 0.0053994507 0.08929531 -0.009189844 -0.055074856
-0.09202817 -0.047615066 -0.025123626 0.06512889 0.063672125 0.030039623 -0.05226673 0.022176042
0.12083052 -0.08654559 0.047672316 0.029638603 -0.0015657991 0.088293925 -0.052472427 -0.073096156
-0.07669179 0.108453065 0.076906934 -0.11347158 -0.036377832 -0.04102665 -0.065251425 0.044925794
-0.06554344 0.07874705 -0.05576001 0.04592581 -0.08254886 0.03921719 -0.03001754 0.028291106
0.059657186 0.048900574 0.05696526 -0.018149212 0.032536685 0.048480183 -0.09560691 -0.018282935
-0.106748 -0.06215477 0.036202326 -0.053866595 0.0049341023 -0.015630603 -0.1178617 -0.1154187
0.04016836 -0.08460583 0.044406638 -0.047656417 -0.12246543 0.048424914 0.06949484 0.027886003
-0.024433121 0.0382874 0.054691076 -0.062144488 -0.018004462 0.012431055 -0.09202336 0.1233245
-0.0730578 0.039173573 0.009880394 -0.10001987 -0.044173986 -0.02606383 -0.047856063 -0.053030103
-0.10752535 -0.01990956 -0.09390172 -0.11205648 -0.05924745 0.0119698495 -0.09606956 0.08659129
-0.08302596 -0.004701376 -0.03170304 0.124998316 -0.009941012 0.09217265 0.077728555 -0.07135409
0.00013321638 0.072052374 -0.013195649 -0.058640778 0.076839715 0.088489845 -0.03469564 -0.056261003
-0.03421551 0.02577512 0.0030596703 0.09253122 -0.029013693 0.075022325 0.09437969 -0.0045118034
-0.09387171 0.09977946 0.0660779 0.018555969 -0.068005756 -0.1065319 0.008090168 -0.02453661
-0.07373135 0.10379675 0.088321984 0.039158523 0.0906419 0.019792289 0.08722675 -0.004706502
00000000: 60e3 88bd 7ec3 ce3d 5061 c33d 381e cabd
00000010: 40ec 483d 989e dc3d 98ff 3ebd e2ad d03d
00000020: c841 89bd de87 89bd fc27 7b3d 401f ddbb
00000030: 0042 d13b 0800 ffbc 401a f93c acb8 5abd
00000040: 2817 cb3c 309b 58bc 4c78 fcbd c816 de3c
00000050: 14e5 3abd ec93 593d 3898 cf3d 7492 e63d
00000060: 1489 063d 0062 b6bb a821 94bd 00db 213a
00000070: 28d2 7a3d a0d0 62bc 602d 5ebc c033 0abc
00000080: 12b7 b1bd 2c79 69bd 6c39 51bd 002d c6bd
00000090: 00df 123a 24b0 40bd e652 823d a89a 8b3d
000000a0: 90cd 89bd 58d3 b83c 584d 4a3d 8498 1c3d
000000b0: 7096 2f3c 1806 1ebd c056 3fbb e04d 9ebd
000000c0: d0f6 63bd faed aa3d feea c23d 1076 d33d
000000d0: 1804 463d c070 1c3d e8e3 10bd 2466 1e3d
000000e0: f8d3 763d 0e32 d13d ccf5 3dbd 1c54 593d
000000f0: 4037 48bc 74cb 9e3d b09f 1e3d 6a25 dd3d
00000100: a00c 20bc de07 e2bd 92e6 de3d f8ad 48bd
00000110: 6c7c d2bd 5c8f dfbd f0e0 f93c 4032 a03b
00000120: b838 36bd b02b 9f3d 92ee ad3d 88e5 c1bd
00000130: 4010 3e3c c83c c4bd d2c5 b13d 38d2 80bd
00000140: 5837 b9bd f4e1 643d 101c 323c eed7 98bd
00000150: f052 853d 1a52 fb3d 2056 2f3c 1816 f3bd
00000160: b4c0 463d ec7e 0dbd 0a57 b63d 3866 b13c
00000170: 32ce fabd 28e1 04bd 202f f93c 3ef0 e7bd
00000180: 4099 0d3c 947a 12bd c2c0 f7bd 4c23 aebd
00000190: 2099 343d 5c52 2b3d bc93 b23d 20b2 823c
000001a0: 8ce7 cabd 3225 b8bd a855 fb3d 449e 9c3d
000001b0: cca9 34bd d433 9c3d 281c 813d 4861 603d
000001c0: 6455 ce3d 0cbd 783d 9c72 ae3d b258 a53d
000001d0: c06b ec3b 380b 2e3d 0abe b0bd e8cc 803d
000001e0: 4092 663c 84ce 263d c0bb 49bc 1e20 fb3d
000001f0: 8478 d8bd 56c1 cb3d 849b 72bd e017 f03c
00000200: 8007 c7ba 2c87 6d3d 287e a5bc 9442 433d
00000210: e0ed b03b 76e0 b63d 0091 16bc 2c96 61bd
00000220: 4479 bcbd 0408 43bd 10d0 cdbc 4c62 853d
00000230: 8866 823d a815 f63c a415 56bd 88aa b53c
00000240: fe75 f73d d03e b1bd 0c44 433d a8cc f23c
00000250: 803b cdba 72d3 b43d 54ed 56bd 70b3 95bd
00000260: 9610 9dbd a41c de3d 6281 9d3d ca63 e8bd
00000270: ec00 15bd 900b 28bd 8aa2 85bd 1c04 383d
00000280: a43b 86bd 2246 a13d 9c64 64bd b41c 3c3d
00000290: 600f a9bd 34a2 203d 58e7 f5bc c0c2 e73c
000002a0: 185b 743d f84b 483d 6854 693d a8ad 94bc
000002b0: 3045 053d 2893 463d 8ecd c3bd 18c6 95bc
000002c0: b29e dabd 0096 7ebd e448 143d 38a3 5cbd
000002d0: 40ae a13b c00b 80bc 7a61 f1bd a460 ecbd
000002e0: 9487 243d d245 adbd bce3 353d 6033 43bd
000002f0: 28cf fabd 3459 463d 5053 8e3d 3071 e43c
00000300: f827 c8bc 40d3 1c3d c003 603d 388b 7ebd
00000310: 187e 93bc a0ab 4b3c be76 bcbd 8e91 fc3d
00000320: 549f 95bd 7874 203d 60e1 213c 38d7 ccbd
00000330: c8ef 34bd d083 d5bc b804 44bd 1836 59bd
00000340: 4036 dcbd 6019 a3bc 8c4f c0bd de7d e5bd
00000350: 74ad 72bd 301d 443c 1ec0 c4bd c656 b13d
00000360: 8409 aabd 000e 9abb 0cdb 01bd 1eff ff3d
00000370: a0df 22bc 04c5 bc3d 2630 9f3d 1822 92bd
00000380: 00b0 0b39 3290 933d 9032 58bc 5031 70bd
00000390: 245e 9d3d 2a3a b53d 041d 0ebd f071 66bd
000003a0: 9025 0cbd 5826 d33c c084 483b 0281 bd3d
000003b0: 20ae edbc 4ea5 993d 244a c13d c0d7 93bb
000003c0: d03f c0bd 2c59 cc3d da53 873d b002 983c
000003d0: 9a46 8bbd 662d dabd a08c 043c 0001 c9bc
000003e0: 7600 97bd 6493 d43d 28e2 b43d b064 203d
000003f0: 76a2 b93d 7023 a23c f0a3 b23d 0039 9abb

weight f4 [32, 64]
-0.029279888 0.07201016 0.07742585 -0.07055618 0.07244319 0.07509084 0.019204065 -0.09559657
-0.11173561 0.06493986 0.015183687 0.08181833 0.10563289 0.077401355 0.026000157 -0.044432715
-0.056123912 -0.056221887 -0.116337165 -0.11696385 -0.11167891 0.11311075 0.028300703 -0.06334306
0.09336975 -0.10926618 -0.04786718 -0.10734151 -0.0151243955 0.043615445 -0.04495704 -0.071939886
0.005074665 -0.12185831 -0.034779385 -0.06688775 -0.056982264 0.0111070275 0.05201298 0.117735505
-0.1129079 0.02712351 0.08025029 -0.016916186 0.06797406 -0.043335095 -0.08165386 -0.0736057
0.038976505 0.035274163 0.018303752 0.12012428 -0.038154244 -0.101374894 0.11214113 -0.05752115
0.124475956 0.05896908 -0.07180847 -0.027869642 -0.058812454 -0.06042847 -0.071895435 -0.04087396
0.062949225 0.12361319 0.045738265 -0.0059805065 0.070603535 0.015442133 -0.071111366 0.018772662
-0.08623451 0.039664924 0.06932855 -0.07340655 -0.028754264 -0.10675046 0.08525953 0.06538962
-0.04135722 0.11468084 -0.025758937 -0.023713589 0.06527145 -0.10808106 0.03833975 0.014339298
0.11310208 -0.101759 -0.05477065 0.05063045 0.10328221 -0.055524796 0.09810655 0.02775085
-0.10112111 -0.0545097 0.08267407 -0.026356146 0.12280387 -0.07221554 0.036555246 -0.08527304
-0.102310404 -0.004631728 0.07453582 0.002896309 0.10426767 -0.045701012 -0.055846974 0.06532864
0.040263623 0.065152675 0.09160027 -0.110642776 0.027011842 0.007109031 0.040682986 -0.077296704
0.06402075 -0.033569843 -0.043617353 0.031282917 0.11383693 0.052201763 -0.055981502 0.05417867
0.076324046 -0.09092066 0.107237205 0.06917235 0.0018495768 0.018479392 -0.008075863 0.005824223
0.009591743 0.06733595 -0.03028509 0.09057638 0.09279212 -0.032542914 -0.0023287237 0.037679136
0.07347998 0.0228263 0.08065766 -0.027089491 0.06764035 -0.06523557 0.102518424 0.09477121
0.07346627 0.09431076 0.123594135 -0.050979525 -0.087449014 -0.04043001 0.0004887432 -0.08846247
0.028775588 -0.105075 0.009984598 -0.019186243 -0.08096276 0.0114738345 -0.060650423 0.066211626
0.010011509 0.11513902 0.073090866 0.0800226 0.04068415 -0.06669195 0.07071175 0.06816438
-0.059926525 0.073285595 0.08096556 0.0754465 0.08147018 0.027480692 -0.005742967 0.118727624
-0.07196352 -0.102807 0.08633645 0.104604945 -0.05874905 0.020983592 8.46684e-05 0.08511457
0.056345105 0.101692155 -0.03761281 0.078537464 0.08729178 -0.033060193 0.085771084 -0.04386279
-0.018097952 0.09804498 -0.11606723 0.11873326 -0.09559727 -0.099791884 0.11514248 -0.04871449
-0.10385458 0.045602396 -0.06793162 0.00900355 -0.022720098 0.050239712 0.025674194 -0.009354949
-0.010123 0.042691603 0.009030521 -0.06921293 0.09128451 0.020507768 -0.049917176 -0.048199847
-0.025297195 -0.05181296 -0.10151324 0.058098093 -0.082323775 0.050581947 0.065129176 -0.042988166
0.082062274 0.095566854 0.10938543 0.11097422 0.078672886 -0.015661687 0.11703859 -0.04903893
0.11737399 0.018246815 0.10882516 -0.04370892 -0.098652616 0.035082668 0.03390965 0.03121671
-0.118931904 -0.0033688843 -0.0037397742 0.052435115 -0.051253438 -0.09947173 0.031081349 -0.046164617
00000000: 60dc efbc 107a 933d 7291 9e3d c27f 90bd
00000010: 185d 943d 3ac9 993d d851 9d3c 22c8 c3bd
00000020: a4d5 e4bd 30ff 843d 00c5 783c 5e90 a73d
00000030: 0e56 d83d 9a84 9e3d 48fe d43c 14ff 35bd
00000040: 30e2 65bd ec48 66bd 2e42 eebd be8a efbd
00000050: eab7 e4bd 9ca6 e73d e0d6 e73c 02ba 81bd
00000060: a438 bf3d f2c6 dfbd 6010 44bd ded5 dbbd
00000070: 50cc 77bc 1ca6 323d e024 38bd 3855 93bd
00000080: 6049 a63b da90 f9bd d474 0ebd 72fc 88bd
00000090: 3c66 69bd 40fa 353c 900b 553d 501f f13d
000000a0: 423c e7bd 2032 de3c 445a a43d d093 8abc
000000b0: fc35 8b3d 2480 31bd 243a a7bd 96be 96bd
000000c0: d4a5 1f3d a47b 103d c0f1 953c b803 f63d
000000d0: a047 1cbd a49d cfbd 40aa e53d 4c9b 6bbd
000000e0: 40ed fe3d 9089 713d 5210 93bd e04e e4bc
000000f0: 54e5 70bd d883 77bd ea3d 93bd 746b 27bd
00000100: 86eb 803d ea28 fd3d 0c58 3b3d 20f8 c3bb
00000110: 9698 903d 0001 7d3c d6a2 91bd 20c9 993c
00000120: b89b b0bd b077 223d 20fc 8d3d 2c56 96bd
00000130: 108e ebbc fc9f dabd 8c9c ae3d feea 853d
00000140: 3066 29bd cadd ea3d 6804 d3bc 0043 c2bc
00000150: 0aad 853d 9a59 ddbd 240a 1d3d 60ef 6a3c
00000160: 10a2 e73d 0667 d0bd 3057 60bd e061 4f3d
00000170: a085 d33d f86d 63bd 16ec c83d c055 e33c
00000180: 9618 cfbd 9045 5fbd 0651 a93d d8e8 d7bc
00000190: 9880 fb3d bee5 93bd f4ba 153d a2a3 aebd
000001a0: 1e88 d1bd c0c5 97bb 3ca6 983d 00d0 3d3b
000001b0: 4a8a d53d fc30 3bbd ccbf 64bd 06cb 853d
000001c0: 78eb 243d c46e 853d ec98 bb3d ae98 e2bd
000001d0: f047 dd3c e0f2 e83b 34a3 263d bc4d 9ebd
000001e0: 501d 833d 8880 09bd 1ca8 32bd 8422 003d
000001f0: 5623 e93d 84d1 553d dc4c 65bd 74ea 5d3d
00000200: c84f 9c3d 9c34 babd 2e9f db3d 3caa 8d3d
00000210: 806d f23a 1862 973c a050 04bc 20d9 be3b
00000220: b026 1d3c 6ee7 893d 7018 f8bc 1c80 b93d
00000230: cc09 be3d b84b 05bd 809d 18bb 7055 1a3d
00000240: ac7c 963d 38fe ba3c d82f a53d c8ea ddbc
00000250: 0687 8a3d 3a9a 85bd 2ef5 d13d 6817 c23d
00000260: 7c75 963d 0026 c13d ec1e fd3d e8cf 50bd
00000270: 7818 b3bd f099 25bd 001f 003a d02b b5bd
00000280: c8ba eb3c 9031 d7bd 7096 233c 782c 9dbc
00000290: cecf a5bd c0fc 3b3c 946c 78bd f699 873d
000002a0: 5007 243c 02ce eb3d aab0 953d e4e2 a33d
000002b0: 6ca4 263d ca95 88bd 52d1 903d c499 8b3d
000002c0: 8475 75bd c216 963d 46d1 a53d b283 9a3d
000002d0: d6d9 a63d 301f e13c 802f bcbb 7827 f33d
000002e0: 9c61 93bd 7a8c d2bd 2ad1 b03d 1e3b d63d
000002f0: d8a2 70bd c8e5 ab3c 0090 b138 8c50 ae3d
00000300: 20ca 663d fa43 d03d e40f 1abd 40d8 a03d
00000310: 08c6 b23d 206a 07bd c0a8 af3d 78a9 33bd
00000320: 2842 94bc cecb c83d a8b4 edbd 6c2a f33d
00000330: 80c8 c3bd b05f ccbd d2cf eb3d d888 47bd
00000340: b6b1 d4bd 94c9 3a3d bc1f 8bbd a083 133c
00000350: 801f babc 28c8 4d3d b052 d23c 8045 19bc
00000360: f0da 25bc 64dd 2e3d c0f4 133c 82bf 8dbd
00000370: 60f3 ba3d e8ff a73c f475 4cbd 346d 45bd
00000380: 103c cfbc d439 54bd 2ce6 cfbd 44f8 6d3d
00000390: 5e99 a8bd 042f 4f3d 7262 853d 5c14 30bd
000003a0: 4410 a83d 8eb8 c33d 7805 e03d 7446 e33d
000003b0: 401f a13d f04c 80bc eeb1 ef3d 0cdd 48bd
000003c0: c661 f03d 587a 953c badf de3d 2008 33bd
000003d0: 620a cabd d8b2 0f3d d8e4 0a3d 30ba ff3c
000003e0: 9292 f3bd 80c8 5cbb 0017 75bb 34c6 563d
000003f0: 20ef 51bd d6b7 cbbd 509e fe3c 1c17 3dbd

bias f4 [32]
-0.063483894 -0.053809166 0.10609217 -0.08341886 0.121361986 -0.02687268 0.09538224 -0.078485295
0.029358834 0.049181923 0.11473322 -0.10829879 -0.022751883 -0.11623053 0.077108264 -0.11241856
0.07724954 -0.08725323 -0.009439483 0.06311715 0.04503131 0.0957745 0.022009104 -0.071537554
-0.046065748 -0.10671428 0.03301309 -0.055562526 0.08590928 0.0010077208 -0.0033339262 0.09742503
00000000: d803 82bd 0067 5cbd da46 d93d 82d7 aabd
00000010: a28c f83d 1824 dcbc c457 c33d e6bc a0bd
00000020: f081 f03c fc72 493d 40f9 ea3d c2cb ddbd
00000030: 2862 babc 460a eebd f0ea 9d3d b43b e6bd
00000040: 0235 9e3d d2b1 b2bd 10a8 1abc 9043 813d
00000050: c072 383d 6c25 c43d 704c b43c 4882 92bd
00000060: 70af 3cbd 048d dabd bc38 073d 8895 63bd
00000070: 34f1 af3d 8015 843a 007e 5abb c686 c73d

weight f4 [6, 32]
0.14897071 -0.167808 0.03302303 -0.15926594 0.109206066 0.10018782 0.0042824745 -0.0031192303
0.108438775 0.099881425 0.0938905 0.12838389 -0.036608905 0.13426332 0.1309795 -0.149927
0.06456092 0.026409134 0.08890866 0.07603355 0.06629607 0.077380046 0.086935595 -0.00018982589
-0.09586695 -0.028958216 0.12209211 -0.113552816 -0.041529372 0.10197838 0.09014271 -0.07640353
-0.11237077 0.006952882 0.006728232 -0.027844518 -0.12078202 0.047932744 -0.15638006 -0.082353845
0.045196846 0.13825063 0.021282494 0.1131237 -0.13236675 -0.023757994 -0.15560858 -0.14164865
-0.09411945 0.14809908 0.14205708 -0.09503602 0.079822555 -0.1618424 -0.03788334 -0.10634813
-0.050639227 -0.03211145 -0.044107303 -0.06926624 -0.1032111 -0.14713272 0.1416725 0.036982402
-0.13722515 0.091203704 0.10419826 0.13688637 -0.11999987 -0.034974635 0.048040256 0.07257745
0.008012414 -0.042540416 -0.120070174 0.15496488 0.035737067 0.10956101 -0.11564722 -0.024394453
-0.02800873 -0.019060805 0.011827037 0.17660044 -0.1607226 -0.07697186 0.0039108545 -0.060970575
-0.046331286 0.12226458 -0.037202343 0.057873234 -0.01409173 -0.022836715 0.107418194 -0.07518553
0.024287477 0.06317903 -0.029993579 0.11357398 -0.09729926 -0.057686307 -0.08239846 -0.09573376
0.00562194 0.1513447 0.02308777 0.13487639 -0.16043407 0.11469297 0.16132142 -0.06383642
-0.15936166 0.108688936 -0.050710708 -0.06552482 0.014786586 -0.15355405 -0.0077186227 0.07487227
0.011074722 0.04665388 0.030740604 0.09008433 0.00089769065 -0.113149956 -0.12457413 -0.1507667
0.13594405 0.06269112 0.1249588 0.17396094 0.14198376 -0.065691344 -0.07960625 -0.12732118
0.13990925 -0.053757906 0.1422791 0.14213543 -0.11598503 -0.025997445 0.058458164 -0.07977033
-0.072242185 -0.15258874 -0.003635019 0.17621596 -0.07847134 -0.17648135 0.08831762 0.17661558
-0.00083366036 0.048588187 0.0036022514 -0.15615721 0.06247212 0.048069686 -0.16882625 0.045079157
0.05561039 -0.10311338 0.09035595 0.04572685 0.026771635 -0.085085616 0.12066783 0.14601995
0.16332726 -0.10102631 0.11114888 0.036784455 0.07825111 0.09419851 0.16856433 -0.15584311
0.13990946 0.07413174 0.03338477 -0.111960806 -0.14073505 -0.17253089 -0.010651097 0.06958656
0.013933092 0.04674442 0.040495932 0.12866347 -0.08028382 0.04199484 0.17489694 -0.15965325
00000000: c78b 183e dcd5 2bbe 2843 073d 9c16 23be
00000010: 6ea7 df3d 462f cd3d 0054 8c3b 006c 4cbb
00000020: 2615 de3d a28e cc3d aa49 c03d 1177 033e
00000030: 38f3 15bd 537c 093e 7d1f 063e 7786 19be
00000040: 8438 843d f857 d83c be15 b63d 7ab7 9b3d
00000050: 3cc6 873d 6e79 9e3d 4a0b b23d 000c 47b9
00000060: e455 c4bd c839 edbc 6e0b fa3d 618e e8bd
00000070: b41a 2abd 0ada d03d be9c b83d 7479 9cbd
00000080: a522 e6bd 00d5 e33b 8078 dc3b 301a e4bc
00000090: 905c f7bd 2055 443d 1822 20be 22a9 a8bd
000000a0: 5420 393d 9391 0d3e a058 ae3c 66ad e73d
000000b0: 268b 07be 20a0 c2bc db57 1fbe 580c 11be
000000c0: b3c1 c0bd 49a7 173e 6977 113e 3fa2 c2bd
000000d0: 027a a33d 04ba 25be 902b 1bbd 0ccd d9bd
000000e0: 146b 4fbd 4c87 03bd dca9 34bd 75db 8dbd
000000f0: 5760 d3bd f6a9 16be 9912 113e dc7a 173d
00000100: c084 0cbe 02c9 ba3d e665 d53d f12b 0c3e
00000110: 7ec2 f5bd 9041 0fbd dcc5 443d 7ca3 943d
00000120: 8046 033c dc3e 2ebd 5ae7 f5bd 1daf 1e3e
00000130: 0861 123d 8661 e03d 73d8 ecbd e0d6 c7bc
00000140: 9072 e5bc 6825 9cbc 30c6 413c bfd6 343e
00000150: 7794 24be 6ca3 9dbd a026 803b 48bc 79bd
00000160: e0c5 3dbd da65 fa3d 7c61 18bd 7c0c 6d3d
00000170: 00e1 66bc 1014 bbbc 12fe db3d dffa 99bd
00000180: 88f6 c63c 0264 813d 18b5 f5bc 7a99 e83d
00000190: d644 c7bd 7a48 6cbd 86c0 a8bd 1010 c4bd
000001a0: 4038 b83b 1bfa 1a3e 9022 bd3c 091d 0a3e
000001b0: d448 24be 26e4 ea3d 7131 253e abbc 82bd
000001c0: b42f 23be 4e98 de3d 08b6 4fbd e031 86bd
000001d0: 7043 723c 463d 1dbe 80ec fcbb a256 993d
000001e0: c072 353c 2418 3f3d b8d3 fb3c 227e b83d
000001f0: 0053 6b3a 2abb e7bd b920 ffbd 9662 1abe
00000200: eb34 0b3e 3464 803d 66ea ff3d d122 323e
00000210: 3164 113e 2f89 86bd 9a08 a3bd 7c60 02be
00000220: 5f44 0f3e 4031 5cbd 9db1 113e f38b 113e
00000230: 8f89 edbd 98f8 d4bc d471 6f3d a05e a3bd
00000240: b6f3 93bd 3940 1cbe 8039 6ebb f571 343e
00000250: 95b5 a0bd 87b7 34be dedf b43d b7da 343e
00000260: 008a 5aba 6804 473d c013 6c3b ade7 1fbe
00000270: c4e2 7f3d b8e4 443d cae0 2cbe eca4 383d
00000280: b8c7 633d 1c2d d3bd 8a0c b93d 144c 3b3d
00000290: 3050 db3c 5e41 aebd b220 f73d 4186 153e
000002a0: 433f 273e e2e6 cebd 06a2 e33d 4cab 163d
000002b0: 1e42 a03d 26eb c03d 219c 2c3e 5695 1fbe
000002c0: 6d44 0f3e 62d2 973d 78be 083d b54b e5bd
000002d0: d91c 10be f0ab 30be f081 2ebc 6683 8e3d
000002e0: a047 643c 1477 3f3d 10df 253d 5bc0 033e
000002f0: d86b a4bd c802 2c3d 2f18 333e 247c 23be

bias f4 [6]
-0.10739651 0.16904451 0.10506837 -0.14954935 -0.050228044 0.086918786
00000000: b4f2 dbbd 011a 2d3e 162e d73d 7723 19be
00000010: ecbb 4dbd 7a02 b23d

weight f4 [2, 32]
0.08037518 0.0038258433 -0.112265505 -0.07007796 0.07640065 0.052419916 0.030945435 0.15635805
-0.016042903 0.16962488 -0.04657793 -0.07649453 0.086639866 0.015600488 -0.07292555 0.16422524
0.03224978 0.085037306 0.10259606 0.0687682 0.11864416 -0.15408297 0.002632454 -0.085597
0.048624694 0.117889926 0.01906313 0.043357998 -0.036914945 -0.17288092 -0.12528773 -0.061285734
-0.097329356 -0.026773512 0.13516529 -0.04372491 0.021130338 -0.07466407 -0.08826713 -0.063315436
0.1553569 0.10277568 -0.03312093 0.13410662 0.025189206 0.16586299 0.03381677 0.0039581954
-0.15268701 0.042972356 0.074634984 -0.0046101958 0.1328208 0.14212705 -0.012171969 0.030325502
-0.018112361 -0.104750745 -0.021301016 -0.10439728 0.12525864 -0.07745868 0.13846128 0.12780835
00000000: be9b a43d 00bb 7a3b 75eb e5bd 0985 8fbd
00000010: f277 9c3d 44b6 563d 4881 fd3c 531c 203e
00000020: 686c 83bc 25b2 2d3e 80c8 3ebd 2aa9 9cbd
00000030: 3e70 b13d 3099 7f3c fe59 95bd a92a 283e
00000040: 5818 043d 0a28 ae3d e21d d23d 58d6 8c3d
00000050: b6fb f23d edc7 1dbe 4085 2c3b 7b4d afbd
00000060: b02a 473d 4670 f13d 482a 9c3c 2898 313d
00000070: 2034 17bd b207 31be 6d4b 00be c006 7bbd
00000080: 9d54 c7bd 2054 dbbc c568 0a3e e418 33bd
00000090: 8819 ad3c 7ae9 98bd 66c5 b4bd 86ab 81bd
000000a0: e115 1f3e 0e7c d23d d0a9 07bd 3f53 093e
000000b0: 9859 ce3c fdd7 293e 7483 0a3d c0b3 813b
000000c0: fc59 1cbe c803 303d 3ada 983d 2011 97bb
000000d0: 2d02 083e c189 113e f06c 47bc 306d f83c
000000e0: 6060 94bc 8f87 d6bd 787f aebc 3ece d5bd
000000f0: cd43 003e a8a2 9ebd cbc8 0d3e 31e0 023e

bias f4 [2]
0.025531933 0.001743108
00000000: 5828 d13c 0079 e43a

weight f4 [1, 32]
-0.13428938 -0.032100976 0.0155278295 0.12767409 0.14046134 0.16108052 0.13196425 0.09350081
-0.09509819 -0.022414744 0.1056865 -0.04912436 0.07662873 0.13794233 -0.07315241 0.0563574
0.052957058 0.17135294 0.1536678 0.04196553 0.15111189 0.04920514 0.06862168 0.14410771
0.04200673 0.0764793 -0.009699613 0.0733109 -0.095724255 -0.019338071 0.10564141 0.1458623
00000000: 2883 09be 507c 03bd 7068 7e3c ffbc 023e
00000010: 19d5 0f3e 4bf2 243e a321 073e 5a7d bf3d
00000020: d7c2 c2bd 209f b7bc 2a72 d83d a036 49bd
00000030: 86ef 9c3d c140 0d3e eed0 95bd 04d7 663d
00000040: 80e9 583d 2577 2f3e 175b 1d3e 0ce4 2b3d
00000050: 13bd 1a3e 548b 493d 8689 8c3d f990 133e
00000060: 400f 2c3d 2ea1 9c3d 20eb 1ebc 0624 963d
00000070: 140b c4bd e06a 9ebc 865a d83d ed5c 153e
