env-experiments/v3_simplified_game_4p_16cards/MARLv1/models/attacker_agent_final_3.pth (torch, 124802 bytes, 11 tensors)

weight_ih_l0 f4 [256, 25]
000000 02 b4 b0 3d 5c d9 14 bd 40 9a 56 bd 90 64 c0 3c
       0.08628084 -0.036340103 -0.052393198 0.023485452
000010 b0 49 ca 3d 10 b5 d2 3d 38 01 1a 3d da 5a aa bd
       0.09877336 0.10288441 0.03759882 -0.0831811
000020 58 93 bb bd 94 ee 1c bd ee 10 be 3d e0 1e ba bc
       -0.09158963 -0.038313463 0.09280573 -0.0227198
000030 08 98 43 bd a4 ff 2f 3d 8c e3 21 bd ea 69 9b bd
       -0.04775241 0.042968407 -0.039523646 -0.07588561
000040 98 25 67 3d fe cd e0 bd 18 e2 5f 3d 3c 9b 7f bd
       0.056432337 -0.1097679 0.05465898 -0.062403902
000050 60 68 54 3d fe 47 bd 3d f8 22 49 bd 30 8e ad 3d
       0.051857352 0.09242247 -0.049105614 0.08474386
000060 00 d5 b8 ba c0 f9 7d 3d c0 50 2f 3c d8 0f c1 3c
       -0.0014101565 0.06200576 0.010700405 0.023567125
000070 32 f0 cc bd 88 62 d3 3d 0e 0b b3 bd 78 71 bf bd
       -0.10006751 0.10321528 -0.08742343 -0.09347814
000080 04 e7 bb 3d 80 73 ee bd 80 7f 8c 3a f8 e4 61 bd
       0.09174922 -0.116431236 0.001071915 -0.055150002
000090 04 36 3b bd 34 99 ef 3d 70 92 99 bc a0 ef 4a 3c
       -0.04570581 0.11699143 -0.018746585 0.012386233
0000a0 38 8d 6b bd 50 64 8d bd a8 37 8c bc c0 c1 67 3c
       -0.057507724 -0.06903899 -0.017116383 0.014145315
0000b0 8c f8 83 3d 00 23 90 3b 76 e8 ea 3d 0c 84 7e bd
       0.06443891 0.0043987036 0.1147012 -0.06213765
0000c0 00 1e e7 b9 46 66 f6 3d ca 80 aa bd 34 0b 30 3d
       -0.00044082105 0.12031226 -0.08325346 0.042979434
0000d0 a2 fc da 3d 10 3a a3 3c 70 ac 78 bd 9e a8 8a 3d
       0.10692717 0.019925147 -0.060711324 0.067704424
0000e0 58 63 12 3d e0 06 2a bc 94 f5 4a bd ca 8d 91 3d
       0.035739273 -0.010377616 -0.049550608 0.07107122
0000f0 50 a3 ce 3c 10 3f cc bd 20 68 dd 3d 50 9a bc bc
       0.025224358 -0.09972966 0.10810876 -0.0230228
000100 80 60 c9 3a 02 ac f5 3d dc 82 86 bd c8 5e 34 3d
       0.0015363842 0.119956985 -0.06567928 0.044035703
000110 0a 2a ed bd 08 53 3c 3d 78 6c 7c 3d 88 0a eb bc
       -0.11580284 0.045977622 0.06162688 -0.028691545
000120 e8 93 29 3d 96 29 aa 3d 38 3a 70 3d 90 a4 6f bd
       0.04140082 0.08308713 0.05864927 -0.05850655
000130 c6 c8 f7 bd 6c 40 3e bd c0 5d 59 3b 5e a0 de bd
       -0.12098841 -0.046448156 0.0033167452 -0.10870431
000140 0e 92 90 3d 24 bd 57 bd 22 d8 da bd fc 12 1d bd
       0.07059108 -0.052670613 -0.10685755 -0.038348183
000150 a8 30 b8 bc 14 16 a4 3d ea 86 d7 bd 54 e5 19 3d
       -0.022484139 0.080120236 -0.1052378 0.03757222
000160 f0 0d 41 3d c8 7a d3 bd 9a 75 c7 3d 0a 09 dd bd
       0.047132432 -0.10326153 0.097392276 -0.1079274
000170 3c 30 2c bd 80 7d 16 bb b2 32 c0 bd 52 56 f6 bd
       -0.042038187 -0.0022962987 -0.09384669 -0.12028183
000180 c8 df 8f 3d 0a 64 9b 3d b4 5b e8 3d f0 75 27 3d
       0.07025105 0.0758744 0.11345616 0.04088396
000190 7c 5e c9 3d 48 4c 88 bd e0 db 61 bc bc 2f 5f bd
       0.098324746 -0.066551745 -0.013785332 -0.054488882
0001a0 24 27 12 bd 2c cf 83 bd 6c 33 d2 bd 12 b3 81 bd
       -0.03568186 -0.06435999 -0.10263714 -0.06332983
0001b0 28 91 a3 bc 3e 47 d7 bd 50 7e ab 3c 80 41 63 bd
       -0.019966677 -0.10511635 0.020934254 -0.055482388
0001c0 ac 8c 13 bd d8 8b a2 3d ac 0a 24 3d 48 44 93 bc
       -0.036022827 0.07936829 0.04004924 -0.017976895
0001d0 00 18 ac 39 1e 39 ab bd a0 0a cc 3d 9c 3f dc bd
       0.00032824278 -0.083605036 0.09962964 -0.1075432
0001e0 04 b1 40 3d 14 7e cc 3d d8 ab a1 3c 20 d2 08 3c
       0.047043815 0.09984985 0.019735262 0.008350879
0001f0 14 f4 8f bd 26 11 8d bd 08 b0 ea bc bc c2 38 3d
       -0.07028976 -0.068880364 -0.028648391 0.04510759
000200 9e a2 a0 3d 20 09 d7 3b 70 13 a3 bc 98 2b 9a bd
       0.07843517 0.006562367 -0.01990673 -0.07527846
000210 98 66 12 bd ae 17 c6 3d 00 53 e5 bb b8 4e 75 3d
       -0.035742372 0.09672485 -0.0069984198 0.059889525
000220 c0 22 3f 3d e0 69 ef 3b b6 cb dd 3d 10 1a dc bc
       0.046664 0.0073063225 0.108298704 -0.026867896
000230 f6 86 a3 3d c8 45 44 3d fc 68 80 bd c8 c4 a6 3c
       0.07984726 0.04791811 -0.06270024 0.020357504
000240 d0 3a 56 3c ac c6 19 bd e0 e4 3f bc 00 55 67 3a
       0.013075545 -0.037542984 -0.011712283 0.00088246167
000250 8a d7 df 3d ee 9a 97 bd c0 7e 69 3d d0 b1 34 bc
       0.10929783 -0.07402597 0.057005644 -0.011028722
000260 3c 7a fd 3d 10 1b 84 bd 50 f2 54 bc a0 21 28 3c
       0.1237683 -0.06450474 -0.012997225 0.010261923
000270 a0 cc c7 bb ce a4 a1 bd 68 83 85 3c 24 f6 61 bd
       -0.0060973912 -0.07892762 0.016298011 -0.05516638
000280 80 c6 ac 3d 74 e1 3c 3d cc 24 fc bd 50 99 37 3c
       0.08436298 0.046113446 -0.12311706 0.011205986
000290 38 16 2a 3d 2a 53 c4 3d 3a a8 a6 bd c8 8e ae 3c
       0.041525096 0.09586175 -0.081375554 0.021308318
0002a0 20 0b f8 bc 78 ee e8 bc 26 f7 96 3d 82 24 d4 bd
       -0.030278742 -0.028434023 0.073713586 -0.10358526
0002b0 98 8a a9 3d f0 f4 a5 3d b0 e6 2a bc 90 44 c1 bd
       0.08278388 0.08103359 -0.010430977 -0.094369054
0002c0 de de f8 bd 9a 93 ec bd 7a 87 84 3d 42 d3 f9 3d
       -0.121518835 -0.1155159 0.064711526 0.12198497
0002d0 20 8e 76 bd fc ab fe 3d e0 ea b3 3d 14 43 e0 bd
       -0.060194135 0.12435147 0.08785033 -0.10950294
0002e0 34 87 24 3d f8 32 a4 bc 30 fd 7c 3c 70 33 52 3d
       0.040168002 -0.020043835 0.015441224 0.051318586
0002f0 f4 8c f2 bd e0 4a df 3d 30 7e 31 bd 40 30 96 bb
       -0.11843291 0.10902953 -0.043333232 -0.0045833886
000300 36 a9 c9 3d b8 12 f9 bd 40 16 6f 3c 5c 79 86 3d
       0.098467276 -0.121617734 0.014592707 0.06566116
000310 48 75 81 3c 2c ea ec bd e2 8e 81 bd 10 8e dd bd
       0.015802994 -0.11568102 -0.06326081 -0.10818112
000320 22 52 d1 bd 5c b3 57 bd 04 00 d3 bd a0 09 0d bc
       -0.10220744 -0.052661285 -0.10302737 -0.008608252
000330 90 c1 15 bc 50 f7 4f 3d 58 ed c7 bd 34 48 56 3d
       -0.009140387 0.050772965 -0.097620666 0.052314952
000340 14 5e a6 bd 08 9a bc bc ac 53 8e bd f2 9c ba bd
       -0.08123413 -0.023022667 -0.06949553 -0.09111966
000350 60 2a 82 bc e0 cf 60 3c c6 46 eb 3d d0 4a b5 3c
       -0.015889347 0.013721436 0.11488108 0.0221304
000360 b4 c3 31 3d 0c b5 87 3d bc 4e 8f bd d2 34 a3 3d
       0.043399528 0.06626329 -0.06997439 0.07969059
000370 4c 4d dc 3d e6 6f bb 3d 50 59 6f bc a0 34 e2 bc
       0.10756931 0.09152202 -0.014608696 -0.027612984
000380 10 19 45 3d b8 76 fc 3c 20 41 2f bd d8 2d e9 bd
       0.048119605 0.030818328 -0.042786717 -0.11385697
000390 00 be ea bb a8 f3 f3 bd f4 b3 f5 3d 54 69 d2 bd
       -0.007163763 -0.11911708 0.11997214 -0.10273996
0003a0 00 ba 2b 3d b8 3c b8 bd 30 bb 44 3d 54 5e 26 3d
       0.04192543 -0.08995956 0.04803008 0.040617302
0003b0 1e 7c e1 3d 32 d4 9c 3d 54 d2 17 3d ec ee bf 3d
       0.110100016 0.076576605 0.03706582 0.093717426
0003c0 b6 18 c5 bd d0 ee a5 3c e0 4e 99 bb 80 34 b1 3c
       -0.09623854 0.020255476 -0.004678592 0.02163148
0003d0 1c 1e 35 bd 78 1e a1 3c b8 dc b9 3c b4 e7 07 bd
       -0.044218168 0.019667849 0.022688255 -0.033179954
0003e0 f8 41 f5 3c e0 d7 9d 3d 90 84 d5 bd 24 21 79 3d
       0.029938683 0.077071905 -0.10425675 0.06082262
0003f0 60 6f ff 3d c6 a3 f2 bd b6 50 96 3d c0 a3 ac 3b
       0.12472415 -0.118476436 0.07339613 0.005268544

weight_hh_l0 f4 [256, 64]
000000 88 e8 e8 3c 5a 5d a0 3d d4 53 fc bd ac 04 1d 3d
       0.028431192 0.078303054 -0.123206764 0.038334534
000010 68 03 72 bd 58 66 ec bd 5c 8d a6 bd 20 d0 55 3d
       -0.05908528 -0.11542958 -0.08132431 0.052200437
000020 f2 3d a7 3d c0 02 24 bd 4a 80 97 3d 8c d9 30 bd
       0.08166112 -0.040041685 0.07397516 -0.04317622
000030 08 7e 16 bd 88 b6 f9 3c 20 0f 45 bd 60 3f 53 3d
       -0.036741287 0.030482545 -0.048110127 0.05157411
000040 82 a3 94 bd 6e 2a a3 3d b4 f1 19 bd c8 e0 fc 3c
       -0.07257749 0.07967077 -0.03758402 0.030868903
000050 90 f4 4f 3d 72 88 e4 3d 1a d6 9f bd 40 ea db bc
       0.050770342 0.111588374 -0.078045085 -0.026845098
000060 a0 97 74 bd 66 d2 cf bd 22 7f a8 bd a0 32 b5 bd
       -0.059714913 -0.10147552 -0.08227374 -0.088475466
000070 62 b8 e8 3d 88 4b 12 bd d8 36 b6 3d 62 d7 ef 3d
       0.11363293 -0.035716563 0.08897179 0.11711003
000080 7c d8 f3 3d 8c 2b 62 bd e8 ce 86 bc 30 b4 51 3d
       0.119065255 -0.05521731 -0.016456082 0.05119723
000090 52 8d ec bd 68 a7 fc bc 6c 16 0f 3d b4 23 28 bd
       -0.11550392 -0.030841544 0.034933493 -0.041049674
0000a0 2e 0a c9 3d 08 61 ad 3c 30 ba 93 bc 08 98 65 3d
       0.09816395 0.021164432 -0.018033117 0.05605319
0000b0 06 28 95 3d 88 a2 15 3d 04 b3 ca bd 90 66 6f bc
       0.072830245 0.036531955 -0.09897426 -0.014611855
0000c0 b4 25 bd bd f6 3e d6 bd 50 bb 0e 3c b0 74 bb bd
       -0.09235707 -0.104612276 0.008711651 -0.09153116
0000d0 68 5f 28 3d 30 1d ea 3c 80 44 dc bc 8a 55 c9 3d
       0.04110661 0.02857837 -0.026888132 0.098307684
0000e0 68 60 c0 bd d6 e2 f5 bd 30 42 bf 3c 0c 82 2b bd
       -0.09393388 -0.12006156 0.02334699 -0.04187207
0000f0 0a 26 ca bd f0 a8 4e bc f2 c1 a2 bd 9c d2 4c 3d
       -0.098705366 -0.01261352 -0.079471484 0.05000554
000100 e0 a2 03 bd cc 40 55 3d 66 66 e8 3d 58 09 92 3d
       -0.03213775 0.05206375 0.11347656 0.071306884
000110 30 6f ac bd 28 bf d9 3c bc 6d b6 3d b0 44 4d bc
       -0.08419645 0.026580408 0.08907649 -0.012528583
000120 18 80 37 3d 58 a6 9d bc 56 b9 88 3d 06 bd a2 bd
       0.044799894 -0.019244358 0.06675975 -0.079462096
000130 42 61 a9 bd 2c 4f 48 bd 2c da 8a 3d 42 25 f0 bd
       -0.082705036 -0.04890363 0.06779894 -0.11725856
000140 46 e4 bc 3d 00 db e9 bc 86 42 fa 3d ba c6 b5 bd
       0.09223227 -0.02854681 0.122197196 -0.08875795
000150 28 20 8c bd 50 47 73 3d 18 41 cd bc 4c eb 50 bd
       -0.06842071 0.05939418 -0.025055453 -0.051005647
000160 52 32 ec bd c0 f1 0b bd d0 a7 37 3c 4e 88 d3 bd
       -0.11533035 -0.034166098 0.011209443 -0.103287324
000170 a0 4e d0 3c f0 ba b7 3d 20 e6 d7 3c ba 0d 9c bd
       0.025428116 0.089712024 0.02635485 -0.07619806
000180 58 72 ee bc 68 2f f4 bd 98 87 59 bd 4c 1a e8 bd
       -0.029107258 -0.119231045 -0.053107828 -0.11333141
000190 42 88 f9 3d 14 cf 41 bd d6 90 a5 bd bc fb 20 3d
       0.12184192 -0.047316626 -0.08084266 0.039302573
0001a0 70 75 e8 3d cc f6 a2 3d be 03 e1 3d 78 0c 89 bc
       0.113505244 0.07957229 0.10987042 -0.016729578
0001b0 bc 3d eb bd 1e ff a5 3d 4c ec c9 3d b8 6e 80 bc
       -0.11486384 0.081053 0.09859523 -0.015677795
0001c0 f0 d4 6b 3c f4 9b d8 bd 70 40 c0 3c 12 7b e7 3d
       0.01439403 -0.10576621 0.023468226 0.11302771
0001d0 ce d2 d1 3d d0 93 7e bd 88 5c e2 3d c2 ea fd bd
       0.10245286 -0.062152684 0.11052805 -0.12398292
0001e0 ba 81 c7 3d 68 1a 8c bc d8 95 84 3d 7c 76 e5 3d
       0.0974154 -0.017102435 0.06473893 0.1120424
0001f0 cc c9 12 bd 9c 88 97 bd a0 44 50 3c 76 1a b7 bd
       -0.03583698 -0.07399103 0.012711674 -0.08940594
000200 98 a3 e6 bc c0 8a c7 bc dc 53 be 3d 7c 77 6f 3d
       -0.02815418 -0.024358153 0.09293339 0.05846356
000210 40 66 53 bb c4 bb a7 bd c8 8e 0b 3d a8 02 ef bc
       -0.003225699 -0.0819011 0.034071714 -0.029176071
000220 56 c9 bb 3d d0 15 b9 bd be 89 a8 3d 76 4b 9b bd
       0.09169261 -0.090373635 0.08229397 -0.075827524
000230 aa 78 d2 3d ac 6b e5 bd 20 5c e4 3b e4 24 1c bd
       0.10276921 -0.112021774 0.00696899 -0.03812112
000240 d4 8e a2 bd c0 e5 a0 3b 00 d4 ed 3c b0 67 15 3d
       -0.079373986 0.004910201 0.029031754 0.036475837
000250 00 fc 25 3c 60 b6 f4 bd 56 d2 84 3d 64 fe 9d 3d
       0.010130882 -0.11948848 0.06485431 0.07714537
000260 9e 55 ab bd e8 19 22 3d dc c7 b5 bd d4 dd 9e 3d
       -0.083659396 0.039575487 -0.08876011 0.07757154
000270 00 4f 06 bd e0 44 9f 3b d8 a8 f5 3c bc 84 54 bd
       -0.032790184 0.0048605055 0.029987738 -0.051884398
000280 f4 80 5b 3d 70 05 56 bc f0 93 2d bd e8 70 7d bd
       0.053589776 -0.01306282 -0.042377412 -0.061875254
000290 d8 ff 79 3d 2c ac 7f bd f0 91 d0 bc f0 47 49 bd
       0.061035007 -0.062420055 -0.025460213 -0.04914087
0002a0 40 8a e2 3b 8e 7d d4 bd c0 98 05 bd 30 53 08 3d
       0.0069134533 -0.1037551 -0.032616377 0.03328246
0002b0 88 5f ec 3c 9c e8 9e bd a4 c0 28 3d 38 bb be 3c
       0.028854147 -0.077592105 0.04119934 0.023282632
0002c0 54 87 5a bd 0c 52 f3 bd 90 7c 1e bd 44 fd 04 bd
       -0.053351715 -0.118808836 -0.03869301 -0.032468095
0002d0 00 c5 af 3b 48 b3 33 bd 24 85 0b 3d a4 5f 2a 3d
       0.0053640604 -0.043872148 0.03406252 0.041595116
0002e0 a8 43 a9 3d 04 2f e6 bd b0 78 2a bd d8 95 a4 bd
       0.082648575 -0.11239436 -0.041619003 -0.08036393
0002f0 a0 01 c8 3b 50 3d 86 bc ac ac 4f bd c4 f6 bd 3d
       0.0061037093 -0.016386658 -0.050701782 0.092755824
000300 3a 0e a7 bd 50 1c 1f 3d c0 ed 8f bc f0 c7 fc bd
       -0.081570104 0.03884536 -0.017569423 -0.123428226
000310 04 b7 f1 3d ac 6e e2 bd d8 42 0c bd 82 00 9d 3d
       0.118024856 -0.11056265 -0.034243435 0.076661125
000320 00 7a 3d bc 18 c9 e1 3c 98 ba da 3c 30 8c a7 3c
       -0.011564732 0.02756171 0.026700303 0.020452589
000330 ec e6 a4 3d 38 13 da bc a0 f9 c7 bc bc de 3f 3d
       0.08051857 -0.026620492 -0.024411023 0.046843275
000340 24 6a 26 bd b0 f5 41 bd c8 71 ee bd ba 18 c7 bd
       -0.040628567 -0.047353446 -0.11642796 -0.09721513
000350 b0 bc 4f 3c 94 9d 0e 3d d6 5c b2 bd 00 ef 8f bc
       0.012679264 0.034818247 -0.08709113 -0.017570019
000360 da e8 80 bd 60 e3 9e 3b 04 45 6c bd 38 6c ca 3c
       -0.06294413 0.0048488826 -0.057683006 0.024709806
000370 70 24 f4 3d f8 54 d3 3d c0 6a cc 3d b8 78 c5 bd
       0.119210124 0.10318941 0.099812984 -0.09642166
000380 9e 46 aa 3d 40 b6 cc 3d 00 52 01 3c 40 e8 63 3c
       0.083142504 0.09995699 0.0078930855 0.013910353
000390 f6 77 c2 bd e0 cb cf bd 4c d6 7f bd b6 81 a0 bd
       -0.09495537 -0.10146308 -0.06246023 -0.078372404
0003a0 64 48 dd bd a8 21 77 3d 08 76 2a bd 54 02 29 bd
       -0.10804823 0.06033483 -0.04161647 -0.041261986
0003b0 dc d0 8c 3d 40 fe 2e 3d d0 47 da bd f0 1a 6d 3c
       0.06875774 0.04272294 -0.106582284 0.014471754
0003c0 d4 bb d3 bd 70 45 4c 3c a6 bc 85 3d 84 b6 22 bd
       -0.1033856 0.012467727 0.065301225 -0.03972484
0003d0 c0 5b 8d bd 18 3a 21 bd f4 00 dc bd d8 ab b0 3d
       -0.069022655 -0.039362043 -0.10742369 0.086265266
0003e0 04 48 f1 bd 0a 73 dc bd 30 40 17 3d 4e 6f e6 3d
       -0.11781314 -0.107641295 0.03692645 0.112516984
0003f0 40 b6 c6 3c 2c 70 35 3d 4c 24 09 bd a0 52 6c bc
       0.024256825 0.04429643 -0.03348188 -0.014423996

bias_ih_l0 f4 [256]
000000 f8 cd d3 3d 3e 80 fc 3d 60 ce dd 3d 1c 55 40 3d
       0.1034202 0.12329148 0.108303785 0.046956167
000010 08 ac 00 bd ee f0 d3 bd 80 9b 16 bd 74 2a 42 3d
       -0.03141406 -0.10348688 -0.03676939 0.047403768
000020 cc df 82 bd 30 61 bc bd fc e4 1d 3d 24 16 67 3d
       -0.06390342 -0.091982245 0.038548455 0.0564176
000030 60 8b b4 3d aa 4e b7 bd 44 4c f1 bd 70 e3 d7 3c
       0.08815646 -0.08950551 -0.11782125 0.026353568
000040 42 5f f6 3d 60 ef 9f 3d 7c 6c 60 3d e6 2d b9 bd
       0.12029888 0.07809329 0.05479096 -0.090419576
000050 b0 4c fd bc b0 05 7b bd 3e d8 a0 bd b0 69 9e bd
       -0.030920357 -0.06128472 -0.07853745 -0.07735002
000060 68 a5 b2 3c a6 3c a7 3d 08 1a 7e bd 1c 96 69 bd
       0.021807387 0.08165865 -0.062036544 -0.05702792
000070 c8 46 fd 3c 46 a4 8d bd e0 b2 69 bd 00 90 59 b9
       0.03091754 -0.06916098 -0.057055354 -0.00020748377
000080 58 24 ee 3d b4 1c 0f bd 32 ad e2 3d 14 99 65 bd
       0.11628026 -0.034939483 0.11068191 -0.05605419
000090 08 97 98 bd 38 cf c7 bc 88 3e 09 bd d2 14 bd 3d
       -0.07450682 -0.024390802 -0.0335069 0.09232487
0000a0 80 94 f0 bc c8 e9 81 bc 30 f7 a1 bc 34 ec b6 bd
       -0.029367685 -0.015858546 -0.019771188 -0.08931771
0000b0 c0 12 25 3d 00 85 de 3d 94 de 39 3d ba a9 f3 bd
       0.040301085 0.108652115 0.045378283 -0.11897607
0000c0 ae 2b c0 bd a8 e8 86 bc a0 90 72 3d 68 fa 9f 3d
       -0.09383331 -0.016468361 0.059219956 0.07811433
0000d0 c0 c2 97 bc 50 72 49 3c c8 35 60 3d c4 88 e0 bd
       -0.018525481 0.012295321 0.05473879 -0.10963586
0000e0 c0 ff 6b bc 56 7f f4 3d 42 66 d2 bd d8 81 e5 bc
       -0.014404237 0.1193835 -0.102734104 -0.028016016
0000f0 7c fc 72 3d 0c dd b3 3d 64 f7 c5 bd c0 a9 17 3b
       0.05932282 0.08782396 -0.09666327 0.002314195
000100 76 c7 9d 3d a8 2b 86 bc 26 5c d7 3d 32 65 f9 bd
       0.0770406 -0.016378239 0.10515623 -0.121775046
000110 e8 af 66 3d 7a 21 a9 3d 60 ae be bb c8 8e 0d 3d
       0.0563201 0.08258338 -0.005819127 0.034559995
000120 84 27 b5 bd 14 de 40 bd 64 7a 7d 3d 74 85 40 bd
       -0.08845428 -0.04708679 0.0618843 -0.04700227
000130 a4 ab 52 bd 6a ad d6 3d 66 7a a8 bd 80 ed fb bb
       -0.05143322 0.10482295 -0.08226471 -0.0076882243
000140 78 9d 14 3d 64 4f 7e 3d 78 fe a7 3c 34 ac 12 3d
       0.036282986 0.06208743 0.020507082 0.035808757
000150 d4 ae 36 3d 84 f9 f4 3d c8 06 8a bc fc 55 73 3d
       0.044600323 0.11961654 -0.016848937 0.059408173
000160 0c 51 9c 3d b4 5d 79 3d 4c 27 e2 3d 0a 00 a1 3d
       0.07632646 0.060880378 0.110426515 0.078613356
000170 3c 94 94 bd bc db 83 3d 58 4c 30 3d 4e 61 fc bd
       -0.07254836 0.064383954 0.043041557 -0.12323247
000180 a2 92 f0 bd 8e e2 b5 bd 84 0e 9d bd a8 f2 ec bd
       -0.11746718 -0.088811025 -0.07668784 -0.115697205
000190 10 bc f7 bc c2 c7 b5 bd 88 a1 95 3d 4c 67 4c bd
       -0.030241042 -0.088759914 0.073062 -0.0499032
0001a0 50 65 37 bc 8c 9a 6f 3d 40 9e b1 bc 4c ba 4e 3d
       -0.011193588 0.058496997 -0.021681905 0.050470635
0001b0 f8 23 98 3d 10 ba e5 bc c4 9b 66 3d 3a e5 a0 bd
       0.074287355 -0.028042823 0.056300893 -0.078562215
0001c0 a8 df 27 3d 48 9d b4 3c 38 3d 27 3d 1e 79 86 bd
       0.04098478 0.022047654 0.040829867 -0.0656607
0001d0 a8 e4 67 bd ac 70 dd bd 24 c9 89 bd e0 fe dc 3c
       -0.056614548 -0.10812506 -0.06727818 0.026977003
0001e0 00 a7 e5 3b 58 55 e9 3c 14 07 4c 3d 80 4d 48 3d
       0.0070084333 0.028483078 0.049811438 0.048902035
0001f0 4c da f2 bd 90 58 b7 3d 7e 71 e6 bd 40 f7 bc bb
       -0.11858043 0.08952439 -0.11252116 -0.005766779
000200 68 69 9a bd f6 f3 fa 3d 92 15 b7 3d 72 f6 ac 3d
       -0.07539636 0.12253563 0.08939661 0.08445443
000210 32 9e a5 3d 00 5a 72 3c a8 30 3e bd 80 9c 86 bc
       0.08086814 0.0147919655 -0.04643312 -0.016432047
000220 18 76 d5 3d 00 3b 7e bd 3c 36 ae bd 60 2e 9c bd
       0.10422915 -0.062067986 -0.08506438 -0.07626033
000230 4c d2 65 3d 08 6b 54 bd 10 d5 40 bd 78 75 9f 3c
       0.056108758 -0.051859885 -0.047078192 0.019465193
000240 30 1b 30 3c 10 c8 d7 3c 00 38 ff 3d 04 be 90 bd
       0.0107486695 0.026340514 0.12461853 -0.070674926
000250 0c a7 c1 3d 7a f4 bc bd b0 07 61 3c 5a 8d fe bd
       0.0945569 -0.09226318 0.013734743 -0.124293044
000260 b4 51 31 3d b4 49 5d bd 80 c4 19 3b 78 0b e7 3c
       0.04329081 -0.054025367 0.002346307 0.02820371
000270 30 c1 6a bd e2 ce e7 3d 12 0d ab 3d c4 cb 8b 3d
       -0.057313144 0.11318757 0.08352102 0.068259746
000280 c0 46 fe bb 20 b3 e1 3c bc 60 16 bd 58 fd 95 bd
       -0.007759899 0.027551234 -0.036713347 -0.07323712
000290 08 46 ae 3d 36 5a 98 bd 28 2d 39 bd 4c d5 f4 3d
       0.08509451 -0.07439081 -0.04520908 0.11954746
0002a0 a4 61 60 bd 70 03 ef bc ec 12 82 3d 00 66 3a 3c
       -0.054780617 -0.029176444 0.06351265 0.011376858
0002b0 a0 68 98 3c 3c 62 b7 3d e0 dd 80 3c a8 e0 89 3c
       0.018604577 0.089542836 0.015730798 0.016830757
0002c0 d4 4b 24 3d 34 74 94 bd 14 79 67 bd d8 92 3a bd
       0.040111378 -0.072487265 -0.056511953 -0.045550197
0002d0 6e a7 c1 3d e2 75 b9 bd c0 9b 15 bd 34 fd 2c bd
       0.09455763 -0.090556875 -0.036525488 -0.04223366
0002e0 f0 be 55 3d 90 77 58 bc b0 90 50 3d 48 91 94 bc
       0.052184045 -0.0132121 0.050919235 -0.018135682
0002f0 da 78 c5 bd 82 e7 87 bd cc 04 9e bd 00 ef ed bc
       -0.09642191 -0.066359535 -0.07715759 -0.029044628
000300 e4 97 ba bd 86 fd e2 3d 32 fa f8 bd b6 bb f7 3d
       -0.09111002 0.11083512 -0.12157096 0.1209635
000310 42 7a df bd 7a 26 9f 3d 14 e1 85 3d 18 b8 df 3d
       -0.10911991 0.07771011 0.06537071 0.10923785
000320 b8 0b 80 bd 0a 68 bf bd 62 66 cf bd f2 b5 be 3d
       -0.06252235 -0.09346016 -0.1012695 0.09312047
000330 88 a9 9c 3c 3a bd 97 3d 8a c5 dc 3d 2a 40 93 bd
       0.019123808 0.07409139 0.10779865 -0.07189973
000340 a0 64 f2 3c d8 67 26 3d 68 21 da 3d 2a b9 98 3d
       0.029588997 0.040626377 0.10650903 0.07457192
000350 d0 92 3f bd b2 80 9b 3d 40 2d 2f bd 0e 72 df bd
       -0.04677087 0.07592906 -0.042767763 -0.10910426
000360 f8 dc 4d 3d bc 1e 87 3d 70 bb 23 bd e0 14 e0 3c
       0.05025956 0.06597659 -0.039973676 0.027353704
000370 e0 71 31 bd fa 92 9e 3d 5c cc 48 bd b0 bb 5c 3d
       -0.04332149 0.07742877 -0.049023017 0.05388993
000380 86 97 b4 bd 40 01 26 bc 38 80 8b bc 1a 0e d4 3d
       -0.08817963 -0.010132134 -0.017028913 0.10354252
000390 56 a9 c1 3d 24 64 a2 bd dc 30 6e bd 3c c8 d4 bd
       0.094561264 -0.079292566 -0.058152065 -0.10389754
0003a0 b8 61 92 3d b0 78 12 bc a0 1d 9b 3c 48 94 8e bd
       0.071475446 -0.008939907 0.018935025 -0.06961876
0003b0 f4 c0 ca 3d b8 c4 f5 bd 6c 8c 1c bd 60 e5 ba 3b
       0.09900084 -0.12000412 -0.038219854 0.005703613
0003c0 58 2e 4c 3d f8 76 f9 3c 14 2a 6a bd c8 d3 b9 3c
       0.049848884 0.030452237 -0.057169035 0.022683993
0003d0 50 4b 87 bc 24 23 45 bd 90 3a a0 bd b2 b4 c9 bd
       -0.016515404 -0.048129216 -0.0782367 -0.09848918
0003e0 ac d2 5d bd a0 ae 9e bb a8 d2 78 3d 14 69 f4 bd
       -0.05415599 -0.0048425943 0.060747772 -0.119341046
0003f0 be d1 9e 3d a0 15 06 3c 46 74 cd 3d 46 8c 80 bd
       0.07754849 0.008183867 0.10031943 -0.06276755

bias_hh_l0 f4 [256]
000000 30 5b 5a bc 3c 2f 87 bd 00 9d 6a 3d 56 40 83 bd
       -0.013327405 -0.06600806 0.057278633 -0.064087555
000010 cc b9 5d 3d 44 5e 7b bd a0 c4 e0 bd 62 14 fb 3d
       0.054132268 -0.061369196 -0.10975003 0.12259747
000020 64 41 c8 bd b2 6c f8 3d b0 e0 64 3c 50 d6 26 bc
       -0.09778097 0.12130107 0.013969585 -0.010182932
000030 5c bb 1a 3d 68 d5 3e 3d f2 5c eb 3d f6 48 c9 3d
       0.037776336 0.04659024 0.11492337 0.09828369
000040 26 8a e3 bd d8 1b c9 3c a2 6f d9 3d d4 68 57 3d
       -0.11110334 0.02454941 0.106169954 0.052590206
000050 58 12 64 bd 62 b6 86 3d 6c e0 bc 3d e8 2a 97 bc
       -0.055681556 0.065777555 0.092224926 -0.018453076
000060 b8 0b d9 bd fe f5 b0 3d 94 e4 63 bd 1e 2f b9 3d
       -0.10597938 0.08640669 -0.05563791 0.0904219
000070 68 2c ad bd 08 20 16 3d 82 bc 84 3d 30 8b 95 3c
       -0.084557354 0.03665164 0.064812675 0.018254846
000080 6e 0b e7 3d 54 72 73 3d 26 56 ea bd ea cf e5 bd
       0.11281477 0.059435204 -0.11442213 -0.11221297
000090 40 1e 44 3c ac 6c 36 bd 92 a2 ea bd 00 19 e7 3c
       0.011970103 -0.04453723 -0.11456789 0.028210163
0000a0 7c 58 13 3d 4e b9 95 bd 52 d4 d8 3d e2 a0 a1 3d
       0.035973057 -0.07310735 0.10587372 0.07892014
0000b0 9c bb 67 3d ec 97 7f 3d bc 0e 7f 3d 18 df f0 bc
       0.056575403 0.062400743 0.06226991 -0.029403254
0000c0 38 e4 bf 3d 14 ce 74 3d 00 80 b8 38 06 c3 c1 3d
       0.09369701 0.059766844 8.7976456e-05 0.09461026
0000d0 00 60 28 bc 50 da b1 3d a2 09 8e 3d 00 6f ba bd
       -0.010276794 0.08684218 0.06935431 -0.09103203
0000e0 dc 7d 05 3d 50 e3 0b bc 10 3b 75 bd ac d8 84 3d
       0.032590732 -0.008538082 -0.05987078 0.064866394
0000f0 de 4a e2 3d f0 cd 09 bd 2c d0 fc 3d e8 80 0f 3d
       0.11049436 -0.033643663 0.12344393 0.035035044
000100 e0 ec 1c bd ea 05 af 3d d0 10 f8 3d 34 4d b5 bd
       -0.03831184 0.0854605 0.12112582 -0.08852616
000110 18 19 ed bc e4 4a 55 3d a8 ea bc bd 70 72 51 3c
       -0.02894263 0.052073374 -0.09224445 0.012783632
000120 e0 bc 06 3c d4 7d 62 bd 6e 17 f4 bd 56 e8 87 bd
       0.008223742 -0.05529578 -0.11918531 -0.066361114
000130 00 18 be 3b 1e df cc bd f8 f8 a2 bc c0 86 6a bd
       0.005801201 -0.10003494 -0.019894108 -0.057257414
000140 16 f5 bf 3d 48 b0 32 3d 80 d0 9a ba 8c 4f 7d bd
       0.09372918 0.043625146 -0.0011811405 -0.06184344
000150 d0 b8 d1 bc 84 76 4e 3d 08 80 98 3c 00 8f 19 bb
       -0.02560082 0.050405994 0.018615738 -0.0023431182
000160 60 ec d9 bc 98 23 cd 3c 02 21 96 bd 44 2a 16 3d
       -0.02660197 0.025041386 -0.073305145 0.0366614
000170 00 8c b7 bc 38 4d 54 3d d0 68 11 3c 30 9b e3 3d
       -0.022405624 0.051831454 0.008875087 0.11113584
000180 94 5f cc bd fe 0d d6 bd e0 f2 7f 3d 0e 9f ac 3d
       -0.099791676 -0.104518875 0.062487483 0.08428775
000190 84 fc 05 bd ba 2d cb 3d 0c 2c a4 bd 08 8f 82 3c
       -0.03271152 0.09920831 -0.08016214 0.015937343
0001a0 c2 e8 8b bd b0 2a 0a 3d e6 5a cc bd 78 d2 e7 bd
       -0.068315044 0.033732116 -0.09978275 -0.113194406
0001b0 ae 9a de bd 10 09 dc 3d 00 de 1d bb 10 25 01 bc
       -0.108693466 0.10743916 -0.002408862 -0.007882372
0001c0 2c 57 dd bd 0c f6 8a 3d 50 d2 f7 3c 04 41 fd bd
       -0.10807642 0.06785211 0.030251652 -0.12365916
0001d0 94 6c 7c 3d b2 f6 ca bd 38 21 ff 3c 00 56 78 3c
       0.061626986 -0.09910335 0.03114377 0.015157223
0001e0 98 33 c4 bc 92 d8 cd bd 80 d5 e2 3b 40 58 1a 3b
       -0.023950383 -0.10051073 0.006922424 0.0023551136
0001f0 80 b7 63 bd 00 30 54 3c c0 f5 96 3d 28 21 d5 3c
       -0.05559492 0.012950897 0.07371092 0.026016787
000200 1c 30 34 3d 88 76 de bc c8 76 60 3d b6 14 99 3d
       0.043991193 -0.02715613 0.05480078 0.074746534
000210 e0 40 e3 3b 24 28 c1 bd 80 77 64 bc 40 66 8f 3d
       0.006935224 -0.09431484 -0.013944507 0.070019245
000220 f2 67 db 3d 30 a7 f5 bc 3e da c3 bd 0e a9 90 3d
       0.10713185 -0.029986948 -0.09563111 0.070634946
000230 fa d9 9e 3d 4a 2d a4 bd f2 84 a2 bd bc 9c 94 3d
       0.077564195 -0.08016451 -0.079355136 0.07256457
000240 60 ac 64 bd 96 39 a0 bd a2 39 d7 bd 7a 97 bd 3d
       -0.055828452 -0.07823484 -0.105090395 0.092574075
000250 62 65 aa bd d2 cb d0 3d 98 70 35 3d 44 27 fd bd
       -0.083201185 0.10195126 0.04429683 -0.12361005
000260 e4 8b ed bd d0 ce 48 3d c4 4f 74 3d e6 9b ef bd
       -0.11598948 0.049025357 0.059646383 -0.11699657
000270 f0 60 ea 3d 44 15 f4 bd 0a b5 dd bd 98 a2 86 bd
       0.114442706 -0.119181186 -0.10825546 -0.06573981
000280 88 67 9a 3c ce 10 e0 bd 72 20 ca bd b2 1a d3 3d
       0.018848196 -0.10940705 -0.0986947 0.10307826
000290 f8 9f ce bc b8 71 23 bd aa 9b bf 3d 3a 5f c1 bd
       -0.025222763 -0.039903373 0.093558624 -0.09441991
0002a0 72 d9 99 3d f0 a3 95 bc d8 47 8b 3d 50 20 ec 3c
       0.075121775 -0.018266648 0.068008125 0.028824002
0002b0 2e 65 bb 3d 6e 48 85 bd 46 ea 89 bd 20 63 d9 bc
       0.09150158 -0.065079555 -0.06734137 -0.026536524
0002c0 38 0d d2 3c e4 6d a8 bd 90 e8 17 3c 44 be 8d 3d
       0.025641069 -0.08224085 0.009271756 0.06921056
0002d0 e0 7b 6f bc f8 fb 25 3d 04 53 98 3d b4 b1 3c 3d
       -0.014616936 0.0405235 0.07437709 0.04606791
0002e0 a0 46 b1 3d b0 e3 03 3d cc 11 d1 bd d8 ee 65 3d
       0.08656049 0.03219956 -0.102084726 0.056135982
0002f0 84 8f ab 3d a8 e4 d4 bc 10 5b fb 3d bc eb 0c bd
       0.08376983 -0.025987938 0.12273228 -0.0344045
000300 36 0e f4 3d 80 8e f2 bd 92 88 d6 bd 60 3a be 3c
       0.11916773 -0.11843586 -0.104752675 0.023221195
000310 8c 2c f6 3d f4 c4 71 bd 5c 8f 0b 3d fe e0 e9 bd
       0.120202154 -0.05902572 0.034072265 -0.11419867
000320 80 bb ed bb bc e4 66 3d d6 b8 ba 3d 7a 5f 9b 3d
       -0.0072550178 0.05637048 0.09117286 0.0758657
000330 4e 42 be 3d 52 06 ca 3d 80 b1 ad 3d 70 5d f1 bc
       0.0928999 0.09864487 0.08481121 -0.0294635
000340 50 ac ee 3c 84 cb 68 3d b4 fb ba 3d 66 68 dd 3d
       0.0291349 0.056834713 0.0913004 0.10810928
000350 52 01 f0 bd dc a0 6d 3d 7e 56 9b 3d a0 62 d4 bc
       -0.11719002 0.058014736 0.075848565 -0.025925934
000360 00 7f 7d bc 78 d7 b8 bc a4 7d a9 3d 90 21 d5 3c
       -0.015472174 -0.022563681 0.08275917 0.02601698
000370 a0 32 3f bd 00 6b ac bb 28 7b 11 3d 40 24 aa bd
       -0.04667914 -0.005261779 0.03551784 -0.083076954
000380 6e 42 be bd ae 3f d1 bd 72 d4 cf bd 40 82 bb 3c
       -0.09290014 -0.10217224 -0.101479426 0.022889256
000390 d2 ce b0 bd ec e5 a5 3d 8c 50 b4 bd 5c da 75 3d
       -0.08633198 0.08100495 -0.088044256 0.060022697
0003a0 48 59 a3 bd 00 b6 ab 39 20 54 c5 bb 50 4e 42 bd
       -0.079760134 0.00032751262 -0.0060219914 -0.047437966
0003b0 88 d6 86 3d 6a 32 99 3d 00 f8 e2 ba 00 95 de bd
       0.06583887 0.07480319 -0.0017316341 -0.10868263
0003c0 e0 11 ef bd 90 58 09 bc ac 2e 26 bd de ac 87 bd
       -0.11673331 -0.008382931 -0.040571854 -0.06624769
0003d0 60 9a 5e 3d ae 8f aa bd d4 61 90 bd 64 e3 fe 3d
       0.054346442 -0.08328186 -0.07049909 0.12445715
0003e0 a2 4d 94 3d 98 6b 7f bd 1e 3a 9b 3d 7c 27 30 bd
       0.0724137 -0.06235847 0.07579444 -0.043006405
0003f0 7e 4a 83 3d 3c c7 67 3d e0 38 fd 3b 00 f7 72 3d
       0.06410693 0.05658649 0.0077277273 0.05931759

weight f4 [32, 64]
000000 c0 7d 6c bc 80 5e 78 3c 90 20 8e bc 9c 16 94 bd
       -0.014434278 0.015159249 -0.017349511 -0.07230875
000010 bc e4 37 3d 68 86 42 3d ae f3 c8 bd dc 24 2d bd
       0.044895872 0.04749146 -0.09812103 -0.04227148
000020 92 3a 97 bd e8 1d 0c 3d c0 ee 35 bd e6 c8 f2 bd
       -0.07384218 0.03420821 -0.044417143 -0.118547246
000030 36 c3 ca 3d 04 91 56 3d e0 6d e4 3b da 52 dc 3d
       0.09900515 0.05238439 0.006971106 0.1075799
000040 80 76 a4 bc 88 70 b9 bd e0 3e 7c bc b2 86 ca bd
       -0.020076036 -0.09054667 -0.01539585 -0.09888972
000050 6e 87 c8 bd 48 2e 11 bd 24 5e c2 bd 34 59 3f bd
       -0.09791456 -0.035444528 -0.09490612 -0.04671593
000060 00 4f 1f 3a 48 f7 fc 3d 7c d7 4e 3d 00 56 a7 bd
       0.00060771406 0.12351853 0.05049847 -0.081707
000070 74 86 f4 bd 88 15 e2 3c 54 ef d6 bd 84 19 23 3d
       -0.119397074 0.027598158 -0.10494867 0.039819255
000080 08 9a d2 bd 44 3c 8b 3d c0 86 a3 bd f8 93 51 bd
       -0.102832854 0.06798604 -0.07984686 -0.051166505
000090 60 3e 26 bc 70 27 26 3c 02 46 ae bd 10 2d 9d bd
       -0.010146707 0.010141239 -0.08509447 -0.076746106
0000a0 22 c2 9e 3d 10 a8 42 3c 86 1b a3 bd 4e 25 e7 bd
       0.07751872 0.01188089 -0.07964234 -0.11286412
0000b0 60 60 1f bd 00 8f 27 bb 88 20 4c 3d 10 bf 7e bc
       -0.03891027 -0.0025567412 0.04983571 -0.015548483
0000c0 80 37 b8 bd 04 45 c0 bd 7a e4 8b 3d c0 1a c8 bd
       -0.08994961 -0.09388164 0.06830688 -0.09770727
0000d0 08 54 43 3d 6c 76 52 3d 70 a6 46 3c f0 75 8b 3d
       0.04768756 0.051382467 0.012124643 0.06809604
0000e0 2c 71 89 3d 06 24 b1 3d be c5 a2 3d 30 65 19 bd
       0.06711039 0.08649449 0.079478726 -0.037450016
0000f0 74 56 19 bd c8 7d 6b 3d 18 d0 94 3c 02 1e f2 3d
       -0.037435964 0.057493 0.018165633 0.1182213
000100 ec 5d 20 bd c0 12 f8 3d b4 ec 9d 3d 00 10 8f ba
       -0.03915207 0.12112951 0.07711163 -0.0010914803
000110 8a 6f e5 3d ea 47 e9 3d bc f9 c9 bd c0 74 a4 3b
       0.11202915 0.1139067 -0.09862086 0.0050188005
000120 52 93 b1 bd 72 50 fc 3d 3a 9d ac bd 08 3a 8b bc
       -0.08670677 0.12320031 -0.08428426 -0.016995445
000130 e4 8b dc 3d e4 89 23 bd f4 54 86 3d cc be 13 bd
       0.107688695 -0.039926425 0.06559172 -0.03607063
000140 80 98 f9 3b 80 59 1c 3c 8a 79 cd bd 2c 78 7c bd
       0.0076170564 0.009542823 -0.10032947 -0.061638042
000150 ec 7a eb bd 86 ca b9 bd d0 2c b2 bc c8 19 c6 3d
       -0.11498055 -0.090718314 -0.021749884 0.09672886
000160 80 b0 a7 3d 98 07 eb 3c 70 2b 7f 3d 2c 21 39 3d
       0.081879616 0.028690144 0.062297285 0.04519765
000170 46 fb e7 bd 04 b2 be 3d e0 29 5e 3c ec e6 0e 3d
       -0.113272235 0.093112975 0.013559788 0.034888193
000180 aa 50 f1 3d 60 1b ec 3b 00 7f 0d ba fa 0a a0 3d
       0.117829636 0.007205412 -0.00053976476 0.078145936
000190 40 b2 82 3b 88 2d a0 bc 1a d3 e4 3d c0 f1 8d 3c
       0.003988534 -0.019552961 0.11173077 0.01732719
0001a0 20 08 93 bc 50 86 46 3d 00 6a d8 b9 58 2b 19 3d
       -0.01794821 0.048467934 -0.00041277707 0.03739485
0001b0 3a 01 d4 bd 30 af 5f 3d 70 56 2a 3d be 58 91 3d
       -0.103517964 0.05461043 0.04158634 0.07097004
0001c0 40 68 aa bb aa 2e e8 bd 54 ed 5f bd 62 d1 e6 3d
       -0.005200416 -0.113370255 -0.054669693 0.11270405
0001d0 06 38 9f bd e8 0b 0f bd 08 f8 8e bd fe 9e c1 bd
       -0.077743575 -0.034923464 -0.06980902 -0.094541535
0001e0 78 e2 84 bc 64 18 b8 bd b8 40 2c 3d 10 b2 86 3c
       -0.01622127 -0.08989027 0.042053908 0.016442329
0001f0 36 f6 db 3d c6 72 97 3d 6c ba a5 3d a2 b1 df 3d
       0.107403204 0.07394938 0.08092198 0.10922553
000200 88 85 eb bd 3c a8 13 bd dc e2 a3 bd 40 3b 3f bb
       -0.115000784 -0.036049113 -0.08002254 -0.0029179603
000210 82 b4 8c bd 44 fe 54 bd f4 ce 5d bd 42 99 ae bd
       -0.06870367 -0.0520003 -0.054152444 -0.08525325
000220 5c 18 37 bd 90 b9 f5 3c d4 f5 41 3d 18 06 83 3d
       -0.044700965 0.02999571 0.04735358 0.06397647
000230 b0 c9 04 3c 0a 61 a6 3d 10 b2 76 bd 98 8e 69 3d
       0.008104727 0.081239775 -0.060228407 0.057020754
000240 c0 89 df bd 0c 74 22 bd 4e 20 fb bd 60 d9 ff bd
       -0.109149456 -0.039661452 -0.12262021 -0.12492633
000250 e0 60 78 3c 30 9f c0 bd 98 83 f7 bc b4 5e cc 3d
       0.015159816 -0.094053626 -0.030214116 0.09979001
000260 88 a1 c8 bd 7c de 70 bd c4 8c d3 3d 26 f9 c4 3d
       -0.09796435 -0.058805928 0.10329583 0.09617834
000270 46 87 d9 bd f0 9f c8 3c 32 a0 80 3d b4 7c cd bd
       -0.106215045 0.024490327 0.06280555 -0.10033551
000280 10 b2 4f bc 50 4e 6a bd 3a 31 8f 3d 8c c8 81 bd
       -0.012676731 -0.05720359 0.06991811 -0.063370794
000290 2c 15 f3 bd 5e 5f d4 3d c0 04 0d 3c 88 0f 80 bc
       -0.118692726 0.10369752 0.0086070895 -0.015632406
0002a0 46 98 93 bd ca 62 f4 3d 00 09 82 3c 68 8a c1 bd
       -0.07206778 0.11932905 0.015873432 -0.09450227
0002b0 86 1b 99 3d e0 64 79 bd b8 fd 8f 3d d8 7a fb bd
       0.07475953 -0.060887218 0.07030815 -0.1227929
0002c0 02 a0 cd 3d 32 be c9 bd 30 23 4a 3c 38 92 97 3d
       0.10040285 -0.0985073 0.012337491 0.07400936
0002d0 38 d5 82 bc 2e 0f 97 bd 18 9b e4 bc 94 51 17 bd
       -0.015970811 -0.07375942 -0.027905986 -0.036943033
0002e0 f4 f8 ed bd c8 70 d1 3d 38 4d 8d 3d 50 16 49 bc
       -0.1161975 0.102265894 0.06899494 -0.012273386
0002f0 ac 22 79 bd 24 45 e4 bd d0 01 c9 3d 1c 78 80 3d
       -0.06082408 -0.11146 0.09814799 0.06272909
000300 7a 40 80 3d c2 c4 f8 bd 98 68 ec 3d f0 a1 c9 bd
       0.06262298 -0.121469036 0.11543387 -0.0984534
000310 82 e0 d1 3d 82 cd ff bd e8 3c 8e 3d 7e 94 df 3d
       0.102478996 -0.124903694 0.06945211 0.109169945
000320 68 4c bb 3d 68 46 52 3d 80 e2 50 bb fe 0f fb 3d
       0.09145433 0.051336676 -0.0031873286 0.1225891
000330 b0 59 d8 bd c0 27 23 3b 5c a6 46 bd ac 46 07 3d
       -0.105639815 0.002489552 -0.048498496 0.033026382
000340 e0 90 bd bc 4c 37 9a bd 50 10 14 bd 84 bb 0f bd
       -0.02314037 -0.07530078 -0.03614837 -0.03509094
000350 ac 84 23 3d c8 97 b3 3d b0 bd 22 bd 30 9c b1 3d
       0.039921448 0.08769184 -0.03973168 0.086723685
000360 7c 08 93 3d a8 f1 f2 3d 58 79 6e bd 70 e0 2b bc
       0.07179353 0.118624985 -0.05822119 -0.010490522
000370 f8 23 c7 3c 70 44 0e bd 74 54 d8 3d 40 2c f9 3c
       0.024309143 -0.034733236 0.10562983 0.030416608
000380 34 d9 31 bd 80 b7 ef 3d 96 af 94 3d b8 fa b4 3c
       -0.04342003 0.11704922 0.07260053 0.022092208
000390 e4 56 51 bd f6 8f f7 3d 2a 68 b3 bd 98 80 56 bd
       -0.051108256 0.12088005 -0.08760102 -0.05236873
0003a0 c6 2b d5 3d 9e 12 ef 3d 92 81 dd bd 92 3e b9 3d
       0.1040874 0.11673473 -0.10815729 0.090451375
0003b0 aa d7 c8 bd 00 ac 9d bd 68 5f 92 3c 80 51 c9 ba
       -0.0980676 -0.07698822 0.017867759 -0.0015359372
0003c0 28 56 9b 3d cc f6 eb bd 4e 2a b7 bd 50 36 0c 3d
       0.075847924 -0.11521682 -0.08943616 0.034231484
0003d0 68 7e 7a 3d 84 87 60 3d 6c fb 63 bd 50 73 19 3d
       0.061155707 0.054816738 -0.055659696 0.037463486
0003e0 b8 3b d2 bc 88 cd a8 3c 70 bc c0 3d d2 1f 8d 3d
       -0.025663242 0.020605817 0.094109416 0.06890835
0003f0 2a f3 c0 3d 36 69 b5 3d d0 ca 7d 3c 18 17 27 bd
       0.0942138 0.08857958 0.015490249 -0.04079351

bias f4 [32]
000000 06 fb ee 3d 80 5b c0 3d 70 31 7d 3d 66 89 de bd
       0.11668973 0.09392452 0.061814725 -0.108660504
000010 a8 79 85 bc 66 ae fd bd 2c 1f a1 bd 8a 31 a4 3d
       -0.016293362 -0.123867795 -0.07867274 0.08017261
000020 50 d4 d3 bd 00 cb bf bc 70 e8 bb bc 0c 43 e8 bd
       -0.1034323 -0.023412228 -0.022937983 -0.11340913
000030 b8 7a de bd 60 c1 92 bc 90 ab 50 3c f8 b8 5d bd
       -0.108632505 -0.017914474 0.012736216 -0.054131478
000040 c0 82 5c 3d 80 6c e3 3d 28 13 49 bd c0 33 b8 3c
       0.05383563 0.11104679 -0.049090534 0.022485614
000050 b0 a4 76 3d 00 7d 75 3d 30 d1 34 3c cc 4b 26 3d
       0.060215652 0.059933662 0.011036202 0.04059963
000060 48 66 7b 3d 50 77 d2 3c 96 83 c7 bd e0 c7 46 bc
       0.06137684 0.025691658 -0.09741895 -0.012132615
000070 40 50 78 bd 5c 62 6b 3d 94 12 8e bd 8c d4 6f bd
       -0.060623407 0.05746685 -0.06937137 -0.05855231

weight f4 [6, 32]
000000 0e 19 ed 3d 35 ff ff bd 94 37 2d be dc cf 61 bd
       0.115770444 -0.12499849 -0.16915733 -0.05512987
000010 88 7a dc bd c9 f4 01 3e 00 8c b7 3a c8 ab ef 3c
       -0.107655585 0.12691034 0.0014003515 0.029256716
000020 8b 3c c2 bd c1 a6 30 3e d4 2c 5b 3d 5f fb 1b 3e
       -0.09484204 0.17251112 0.05350955 0.15232609
000030 17 af 97 bd ad 8d 07 3e f2 0d ec 3d cc f7 42 3d
       -0.074064426 0.13237639 0.11526097 0.0475996
000040 53 fd ef bd f7 1c 1f 3e a0 1e ec bb 00 9b f1 bb
       -0.1171824 0.15538393 -0.007205799 -0.007373214
000050 88 a3 8b 3c 20 c7 7f bd e9 5b 1b be 34 c8 18 3d
       0.017045751 -0.06244576 -0.1517178 0.037300304
000060 90 10 10 be c2 e7 e5 3d 57 f1 1d 3e a6 fc 2e be
       -0.14068818 0.11225845 0.15424095 -0.17088565
000070 c2 0d e4 3d fa 71 9d 3d fb d3 c5 bd e4 b0 2f be
       0.111354366 0.07687755 -0.09659573 -0.17157322
000080 1d 12 32 be d7 97 15 3e f8 af a7 3c 80 cb e3 bb
       -0.17389722 0.14608704 0.02046965 -0.0069517493
000090 f7 71 14 3e 8e 02 84 3d 66 52 a4 3d 20 a6 c3 bb
       0.14496599 0.064458 0.08023529 -0.0059707314
0000a0 22 fa f8 3d fb da 0a be 0d 1a 28 3e 7c b9 a4 bd
       0.12157084 -0.13560097 0.16416188 -0.08043191
0000b0 14 8e 1c 3d c6 26 69 bd e8 62 a2 bc 37 df 21 3e
       0.038221434 -0.056921743 -0.019822553 0.15807806
0000c0 6b 1e 82 bd 10 5c 26 3c 72 1c 2b be e8 f4 08 be
       -0.06353458 0.010153785 -0.1671007 -0.13374674
0000d0 9c d7 6e bd cd 63 1c be d0 68 8f bc fc 9d fe bd
       -0.05831109 -0.15272446 -0.017506033 -0.12432477
0000e0 be 38 c7 3d 1a a1 c3 bd 8c 3a 1f 3d 7e 6f e2 3d
       0.097276196 -0.09552212 0.038874194 0.11056422
0000f0 ae c4 60 bd 3f 2e 15 be 8e 87 80 3d 88 1b 85 3d
       -0.05487507 -0.14568423 0.06275855 0.06499392
000100 18 54 a2 bc c8 5b 4b bd 58 8c d1 bd ef 09 13 3e
       -0.01981549 -0.049648076 -0.102318466 0.14359258
000110 20 49 8d bc 8c bf 00 be 91 90 a9 bd a2 dd fc 3d
       -0.017246783 -0.1257307 -0.08279527 0.123469606
000120 54 46 35 3d 49 56 04 be 90 ff f6 bc 15 e4 96 bd
       0.044256523 -0.1292354 -0.030151159 -0.07367722
000130 82 f2 a2 3d cb 7d 2a 3e 5b f8 06 3e cd 4e a6 bd
       0.07956411 0.16649549 0.13180678 -0.08120499
000140 12 31 86 3d a7 69 29 3e b0 36 e5 bc 61 ad 17 3e
       0.06552328 0.1654421 -0.027980179 0.14812233
000150 a8 d2 85 bc 59 41 83 bd 8e fb ad 3d d7 3e 01 3e
       -0.0163358 -0.064089485 0.08495246 0.12621628
000160 6a 3c 34 be 40 f5 49 bc 40 a1 c2 3b 4c 02 4f bd
       -0.17601171 -0.012326539 0.0059396327 -0.0505393
000170 4c 65 01 3d 07 f5 04 3e db b2 01 3e 7f 32 22 be
       0.031590745 0.12984096 0.12665884 -0.15839575
000180 6f 90 13 3e 52 97 ea bd a0 49 3d 3d d1 a1 25 be
       0.14410566 -0.11454643 0.046212792 -0.1617501
000190 0f f3 34 3e ae e8 f8 3d 12 c5 28 be e6 13 96 3d
       0.17670844 0.12153755 -0.16481426 0.07328014
0001a0 e8 c8 c5 3c 40 90 59 3c 58 42 c7 bc 60 86 79 3d
       0.024143651 0.013279021 -0.024323627 0.060919166
0001b0 b8 c6 fa bd 84 53 b9 bd 40 a6 a3 bc f6 29 c6 bd
       -0.12244934 -0.090491325 -0.019976735 -0.09675972
0001c0 5a 30 f5 3d 9b de 18 3e b8 2b 99 bc e6 28 b2 3d
       0.11972113 0.14928667 -0.018697605 0.08699207
0001d0 7c c2 06 be 8c 63 02 bd b0 ad 1b 3c 22 99 33 be
       -0.13160127 -0.031833217 0.00950186 -0.17538884
0001e0 02 4b a2 3d b1 0a 0c 3e 58 0a a5 bc 57 3e a3 bd
       0.07924463 0.13675953 -0.020146534 -0.07970875
0001f0 11 18 80 bd 3e e3 01 be c0 a1 13 be 72 cf 33 be
       -0.0625459 -0.12684342 -0.14417171 -0.17559603
000200 90 8e 9d 3c 7c f2 14 be ee 36 8e 3d b8 ed 14 be
       0.019233018 -0.14545625 0.06944071 -0.14543808
000210 60 4a 0b 3d 66 52 fa 3d 80 cd 52 bc 08 38 4e 3d
       0.034006476 0.122227475 -0.012866378 0.050346404
000220 6f 74 2e be 6b a2 34 3e 1a 4a f2 bd 54 ef b6 bd
       -0.17036603 0.17640083 -0.1183054 -0.08932367
000230 4e 26 bd 3d e0 bf 83 bb 1a f1 7d bd 64 fc 83 bd
       0.09235822 -0.004020676 -0.06199751 -0.06444624
000240 4d 3b 02 3e 33 be 22 be 71 ae 34 3e c0 cb 19 3b
       0.12717934 -0.15892868 0.17644669 0.0023467392
000250 61 26 af bd 54 cc 2d be dc c8 19 bd 9f c1 25 3e
       -0.08552242 -0.16972476 -0.03754507 0.16187142
000260 ff 14 c1 bd aa b4 c4 bd 60 5b e7 bd c3 b0 2c 3e
       -0.09427833 -0.096047714 -0.11296725 0.16864304
000270 cd ae 14 be 17 3f aa bd ab 8c 18 be 6a 78 1a be
       -0.14519806 -0.08312815 -0.1489741 -0.15084997
000280 69 18 c1 bd 7d c4 34 3e 7c 6d 86 bd 0d 93 34 3e
       -0.09428484 0.1765308 -0.06563851 0.1763422
000290 c8 c2 9f bc 76 a1 fc 3d 8c db 93 3d 3a bb ea bd
       -0.019502059 0.12335484 0.072196096 -0.11461492
0002a0 12 1e b7 3d dc cb 6d bd 20 29 45 bd 22 09 a1 bd
       0.08941282 -0.058055744 -0.048134923 -0.0786307
0002b0 3a 49 e7 3d 74 e3 3d bd ce 75 b2 bd 30 6b d9 3c
       0.11293264 -0.046359494 -0.08713876 0.026540369
0002c0 85 1b a7 bd 90 03 77 3c c8 ee 87 3d 4e 3f af bd
       -0.08159546 0.015076533 0.06637341 -0.08556996
0002d0 4f 36 b0 bd 69 a2 33 3e 94 fe 83 3d 50 da d2 bc
       -0.086041085 0.17542423 0.06445041 -0.025738865
0002e0 59 f8 30 be 77 f3 24 3e a0 cf 84 bc 19 9a 15 3e
       -0.17282237 0.161085 -0.016212285 0.14609565
0002f0 6a f5 9d 3d 38 54 1f bd ce 55 9d 3d 60 a8 8c bd
       0.07712825 -0.038898677 0.076823816 -0.068680525

bias f4 [6]
000000 dc 0f 04 be b4 0e 45 bd 58 1e d1 bc 45 c8 18 be
       -0.12896675 -0.048109725 -0.025527164 -0.14920147
000010 58 6c 2c bd 66 55 92 3d
       -0.042095512 0.07145195

weight f4 [2, 32]
000000 bf 9f 24 be 4c f6 6c 3d 32 53 8b 3d a9 28 99 bd
       -0.16076563 0.057852075 0.068029776 -0.074784584
000010 f1 a1 93 bd ba 72 24 be 52 cc a7 3d 92 13 d9 3d
       -0.07208622 -0.1605939 0.08193268 0.10599436
000020 2c 04 1f be 44 b6 38 bd 2d 69 1c 3e 88 d5 e6 bd
       -0.15528935 -0.045095697 0.15274496 -0.112711966
000030 1a eb 12 be c0 47 e5 3b 42 20 e4 bd 0a 84 a8 3d
       -0.14347497 0.0069970787 -0.11138965 0.082283095
000040 70 5f 18 bd 8e 58 7e bd 14 15 2f be 3c 4a 4b bd
       -0.03720039 -0.06209617 -0.17097884 -0.049631342
000050 c4 e9 42 3d 08 e7 be bc 08 25 60 3d 53 eb 13 be
       0.047586218 -0.023303524 0.054722816 -0.14445238
000060 d7 84 eb bd 00 ac d0 39 90 02 48 3c 20 d1 e2 3c
       -0.114999466 0.00039801002 0.012207642 0.02768761
000070 a0 33 6c 3c 96 8f 8d 3d 34 41 4f bd 64 05 87 3d
       0.014416605 0.069121525 -0.050599292 0.06592825
000080 e6 ff 33 be 8b 8f 32 be c3 50 00 be 72 58 a8 3d
       -0.17578086 -0.1743757 -0.12530808 0.082199946
000090 56 09 be 3d de f0 5e bd 0c d1 c0 bd 1d b7 e6 bd
       0.092791244 -0.054428928 -0.094148725 -0.11265395
0000a0 12 c2 2e be 96 38 9b 3d ef ee 9c bd a0 f1 81 bb
       -0.1706622 0.07579152 -0.076627605 -0.0039655715
0000b0 69 b7 2c 3e a0 2b 0a 3c 07 18 0c 3e b8 7b 49 bd
       0.1686684 0.008433253 0.1368104 -0.049190253
0000c0 92 68 96 bd 60 d5 a6 3c 62 c6 20 be 80 b3 df 3b
       -0.07344164 0.020365417 -0.15700677 0.006826818
0000d0 00 cc 29 39 54 7b 46 3d c0 1a 27 bc 1d a1 09 be
       0.00016193092 0.04845746 -0.010199249 -0.13440366
0000e0 ce 93 0c be ae 31 b5 3d 20 8c cc 3c 00 43 6c 3c
       -0.13728258 0.08847366 0.02496916 0.014420271
0000f0 50 07 30 bd 2d b7 19 3e 76 2c ba 3d b8 a2 ea 3c
       -0.042975724 0.15011282 0.090905115 0.028642043

bias f4 [2]
000000 20 11 18 bd d5 0b 1c be
       -0.037125707 -0.15238889

weight f4 [1, 32]
000000 bf 90 9e bd 4c d5 32 3d 45 bf 1b be 60 2f 50 bc
       -0.07742452 0.043660447 -0.15209682 -0.012706608
000010 41 ad e7 bd 0c 03 0b bd 38 3c 0f 3d 4e 54 b9 3d
       -0.113123424 -0.033938453 0.03496954 0.09049283
000020 b2 29 c3 3d 88 fd 05 3d 16 17 8c 3d ff 84 14 3e
       0.09529437 0.03271249 0.06840341 0.14503859
000030 d7 75 85 bd 68 30 1a bd 80 ee 37 3b d6 0b c9 3d
       -0.06516617 -0.03764382 0.002806574 0.09816711
000040 8e 0e b2 bd 06 3b 98 3d ed 81 24 be f3 b6 34 3e
       -0.08694182 0.07433133 -0.16065188 0.17647915
000050 08 7e b7 bd 20 8b d3 3b d9 ce 2b 3e 67 a8 1a 3e
       -0.089595854 0.006455794 0.16778125 0.15103303
000060 23 23 ce bd ca 92 9a 3d 7b ff e4 bd 39 64 bb bd
       -0.100652955 0.07547529 -0.111815415 -0.09149975
000070 81 d8 14 3e 27 6f 18 3e 6a 84 aa 3d e6 96 f2 bd
       0.14535715 0.14886151 0.08326037 -0.11845188
