env-experiments/v3_simplified_game_4p_16cards/MARLv1/models/defender_agent_final_2.pth (torch, 385874 bytes, 33 tensors)

weight_ih_l0 f4 [256, 25]
000000 ec 43 f5 bb f4 d5 c5 3d 55 33 64 3d 86 13 6a bd
       -0.0074849036 0.09659949 0.055713017 -0.057147525
000010 1a 17 16 bd 4e 3a 46 bc 00 32 70 3c 0b 98 d4 3d
       -0.036643125 -0.012098862 0.014660358 0.103805624
000020 58 d5 a5 bc e1 43 8d bd f6 17 52 bd 2d ec 27 3e
       -0.020243332 -0.068977125 -0.051292382 0.16398688
000030 00 f3 21 3d db 41 6b bc a8 58 26 bd d9 10 b2 3c
       0.039538383 -0.014358963 -0.040611893 0.02173655
000040 8f e2 c0 3d 9d 0e 0e 3d ce 37 29 bd 05 0b c2 3a
       0.094182126 0.034681905 -0.041312985 0.001480431
000050 99 d7 09 3e fe 96 df bd e5 0a e1 3d fd 2f d2 3d
       0.1346115 -0.10917471 0.10988406 0.10263059
000060 97 a9 9c 3d d4 bc 96 bd e6 a6 d2 3b d0 46 68 bd
       0.07649534 -0.07360235 0.0064285873 -0.056708157
000070 b7 b8 df 3d d7 89 06 3e c9 29 d2 3c 8c 94 28 bc
       0.109239034 0.13138519 0.02565469 -0.010289323
000080 db b2 57 3d 68 d0 8a 3d aa 59 27 3d 77 d1 6c bd
       0.052660804 0.067780316 0.040856995 -0.05781695
000090 a6 e1 ec 3d 0c 28 9c bd 6f 2e 35 3e eb 3d 06 be
       0.115664765 -0.07624826 0.17693494 -0.13109557
0000a0 95 b6 fa 3c 45 96 ce bd 44 d7 22 bd ad 44 d1 bd
       0.03060464 -0.100872554 -0.039756075 -0.10218177
0000b0 d1 09 a6 3d ce 70 b1 bc 2f 49 ee bd 9c e6 85 bc
       0.08107341 -0.021660235 -0.116350524 -0.016345315
0000c0 4c d8 76 bd 6b 1c fc bc b2 0c e2 bd 79 0f 18 3e
       -0.06026487 -0.03077527 -0.11037578 0.14849652
0000d0 4c 5c 0f 3b 8f 2f c1 3d 5a 2e ca bd d7 e9 9e bd
       0.0021875082 0.09432899 -0.09872122 -0.07759445
0000e0 a9 c4 00 be 5f 0c cf 3d 8e a2 32 3d a9 e7 47 3c
       -0.1257502 0.101097815 0.043612055 0.012201228
0000f0 22 b2 da 3c 64 36 aa bd e7 1b 6f bd 7a 31 8b bd
       0.026696268 -0.083111554 -0.05837622 -0.06796546
000100 bf cb be 3d 10 96 a2 bd 22 c6 54 3d 7b f7 50 bd
       0.09316205 -0.079387784 0.051946767 -0.051017266
000110 17 2e a1 3a bc 36 c5 bd f3 76 7b 3d 34 4f f0 bd
       0.0012297061 -0.096295804 0.061392736 -0.11733857
000120 2a 7b 93 3d 3d 9f 20 3d 3b 97 37 bd 53 9d 27 3d
       0.07201226 0.03921436 -0.04482196 0.04092152
000130 54 8f b9 bd 7f 32 0f bd e5 26 78 bd cd 1d a3 bd
       -0.09060541 -0.034960266 -0.060583968 -0.079646684
000140 88 cc 6e bd 84 24 f5 3c 34 a5 c9 3d b4 70 1e 3e
       -0.058300525 0.029924639 0.09845963 0.1547268
000150 ac b3 42 be 0a 29 81 bd f7 36 bb 3d 2c 70 80 bd
       -0.19013852 -0.06306656 0.09141343 -0.06271395
000160 5f 19 89 bc 0b cb 64 bd 0d ce e5 bd 95 b9 b9 3d
       -0.01673573 -0.0558577 -0.11220942 0.090686
000170 5f 48 09 3e a7 cd e3 bc fc 12 88 bd f4 dd f6 3d
       0.13406514 -0.027808024 -0.06644246 0.12054053
000180 60 9f 6d bd af c5 cf bd d7 81 05 be 48 05 80 3d
       -0.05801332 -0.10145127 -0.13037811 0.06251007
000190 2c 97 9f 3d 60 7f 7f 3d 3c e8 c7 3d 59 5c 50 bd
       0.077925056 0.062377334 0.09761092 -0.05086932
0001a0 c9 90 e8 3c 64 a1 7a 3d f1 f3 1f 3e bd d1 28 3e
       0.028389351 0.06118907 0.156204 0.16486259
0001b0 41 9d ec bc 15 56 05 3b 2b 98 2f bd 68 1c 52 3e
       -0.028883578 0.0020345498 -0.042869728 0.20518649
0001c0 29 3a b2 3b 38 c9 29 3e c5 a6 65 bd dd 08 e0 bd
       0.005439062 0.16580665 -0.056067247 -0.109391905
0001d0 91 ea f5 bc 2d d6 f1 3d 98 83 87 bc a6 04 69 bd
       -0.030019077 0.11808429 -0.016542241 -0.0568892
0001e0 d8 11 0d be eb a5 29 be db 80 18 3d a0 d5 d5 3d
       -0.13776338 -0.16567199 0.03723226 0.10441136
0001f0 df a9 fb bc be 63 f9 bd f3 60 8d 3d f4 91 b6 3d
       -0.03072065 -0.121772274 0.06903257 0.08914557
000200 90 d5 11 3e 5f f7 fd 3d ee 45 93 3d 0f 2c b8 3c
       0.14241624 0.12400698 0.071910724 0.022481946
000210 48 c3 04 3e b7 a1 d1 3d ff fd 79 3d 70 9c 13 3e
       0.12965119 0.10235923 0.061033245 0.14415145
000220 5f 4d 3f 3e 6a 96 ba 3d 06 13 c8 bc e4 ee 3d 3d
       0.18681858 0.091107205 -0.024423134 0.046370402
000230 b3 07 3d 3d 96 90 24 be d5 3b 6f 3d 8a b7 47 3e
       0.04614992 -0.1607078 0.05840667 0.19503608
000240 91 3d 01 3e 66 dd 7c 3d 60 7d 42 be 9b 36 43 bc
       0.12621142 0.06173458 -0.1899314 -0.011914874
000250 a9 89 ac 3d ce e5 a3 3d c2 09 11 bd 4d 26 07 be
       0.08424694 0.08002816 -0.035409696 -0.13198204
000260 75 e2 76 bb 44 d9 93 3d c7 15 e2 bd 0e 16 b4 3c
       -0.00376716 0.072191745 -0.1103931 0.021983173
000270 2d 3b c0 bc 4f a7 58 bd 4b 82 de bd fd 3f 42 3d
       -0.023465717 -0.052893933 -0.10864695 0.047424305
000280 f1 5e 92 bc 4b 2a b4 39 a7 9a c7 bd 6f af e9 3d
       -0.017867537 0.00034363786 -0.097462945 0.114104144
000290 82 9a a1 bd 21 c5 95 bc f3 c2 1a 3d 30 44 50 3d
       -0.07890798 -0.018282475 0.037783574 0.05084628
0002a0 f8 c9 2a bc 58 b2 be bd cd 87 b9 3d 21 3e a9 3d
       -0.01042413 -0.0931136 0.09059105 0.08263803
0002b0 e2 1f 02 be 2d d9 99 bd 84 6d f1 bc 72 5c 9e 3d
       -0.12707475 -0.07512126 -0.029471166 0.07732476
0002c0 10 cd 19 3e ee 3b dd bc 3a 5d e0 bb 38 1f 06 bc
       0.15019631 -0.027006116 -0.006847051 -0.008186154
0002d0 6c 46 8e 3c a0 ca 88 bd 0b f5 1d bd 77 ce d3 3d
       0.017367564 -0.06679273 -0.03856377 0.103421144
0002e0 ea c4 bd bd 85 76 16 3d 75 bf 90 bd f4 1b 0d be
       -0.09266074 0.036734123 -0.070677675 -0.13780195
0002f0 a7 ac 2b 3e b3 10 89 3d 2a 61 5c 3d 46 ae c5 3c
       0.1676508 0.06692638 0.0538036 0.024130952
000300 0e 7a 39 3c a5 0e ea bd 11 f2 03 bd 32 ed 65 bc
       0.011320604 -0.114285745 -0.032213274 -0.014033603
000310 e4 d4 9a 3d 96 19 c8 3b 8a 23 58 bc 38 e9 ca bc
       0.07560137 0.0061065657 -0.013192067 -0.02476941
000320 af 9f 8d bd 10 1d 90 3d 85 25 45 bd 56 27 df 3d
       -0.06915223 0.07036793 -0.048131485 0.108961746
000330 c0 b6 dc bd 9d 4b 6e 3d 84 8e fc bd 22 2c 83 3b
       -0.10777044 0.05817758 -0.1233187 0.004003064
000340 17 5c 8c bd 57 7e 7c bd dd 79 ed 3d a5 36 17 3e
       -0.06853502 -0.061643925 0.11595509 0.14766939
000350 da b3 93 3b 7d a3 d7 3d dd 33 7b bd 4b 9e 0d be
       0.004507524 0.1052923 -0.061328758 -0.13829915
000360 88 e2 0c 3d 89 69 30 3d 7d 2d a0 3d 32 09 0b 3e
       0.034395725 0.043069396 0.07821176 0.13577726
000370 5a 63 59 3d f8 61 50 3d 87 15 ba 3c 04 28 17 3e
       0.053073265 0.05087468 0.022715343 0.14761358
000380 a1 c4 9d 3c f4 4f de bd 10 4e b9 ba 88 23 b5 3c
       0.019258799 -0.108550936 -0.0014137644 0.02211167
000390 98 55 50 3d 9f 0a c9 bd fd 02 ef bc f6 7b f0 bd
       0.05086288 -0.09816479 -0.02917623 -0.11742394
0003a0 4c 97 64 bc da bd 73 bc 44 e7 11 be 7d 8d a3 bb
       -0.013952088 -0.014876807 -0.14248377 -0.004991232
0003b0 54 09 14 bc c0 a8 6c bd fe 7a 0e bd bb d6 15 3d
       -0.009035427 -0.05777812 -0.034785263 0.036581736
0003c0 98 bc 1b 3d 23 d4 b0 bc c2 da 87 bd 70 6c 55 bb
       0.038021654 -0.02158553 -0.066335216 -0.0032565854
0003d0 04 98 ab 3d bc 33 d1 bd 2d 9e 49 bc f2 17 78 bd
       0.08378604 -0.10214946 -0.012305778 -0.06056971
0003e0 d5 b9 11 3e 7a ec ca bc 69 3f 8d bd 4c 51 b3 3d
       0.14231046 -0.024770964 -0.0689686 0.087557405
0003f0 11 f2 d9 3c ff b2 d0 3d 02 e0 fa bc c6 d3 b4 3d
       0.026604684 0.10190391 -0.030624393 0.08829455

weight_hh_l0 f4 [256, 64]
000000 b0 86 16 3e ca f7 c2 3d 71 d2 cf 3b af 2d 85 bd
       0.14699817 0.09519918 0.0063422252 -0.06502854
000010 0c 31 99 bd be 25 80 3d c0 61 5a bd 55 79 04 bd
       -0.07480058 0.06257199 -0.053315878 -0.032342274
000020 0b d6 b6 3d 89 fc f5 bd 10 6b 17 bd e1 7f 6e 3d
       0.08927544 -0.12011058 -0.036967337 0.058227424
000030 6c 6f 0f 3d d6 6e a7 3d 24 bc 05 be 65 93 4b 3d
       0.03501837 0.08175437 -0.13060051 0.049701113
000040 b6 07 a3 bd 2c 8a 04 3d d1 0c 01 be 3b 2a a2 3a
       -0.07960455 0.032358333 -0.12602545 0.0012372205
000050 82 4f 6f bd 9d 22 8d 3d ea cc b7 bd 65 39 c7 3c
       -0.058425434 0.068913676 -0.08974631 0.02431936
000060 86 f3 87 3d 51 0a 79 3d fe e7 a5 3d 5b e4 46 bd
       0.06638245 0.060800854 0.081008896 -0.04855762
000070 b3 05 4f 3c 97 a5 bc 3d dc 30 24 3d 12 9c a1 3d
       0.012635636 0.09211271 0.04008566 0.07891096
000080 75 7c 34 3d ec 50 13 bd a3 35 b1 bd ed d7 78 3d
       0.044064004 -0.035965845 -0.086528085 0.060752798
000090 93 81 5d 3d 4c 46 02 bd 67 8e 6e 3c d4 02 16 be
       0.05407865 -0.03180532 0.014560319 -0.14649516
0000a0 45 66 ea 3c 9b ff fc 3d 09 6c 01 3e b1 a3 0f be
       0.028613219 0.123534404 0.12638868 -0.14027287
0000b0 8c 02 aa 3d 7d fb 2f 3d 9b 30 96 3c d7 01 ba bd
       0.08301267 0.042964447 0.018333724 -0.09082382
0000c0 8f 7b 2e bd 9c 10 d3 bd 70 54 8d 3d ec ca 2a 3d
       -0.042598303 -0.10305902 0.06900871 0.041697428
0000d0 b3 87 fe 3c 0e f8 ab bd 35 88 94 bd d5 db e9 bc
       0.031070566 -0.08396922 -0.07252542 -0.028547207
0000e0 a6 90 9f 3c 5a 25 bb 3d 12 6d 81 3c be 49 4f 3d
       0.019478153 0.091379836 0.01579908 0.050607435
0000f0 de a6 a0 3c 44 dd bc 3d 93 07 bf 3d fa cd cb bd
       0.019610818 0.092218906 0.093276165 -0.09951396
000100 c7 83 35 bd 31 33 da 3c dd 17 bf bd 30 e1 fe 3d
       -0.044315126 0.026635738 -0.093307234 0.12445295
000110 ee 39 3e bd 46 5b ca bd a0 57 10 bd 91 09 5e bd
       -0.046441965 -0.0988069 -0.035239816 -0.054208342
000120 cd 38 d0 bd c0 5e e7 3d 0d 48 0c 3c 31 2a e8 3c
       -0.10167084 0.11297369 0.0085621 0.02834043
000130 05 da 97 bc ad e8 27 be da 81 09 3d f8 20 50 bc
       -0.018536577 -0.16397353 0.0335711 -0.012703173
000140 e5 69 dc bd e7 f8 e0 bd 25 7a 1d 3e d1 d4 08 bd
       -0.10762385 -0.10984974 0.15378626 -0.033406083
000150 1d 43 3b be 3e e3 22 bd a3 c1 b9 bd 13 1b f6 bc
       -0.1828732 -0.039767496 -0.090701364 -0.030042207
000160 84 6a 0f 3c 53 bd 18 3d f6 6d ae 3c 72 5b 72 bd
       0.008753423 0.03728993 0.021292668 -0.05916924
000170 c7 6d 93 3b ab 1d a9 bd b1 4c 94 3d 03 98 d2 bd
       0.0044991705 -0.08257612 0.0724119 -0.102829
000180 7a 12 97 3d 46 f1 6d bc 33 ad fd 3d c2 e6 fb 3d
       0.07376571 -0.014522856 0.12386551 0.12299873
000190 a5 53 13 3d ca a6 43 bd 38 7a 27 bd 62 46 c2 bd
       0.03596844 -0.047766484 -0.04088804 -0.09486081
0001a0 f9 05 b7 3d a6 ae ad bb 84 91 47 bd 5d 21 28 be
       0.08936686 -0.0053003607 -0.04872276 -0.16418977
0001b0 21 75 f1 3d c8 40 72 bd 81 3f 1e bd f0 43 95 bc
       0.11789919 -0.05914381 -0.03863478 -0.018220872
0001c0 51 5b 19 3e ff e7 0c 3e 5e c2 0a 3d dd 0f dd bd
       0.1497624 0.13760374 0.03387677 -0.10794041
0001d0 67 86 97 bd 1c f7 09 bd 44 4f 47 bb 6a 0f a3 bb
       -0.07398682 -0.033682927 -0.0030412236 -0.0049762027
0001e0 0a 0e bb bd a7 a5 55 3d 53 77 3e 3d 92 eb 92 3d
       -0.09133537 0.05215993 0.046500515 0.07173838
0001f0 6c a6 d9 bd 8e a3 12 be c9 dd 71 3c ab 76 c9 bd
       -0.106274456 -0.14320204 0.01476235 -0.09837087
000200 35 31 8f 3c f2 b6 c3 bd fc e2 c9 bd 3e a7 93 b9
       0.017479518 -0.095563784 -0.09857747 -0.0002816263
000210 04 fb 0e be c9 c1 0f 3d 18 56 d6 bc 00 c4 0d bb
       -0.13962942 0.035096917 -0.0261641 -0.0021631718
000220 8a 58 3c bd 36 0b 4d 3d 94 8a a1 3d 25 9d fd 3d
       -0.045982875 0.05005952 0.0788776 0.123834886
000230 e8 0f af bd 26 4f 92 bd 7f 62 23 bd e4 fe a9 3d
       -0.08547956 -0.071440026 -0.039888855 0.0830057
000240 ff 4f 20 3d 0d 99 89 bd 99 9c 9a 3c 7b 1f a3 3b
       0.03913879 -0.06718645 0.0188735 0.004978118
000250 90 1b a2 3d 20 1d af 3d 6d d7 e2 3d f8 4b db 3c
       0.079154134 0.08550477 0.110762455 0.026769623
000260 38 78 b7 bd d5 5e 2d 3c fc 06 67 bd 19 0a b0 3d
       -0.08958477 0.010581692 -0.056403145 0.08595676
000270 3d b1 71 bd 17 20 b5 bd 0b 41 30 3c a7 8b dc 3d
       -0.05900692 -0.08844011 0.010757695 0.10768824
000280 96 f0 22 bd de dd 4a bc 03 b3 87 bc 63 ea 25 bd
       -0.039780222 -0.012381999 -0.016564852 -0.04050673
000290 bc 6e d1 bd 60 70 be bd 74 3b 51 3d 06 94 76 bd
       -0.10226199 -0.092987776 0.05108209 -0.06019976
0002a0 80 f1 10 bd ea 16 ab bd 6b a1 d0 bc d7 04 d5 bd
       -0.035386562 -0.0835398 -0.025467595 -0.10401314
0002b0 fa 93 cf bd 02 d2 aa 3d 81 8c d9 3d 0b ad b4 bd
       -0.10135646 0.08340837 0.10622502 -0.08822068
0002c0 4d 43 72 3b ad c9 16 bd 25 5f c0 3d 9a 57 89 3d
       0.0036966384 -0.036813427 0.093931474 0.06706162
0002d0 8a 25 93 bd 86 37 10 bd f4 c4 73 bc 36 29 8a bd
       -0.071848944 -0.0352092 -0.0148785 -0.067461416
0002e0 5d 52 da 3c 1b ad 0e bd 08 6a 28 bd 7d 1f a8 3c
       0.026650602 -0.034833055 -0.041116744 0.020522827
0002f0 08 60 19 be 19 17 35 bd 94 75 8b bd 6f 39 d5 3c
       -0.1497804 -0.04421148 -0.068095356 0.026028363
000300 cd 1a f3 3d e8 e6 b7 bd ef a6 5e bd 6e 91 04 3d
       0.11870346 -0.08979589 -0.05435842 0.032365255
000310 98 88 20 be c8 34 f8 3c 98 3d 72 3d bc 43 c4 3d
       -0.15677106 0.030298606 0.05914077 0.09583232
000320 c1 e6 5d bd ef 6e 31 bd 2b 15 c3 3d e7 fd 57 bd
       -0.054175142 -0.043318685 0.09525522 -0.052732375
000330 d4 d7 88 bd c3 95 01 3e 6f 1b 9d bc d3 15 be bd
       -0.06681791 0.12654786 -0.01917812 -0.092815064
000340 17 9f 44 3c bc aa 22 3e 9f e8 66 3d 15 c1 35 bd
       0.012000821 0.15885442 0.05637419 -0.04437359
000350 86 ff 38 bd 7b 06 0e 3d 76 31 08 bc b7 45 e2 3c
       -0.04516556 0.03467415 -0.008312574 0.027621133
000360 54 9e 99 bd 97 18 af 3d 41 bf 1a 3d b2 a5 d1 3d
       -0.07500902 0.08549612 0.03778005 0.10236682
000370 38 28 92 bc dd f4 e9 bd 0f 81 8e 3a df 4f 16 bd
       -0.017841443 -0.11423657 0.0010872203 -0.036697265
000380 42 2c 02 be 59 45 dc 3c 25 54 98 3d 92 44 e2 3d
       -0.12712196 0.026888536 0.07437924 0.11048235
000390 db d3 eb 3d 81 8c a2 3c 70 f9 d8 bd 79 ca aa 3d
       0.115150176 0.019842388 -0.105944514 0.083394
0003a0 70 5d 99 3c 3b 51 c5 3d 09 41 90 3d 02 d7 94 3d
       0.018721312 0.09634634 0.070436545 0.07267572
0003b0 a4 d6 b1 3d d6 02 29 3d 9e 64 0f bd d5 e6 2e bb
       0.086835176 0.04126247 -0.035008065 -0.002668788
0003c0 06 fb 66 bd aa 40 c3 3d 30 3f c0 bd 7e 57 f3 bb
       -0.05639174 0.09533818 -0.09387052 -0.0074262014
0003d0 0a 56 2f 3d 85 27 b8 bc 29 3b ee bd fd e6 8d bd
       0.042806663 -0.022479782 -0.11632378 -0.06928823
0003e0 b1 f0 f3 bd d8 6d ce 3c a1 2e e0 3d 82 02 a0 bc
       -0.119111426 0.025198862 0.10946394 -0.019532446
0003f0 2c f3 b2 3c d5 28 51 3d 20 05 e2 3d 71 ac 91 bd
       0.021844469 0.05106433 0.11036134 -0.07112969

bias_ih_l0 f4 [256]
000000 1f ae 96 bd 9e e8 d6 3d 22 8f 9b 3d 81 ec c3 3d
       -0.0735743 0.10493587 0.0759566 0.09566594
000010 40 c8 1e 3d d1 a0 19 3d 2c b8 07 3d 14 96 a4 bd
       0.038765192 0.037506882 0.033134624 -0.08036438
000020 36 1f f3 3c a9 c3 0f 3e 0b 4a 9a 3d 2a cc ad 3d
       0.029677968 0.14039482 0.07533654 0.08486207
000030 3c 79 66 3c fd 12 a7 3c 54 68 95 3c 36 79 aa 3a
       0.01406699 0.020394797 0.018238224 0.0013006094
000040 7c e4 73 3c 65 20 d6 3d 1a 13 aa bd 6f 70 f7 3d
       0.014886018 0.104553975 -0.083044246 0.12081992
000050 76 0d f7 3b de 28 da 3d f8 b2 26 bc 32 48 c2 3d
       0.0075394465 0.10652326 -0.010174505 0.094864264
000060 c4 0f d4 3d 1e 2d b5 3c ab bc b8 3b 92 5d b3 b9
       0.103545696 0.02211624 0.0056377253 -0.00034211256
000070 6b 97 68 3b 83 05 16 3e bf fb 60 bd 7d d7 7d 3d
       0.0035490643 0.1465054 -0.054927584 0.061973084
000080 ef e1 00 3e 10 55 99 3d cc 56 f6 3d 3e 86 e4 3d
       0.12586187 0.074869275 0.12028274 0.11158417
000090 53 7c 05 bd c4 0a 77 bd 38 e6 84 3d 3a 5d e8 bd
       -0.032589268 -0.060313 0.06489223 -0.113459066
0000a0 0c c2 50 3d 55 e8 e1 3d 28 29 6b 3d 15 6d a1 3d
       0.050966308 0.11030642 0.057412297 0.07882134
0000b0 78 6a dd bd 76 d5 1f bd 13 03 06 3e 66 18 9e 3d
       -0.10811323 -0.03902193 0.1308711 0.077194974
0000c0 12 23 10 bc 47 bb 91 3a 51 53 cc 3d 8d f8 9d bd
       -0.008797424 0.0011118435 0.09976829 -0.07713423
0000d0 71 96 1e 3e f5 9c da bd f1 3c 82 bc 49 7a cc bd
       0.15487076 -0.106744684 -0.0158982 -0.099842615
0000e0 2f e2 f0 bd fc 2a f7 bd 24 fa 8a 3c 8b 5d c1 3d
       -0.11761891 -0.120687455 0.01696498 0.0944167
0000f0 02 1e 08 3e f6 6e a1 bd cb f0 30 ba 1c 43 e2 3d
       0.13292697 -0.07882492 -0.0006749748 0.11047956
000100 47 dc 16 3e ff c1 e4 3d 7d 8f 69 bb 40 9c 1b 3c
       0.14732467 0.11169814 -0.0035638504 0.009497702
000110 d4 25 ca bd 63 bd 3a bc 88 32 d8 3c 71 82 4c 3d
       -0.098704964 -0.011397692 0.026391283 0.049929086
000120 90 92 23 3d 6a 32 3e bd 24 f6 b9 3c b6 a5 ed bb
       0.039934695 -0.046434797 0.022700377 -0.0072524203
000130 ad 4b 05 3e 0b 67 b7 bd 98 d3 a8 3d 09 22 07 3d
       0.1301715 -0.08955201 0.08243483 0.032991443
000140 9f b0 90 3d 4a 79 52 3d b0 db fb 3d 39 8b 7c 3c
       0.07064938 0.0513852 0.122977614 0.015414053
000150 ef cf 47 3d 6b 0c c7 3d c9 1d b6 bc 8a 4a 7c 3d
       0.048782285 0.097191654 -0.022231 0.061594523
000160 7b 12 01 3e 42 8b 8c 3c 10 f0 60 bd d3 08 6e bd
       0.12604706 0.017156247 -0.05491644 -0.058113884
000170 49 6f b4 3d 40 ec a8 3d 8f 12 a6 bd a5 3b 71 3d
       0.088102885 0.08248186 -0.081090085 0.058894772
000180 93 4f 00 3e 40 7f ed 3d 58 49 00 bd d8 d9 a7 bd
       0.12530355 0.11596537 -0.031319946 -0.08195847
000190 81 7f 89 bd 88 26 80 bd 5b e3 c3 bd 48 88 21 be
       -0.067137726 -0.06257349 -0.09564849 -0.15774643
0001a0 1b 2c 92 3d 10 a2 c7 3d 09 2f de bd 42 a3 27 bd
       0.07137319 0.09747708 -0.10848815 -0.04092718
0001b0 87 10 07 3e cc 65 e0 3d 4f 82 9c 3d c0 11 f1 bb
       0.13189898 0.10956916 0.07642042 -0.0073568523
0001c0 e1 8b 82 bd b8 e4 ad bd c8 cd 75 bd 2c 42 d6 3d
       -0.06374336 -0.0849089 -0.0600107 0.1046184
0001d0 d6 b8 04 3e 76 66 99 bc 99 5b a0 3d 8b f3 6c 3d
       0.12961134 -0.018725615 0.07829971 0.05784945
0001e0 40 32 ac bd 23 6e b9 bd fe 90 0b 3e eb e9 0f 3e
       -0.08408022 -0.0905421 0.13629529 0.14054076
0001f0 df 98 12 bc dc 0b ca bc 0a 2f e2 3c ca e8 eb bb
       -0.00894758 -0.024663858 0.02761032 -0.0071993815
000200 7d 1f 03 3e fa 3d ec 3d ec a9 10 be c2 0a 96 bc
       0.1280498 0.115352586 -0.1412732 -0.018315677
000210 c4 be f4 3d c4 9f 0f 3e 92 79 07 3d 04 71 3a bd
       0.11950448 0.1402579 0.033074923 -0.045517936
000220 83 bb ab bd 2b da 8b bd d2 d5 e5 bc c8 09 bd 3d
       -0.083853744 -0.068287216 -0.028056059 0.09230381
000230 e6 33 f9 bc 57 50 af bd c9 dc b6 bd 75 eb b2 bb
       -0.030420255 -0.085602455 -0.0892883 -0.0054601976
000240 32 1e 9b 3c 2a c7 61 3c 31 db 34 3d 63 40 21 3c
       0.018935297 0.013780395 0.04415435 0.009842011
000250 e4 18 85 3d 36 e8 64 bd 62 da 18 bc 04 05 75 bd
       0.06498888 -0.055885516 -0.00932941 -0.059819236
000260 28 7d b5 bd a7 29 d6 bd 23 bf 17 3d d0 ce 86 bd
       -0.08861762 -0.10457163 0.037047517 -0.06582415
000270 d4 7b d4 bd a6 dd 36 bc 93 c7 22 3d 91 f2 10 be
       -0.10375181 -0.011161244 0.03974111 -0.14155032
000280 1a eb 31 bd 0f 29 99 3b 08 69 fa 3d 32 9a d4 3d
       -0.0434371 0.004674084 0.12227064 0.10380973
000290 ee d9 16 3e 74 2d 7e bb f6 44 ed 3d 5e 80 9c 3d
       0.14731571 -0.0038784416 0.11585419 0.076416716
0002a0 8e dc 6a 3c 2f 00 28 3e 6b 57 e8 3b 0e 2c e1 bd
       0.014334811 0.1640632 0.007090499 -0.10994731
0002b0 fd 2e 42 3d ad 70 a7 3d bc 2c d3 bc 2e 35 3e bd
       0.047408093 0.08175788 -0.025778167 -0.046437435
0002c0 89 35 e8 bd db 42 1c 3e 0b 84 99 bd e4 6d db bd
       -0.11338336 0.15259878 -0.07495888 -0.10714319
0002d0 3f a8 a1 bd 17 75 59 3d 06 48 e3 bd 00 b8 b2 3d
       -0.078934185 0.05309018 -0.11097722 0.087265015
0002e0 ad d4 93 3d b3 98 04 be b8 3d 19 3e 69 8a 6d 3c
       0.07218299 -0.12948875 0.1496495 0.014498332
0002f0 b4 18 de bd 5f 7d f2 bd 7e ec 02 3d 48 65 e0 3d
       -0.108445555 -0.11840319 0.031963818 0.10956818
000300 8a 65 0c 3e 34 97 73 bd 8d ae 46 bd 76 33 44 3d
       0.13710609 -0.05947037 -0.04850631 0.04790064
000310 30 85 8a 3d 5b 77 67 bd 34 d4 dd 3d 27 46 86 3d
       0.06763685 -0.05651031 0.1083149 0.06556349
000320 4f 58 a6 3d 86 a7 82 bc 2d 4e ac 3d f1 23 0f 3a
       0.08122312 -0.015949022 0.08413348 0.0005460373
000330 98 ed fa 3c e8 f4 34 bd 61 20 7c 3d e7 7c a2 bb
       0.030630872 -0.044178873 0.061554316 -0.004958737
000340 15 a9 1c 3d 7d 26 ed 3d ed 6c 15 3d 88 33 93 3d
       0.038247187 0.11579607 0.036480833 0.07187563
000350 c1 8f ce 3d 44 24 27 3d 3a 3a c2 bd 01 e0 3a 3d
       0.10086013 0.04080607 -0.09483762 0.045623783
000360 5a 98 ea 3c 2f ef ab bd 7c 85 ec bd 62 f4 9f bc
       0.0286371 -0.0839523 -0.115488976 -0.01952571
000370 2a 18 b5 bd 20 2c 1c 3c 66 ea f6 3d da 69 91 bd
       -0.088424996 0.009532005 0.12056427 -0.07100268
000380 72 36 d2 3d 03 67 22 bd 3a 1e d9 3c e6 05 e0 3d
       0.10264291 -0.03964902 0.026503671 0.10938625
000390 78 20 cb 3d 68 bc e3 3d 92 2c 1f 3e 11 e6 a5 3d
       0.09918302 0.1111992 0.15544346 0.08100522
0003a0 a0 36 48 3d 74 c7 04 3c 79 a8 2a 3d 3a fa b8 bd
       0.04888022 0.008104194 0.041664574 -0.09032102
0003b0 dd bc 8a bd e8 17 32 3c 25 18 00 3d 98 ff 21 ba
       -0.06774304 0.0108699575 0.031273026 -0.0006179749
0003c0 9d 68 d5 3a cb df 89 3d ec a1 15 bc 7d 30 06 bd
       0.0016281788 0.06732138 -0.009132843 -0.032761086
0003d0 fc 40 b1 bb a7 95 3c 3d 7d de 0e 3e 53 ed f3 3d
       -0.005409358 0.046041157 0.1395206 0.119105004
0003e0 f7 fd e4 3b 99 90 a3 3d 57 6e be bd 7e b5 e3 3d
       0.006988283 0.07986564 -0.092983894 0.11118601
0003f0 24 5b 46 bd 92 f2 36 bd f2 0f a1 3d cd 50 57 bd
       -0.048426762 -0.044664927 0.078643695 -0.052567292

bias_hh_l0 f4 [256]
000000 09 4d 85 bd 06 78 90 3d 09 94 70 3d 7b 8c d0 3d
       -0.06508834 0.07054143 0.058734927 0.101830445
000010 c3 11 39 3c 3b 1b cd bd a5 1b c8 3d 6f d2 6d 3d
       0.011295739 -0.100149594 0.09770898 0.058062013
000020 12 a9 00 bd ed d2 56 3d e3 e1 98 bd e2 81 7c 3d
       -0.031411238 0.05244725 -0.074649595 0.061647303
000030 64 20 71 3d 7b d2 98 bd 96 2e 14 be 5d f7 25 3d
       0.05886878 -0.07462021 -0.14470896 0.040519107
000040 03 36 0e 3e 89 ba b1 bd a7 f0 89 3d 8f f6 b5 bd
       0.13887791 -0.08678157 0.06735354 -0.08884918
000050 b4 99 15 3e 51 f7 1a 3e b1 25 91 bd 3d b0 cd bc
       0.14609414 0.15133406 -0.07087267 -0.025108451
000060 4a 82 35 bc 76 21 1b bd 8d 4a 16 3e 39 df 5c bd
       -0.011078427 -0.037873708 0.14676876 -0.05392382
000070 d8 87 b5 3d e5 cf 84 3d d8 69 80 bd 0d b6 13 bd
       0.08863801 0.06484965 -0.06270188 -0.03606229
000080 19 37 21 3e 8e dd d9 ba cf e8 e3 3c 1d 5e c7 3c
       0.15743674 -0.0016621815 0.027820973 0.024336869
000090 cf 81 35 3e 02 91 03 3d 82 a4 fc 3d 68 27 8e 3c
       0.177253 0.032120712 0.12336065 0.017352775
0000a0 d7 51 ac 3d e8 da 1e 3e 9e b0 d1 3d 42 d6 89 3b
       0.08414047 0.15513194 0.10238765 0.0042064497
0000b0 59 36 01 3e 94 77 e3 bd 3c 4f a6 3d 1c eb 04 3e
       0.12618388 -0.11106792 0.081205815 0.12980312
0000c0 9e d3 ab 3b b3 8f ed 3c 83 66 b7 3d 7f bc 6b 3d
       0.0052437326 0.028999185 0.089550994 0.05755281
0000d0 13 6a fa 3c 93 64 31 bc ac f4 60 3d e3 98 81 bd
       0.030568158 -0.010827201 0.054920837 -0.06327989
0000e0 c5 d6 8b 3c f9 30 15 3d 60 52 1a 3c 51 80 c4 bb
       0.017070184 0.036423657 0.009419054 -0.005996742
0000f0 95 82 08 3e 2d a9 d8 bd a7 9e bc 3d 9a d2 63 bc
       0.13331063 -0.10579143 0.09209948 -0.013905192
000100 b5 ac 86 bd cc 6c 96 3d 59 1d 97 bd 14 b7 93 bd
       -0.0657591 0.0734497 -0.073786445 -0.07212654
000110 f4 4b b1 bd 8c 0f 9b 3c 84 2d f5 3d 14 e4 97 3d
       -0.08657065 0.018928312 0.11971572 0.07416549
000120 1a 19 1a 3d 94 55 33 3d 8e 65 1d be 92 96 8f bd
       0.037621595 0.043782786 -0.15370771 -0.07011141
000130 82 33 a0 3d 2b ac 67 3d 23 69 3b bb c6 49 31 bc
       0.07822324 0.056560677 -0.0028596602 -0.010820812
000140 7c a2 24 bd de 79 28 bb 74 28 19 3d bc a1 b2 bd
       -0.04019402 -0.0025707404 0.037392095 -0.08722255
000150 e4 70 81 3d 7d 23 41 3d 26 4a 01 be 7f 57 77 bd
       0.0632036 0.047152985 -0.12625942 -0.060386177
000160 f6 9b 52 3d bc b9 bd bc 6e a9 e7 3d d8 cd 91 bd
       0.051418267 -0.023159854 0.11311613 -0.0711934
000170 6f bc e4 3d 40 48 ae bd 60 41 fb bc 08 41 a9 bd
       0.11168753 -0.08509874 -0.030670822 -0.08264357
000180 31 40 44 3d 24 a1 cf 3d 5b b4 8a 3d 63 3d ec bc
       0.04791278 0.10138157 0.06772681 -0.028837865
000190 1f c2 a1 bd 2e 78 89 bd 5c ae 3a bd 78 23 04 be
       -0.07898354 -0.067123756 -0.04557644 -0.12904155
0001a0 a2 39 b2 bc 86 87 90 3d a7 5b c8 bd 72 bc 32 bc
       -0.021755997 0.07057099 -0.09783106 -0.010909187
0001b0 9d d5 b5 3b ef 4d dd bc cd 58 a9 bc 9d a9 ad 3d
       0.0055491463 -0.0270147 -0.020672226 0.08479617
0001c0 fd 39 cf 3c 70 18 a8 3d c4 b0 ee bd e3 73 0e bd
       0.025296206 0.08207786 -0.11654809 -0.034778487
0001d0 14 5e 2b 3d ee ae 6d 3d 99 4f 8b bd 6f 49 c3 bd
       0.041837767 0.058028154 -0.068022914 -0.09535491
0001e0 b9 45 9d 3d 8b ad ee bb e8 97 92 3d bf 80 dc 3c
       0.07679314 -0.0072838715 0.0715788 0.02691686
0001f0 00 50 b5 bd 9b b8 c4 3a af 22 87 bd eb 47 4c bd
       -0.088531494 0.001500863 -0.06598412 -0.049873274
000200 78 24 cc 3d 56 69 65 3d 4e 4f 19 be ab 5f 18 3d
       0.09967893 0.05600866 -0.14971659 0.03720061
000210 f5 85 c2 3c 4a ba 17 3e 81 4b c8 3d 12 8d 1c 3d
       0.023745516 0.14817157 0.09780026 0.038220473
000220 88 5f c8 bd 71 b6 24 bd 1f eb 3d 3b 1a 93 9a 3c
       -0.09783846 -0.040213052 0.0028979254 0.018868972
000230 c7 a1 a0 3d d5 ed b5 3d e4 43 59 bc ba e5 31 3d
       0.078433566 0.088832535 -0.013260815 0.043431975
000240 af 3e ac bd e7 43 49 3d 89 e3 b2 bc 3b 4b 19 3e
       -0.084103934 0.049137022 -0.021837013 0.14970104
000250 6e c4 f4 3c 76 92 dc bd 60 51 26 be b8 05 3f 3d
       0.029878821 -0.10770123 -0.1624198 0.046636313
000260 fe c0 b5 bd 9a c0 11 be 94 72 c8 3c 0a 89 50 bd
       -0.08874701 -0.14233628 0.024468698 -0.05091194
000270 e7 40 17 bc 90 b3 15 be 03 07 bb 3c ad 53 ca 3c
       -0.0092317825 -0.14619279 0.022830492 0.024698103
000280 1d f5 07 bd 75 9c 97 3c 70 a5 97 3d e5 26 a6 bc
       -0.033192743 0.018507222 0.074046016 -0.020282218
000290 51 24 90 3d ce 2d 9e bd 70 7a e5 3d c2 11 49 bd
       0.07038177 -0.0772358 0.11204994 -0.0490892
0002a0 68 24 52 bc 38 16 5c 3c 3f 58 89 3c 3d 84 eb ba
       -0.012826063 0.013433032 0.016765712 -0.0017968487
0002b0 80 7e 8e bd f1 33 4a 3d e2 6b 71 bd 89 bd 82 bc
       -0.06957722 0.04936594 -0.058940776 -0.015959518
0002c0 b3 eb 99 3c 47 cd 2b bc 40 59 c2 39 91 b5 b7 3c
       0.018789148 -0.010485954 0.0003706906 0.022425445
0002d0 d5 ef 97 bc cb 4a 8f 3d 62 6c 84 3c 48 7c e6 bd
       -0.018546978 0.069966875 0.016164962 -0.112541735
0002e0 df 1e 65 bc 02 34 18 3c 66 21 1b 3e ef e5 8a bb
       -0.013984411 0.009289743 0.15149459 -0.004238836
0002f0 22 4f 93 3d 5b ce df 3d dc f6 dd 3d be 96 20 3e
       0.07192828 0.10928031 0.108381 0.15682504
000300 c5 39 a1 3d cc f6 86 3d 62 8f 8f bd 75 6c 32 3c
       0.07872347 0.065900415 -0.0700977 0.010890116
000310 9a 94 75 3d 45 d1 3e bd fc 66 bd bd 6b c6 d1 3d
       0.05995617 -0.046586294 -0.09248158 0.10242923
000320 eb d2 d8 3a 03 4e 66 3d 0d e0 a7 3d 76 6a 43 3d
       0.0016542351 0.05622674 0.08197031 0.04770895
000330 ac 7e 11 3c 1d de cb bd 93 82 1e be 08 6b c3 3d
       0.008880299 -0.09954474 -0.15479498 0.09541899
000340 b4 c1 0b be f6 32 82 3d 2f 91 01 be f7 11 07 bd
       -0.1364811 0.06357376 -0.1265304 -0.032976117
000350 db 64 1a 3e a9 61 44 bc ee 52 88 bd a7 82 22 bd
       0.15077536 -0.011986175 -0.066564426 -0.03967538
000360 6a cd d3 bc aa 29 fe 3b a2 c0 89 3d c9 df 46 3d
       -0.025854785 0.0077564316 0.06726195 0.048553262
000370 22 19 e3 3d 3e 6e 0b 3e e1 2f ac 3b 66 23 9e bd
       0.11088778 0.13616273 0.005254731 -0.077215955
000380 a3 30 0f 3e 32 67 e5 3b 35 4d 12 3d a8 7b d5 3d
       0.13983397 0.007000827 0.03571816 0.10423976
000390 78 ff 56 3b d1 d6 ce bd 74 91 b5 bc 80 79 92 3c
       0.003280608 -0.10099567 -0.022164084 0.017880201
0003a0 3c 29 9f 3d 0c f8 59 bd 6f 1d b8 bc fc 94 5a 3c
       0.07771537 -0.05321507 -0.022474973 0.013341185
0003b0 29 18 9c bd 7c a5 79 3d 39 9d 01 3e 25 0d 80 3d
       -0.07621796 0.060948834 0.12657632 0.06252507
0003c0 bf 2d a9 3d 3f 0a 7a bc d1 2d 45 3d 63 90 01 3e
       0.082606785 -0.015261232 0.048139397 0.12652735
0003d0 24 c2 ba bd c7 fc 1b bd b1 b5 96 3c 8e a8 09 bd
       -0.09119061 -0.038082864 0.018397184 -0.033608012
0003e0 0e 39 bd bd 55 b9 36 bd 89 f6 c4 bc 86 8e a2 bd
       -0.09239398 -0.04461034 -0.024043338 -0.079373404
0003f0 06 49 c7 3d e3 a9 89 3d ea c5 34 3d fb dc 47 3d
       0.09730725 0.067218564 0.044134058 0.048794728

weight f4 [32, 64]
000000 d3 f3 f0 bd c4 72 78 bd c4 a5 49 bd 53 ca c6 3d
       -0.11765256 -0.060656324 -0.049230352 0.09706559
000010 7b 83 04 be d7 13 4f 3d 39 fe b1 bd 61 ad 20 bc
       -0.12940781 0.05055603 -0.08691067 -0.009806962
000020 3b 3f d7 bd 32 ff 3c 3d 43 4a af 3d 89 3c 17 bd
       -0.10510107 0.04614181 0.08559086 -0.036922965
000030 73 99 38 bd 99 10 0e 3c f6 bb a4 bd 97 05 e2 bc
       -0.045068216 0.008670949 -0.08043663 -0.027590556
000040 99 0b 87 3d 80 f4 e0 bd 34 5f 5f 3d a6 ee 84 bb
       0.06594009 -0.10984135 0.054534152 -0.0040567694
000050 42 61 cd bd 8c 22 88 3c cc c0 99 3d f3 ed 11 3d
       -0.10028316 0.016618036 0.07507476 0.035627317
000060 ff fd 75 bd bf 40 d7 3d 0b 97 39 bd 10 c5 38 3d
       -0.060056683 0.10510396 -0.04531006 0.04510981
000070 31 41 9c 3d 2d 6d 4f 3d 90 65 b4 3b e3 c6 98 bd
       0.07629622 0.050641228 0.0055052713 -0.0745981
000080 a4 32 cb bd c0 17 bd bc 14 d3 8c 3d 8d 69 c1 bb
       -0.09921768 -0.023082614 0.068761975 -0.005902475
000090 60 d2 0a bd 59 e2 ba bd f3 5d b3 3d 3d 90 af 3d
       -0.033892035 -0.09125204 0.08758154 0.08572433
0000a0 6d f9 47 3d fe b5 16 3d 24 bb 8a bd a7 b5 68 3c
       0.048821855 0.036794655 -0.067739755 0.014203466
0000b0 7b 08 93 bd 0b 62 0e bd cc db db 3d 2e 69 a9 bd
       -0.07179352 -0.03476147 0.10735282 -0.082720146
0000c0 d0 b3 ef 3d fc ba e5 bc 86 d2 be bc f9 b7 05 bd
       0.117042184 -0.028043263 -0.023293745 -0.032646153
0000d0 8a 20 67 3d d4 37 05 3c 23 0d 0b 3e 74 a8 d9 3d
       0.056427516 0.008130986 0.1357923 0.10627833
0000e0 c7 4d 00 bd 85 03 2b 3c 41 13 30 bd 37 a3 e4 3b
       -0.031324174 0.010437851 -0.042987112 0.0069774645
0000f0 97 46 12 bd 6b 38 a7 3c a3 bb ca 3d 1f 2e 0b be
       -0.03571185 0.020412644 0.0989907 -0.13591813
000100 fa 64 9d bd 29 87 0c 3d 7c 5f 02 3e 0e 7d 02 bd
       -0.076852754 0.034308586 0.12731737 -0.031857543
000110 29 7e 3c 3d 4f ad e1 bd b2 ed 8b bc f9 24 22 bd
       0.046018753 -0.11019384 -0.017081115 -0.03958604
000120 15 11 b1 3d 94 0c 1e bd f9 4c bd 3d fd 1d c4 3d
       0.08645836 -0.038586214 0.09243197 0.09576032
000130 28 82 92 3d c7 f1 d9 bb 3e 06 a3 3d 9e bd ef 3d
       0.071537316 -0.0066511366 0.07960175 0.117060885
000140 a1 c2 28 3b c7 70 c0 3b 06 1b f6 3d 8e 81 98 bd
       0.0025750773 0.005872819 0.12016873 -0.074465856
000150 00 6e b1 3c 2d 4f 9e 3d e4 79 e8 bd 40 74 c5 bd
       0.021658897 0.07729945 -0.11351374 -0.096413136
000160 c9 75 cb 3d 8e a6 a3 3d 09 e1 8a bc 21 bb 47 3d
       0.09934575 0.07990752 -0.016953008 0.048762444
000170 46 ed a9 3d 36 f0 78 bd 23 d7 0f 3c 75 90 fb bd
       0.082972094 -0.060775958 0.00877932 -0.12283412
000180 97 b9 d5 3d c0 90 26 bc 04 d7 d2 3c e0 c1 cd 3d
       0.10435789 -0.010166347 0.025737293 0.10046744
000190 e9 ae b1 bd d4 3b 72 3d ea 0b f8 bb 38 53 53 bb
       -0.086759396 0.059139088 -0.0075697796 -0.0032245647
0001a0 01 52 e7 bd b8 eb 61 bd bf 0e 7a 3c c9 07 6d 3d
       -0.11294938 -0.05515644 0.015262305 0.057868753
0001b0 3e 81 17 3d 98 fe ec bd eb 88 85 3d e0 75 0d bd
       0.03698849 -0.115719974 0.06520256 -0.034536242
0001c0 13 38 b4 bc 10 44 b1 3d 7d 45 83 bd 71 15 c1 3d
       -0.021999395 0.0865556 -0.06409738 0.09427918
0001d0 a3 67 00 be dc e3 54 bd 0d f5 ca bd 1f ea 56 bc
       -0.12539534 -0.051975116 -0.09910021 -0.013117342
0001e0 dc 2c d1 bc c9 88 9b bd e7 f6 94 3d 52 79 0c 3e
       -0.025534086 -0.07594449 0.072736554 0.13718155
0001f0 32 45 c8 3d cf fe 6a bd 26 fe 92 bb e9 06 42 3d
       0.09778823 -0.05737191 -0.0044858633 0.04736987
000200 cf 2a f4 bb f6 92 08 be c7 9d 41 bd 9e 0b a3 3d
       -0.0074513922 -0.13337311 -0.04726961 0.079612
000210 f0 06 b8 3d b9 62 3c bd 55 4f f2 bc b4 7e b7 bd
       0.08985698 -0.045992587 -0.029578844 -0.089597136
000220 3d 5f 88 3c 3c 3d cb 3c 77 92 34 bd bd 8e 0a bd
       0.016646976 0.024809472 -0.044084992 -0.033827532
000230 c8 df bc bd 59 9c d2 bc 24 76 cc bd f1 e7 46 3d
       -0.092223704 -0.025709318 -0.09983471 0.04856104
000240 28 7c 02 3a 1d 08 0f be b7 38 db bc 55 94 67 3d
       0.0004977607 -0.13967939 -0.026760442 0.056537945
000250 35 b6 3a bd f1 04 81 bd 62 c5 13 bd e4 08 90 3d
       -0.045583922 -0.062997706 -0.03607691 0.07032946
000260 d1 0f 29 bd 8c 4e fb 3c 58 32 a8 bc 41 28 61 bd
       -0.04127485 0.030677103 -0.020531818 -0.05497003
000270 aa 2e 1a bd cf 02 07 3e c6 83 af bd 79 8b 5e 3d
       -0.03764216 0.13184665 -0.08570056 0.05433223
000280 c0 85 19 bd 5d e0 cb 3c 90 a2 0a be 16 6a 87 3d
       -0.03748107 0.024887258 -0.13538575 0.06612031
000290 57 af 88 bd 7d 37 b3 bd a9 3d c8 bd 33 e3 98 3d
       -0.066740684 -0.08750818 -0.09777386 0.0746521
0002a0 19 f6 e6 bc 9f d2 0d 3b ac 04 49 3d 26 40 9c 3d
       -0.02819352 0.0021640433 0.04907672 0.07629423
0002b0 d8 93 85 3d 84 18 a7 3d 6b 91 f2 3d 49 e0 9f 3d
       0.065223396 0.08158973 0.118441425 0.07806451
0002c0 35 c9 e5 3c e4 31 ca bd 1c 06 8a 3d 0f cd 4b 3d
       0.028050045 -0.09872797 0.067394465 0.049756106
0002d0 1c ad 9b bd fc 85 c8 bd 8f cb a7 3c a4 fa d1 3d
       -0.07601377 -0.097911805 0.020482806 0.10252884
0002e0 65 4a 87 3d 61 66 91 3d 43 78 8b 3d d4 b6 20 3e
       0.066059865 0.07099605 0.068100475 0.15694743
0002f0 e7 11 fa 3c f4 c2 27 bd 55 04 ae bd ed ae 05 be
       0.030526115 -0.040957406 -0.0849692 -0.1305501
000300 84 74 d1 3d 6e 0c b1 3d 5d 08 03 be b7 3e 6d bd
       0.10227302 0.08644949 -0.12796159 -0.057921138
000310 0a 36 0c 3e e7 98 d7 3c 77 91 4a 3d 88 95 d2 3d
       0.1369249 0.026318027 0.049455132 0.10282427
000320 07 0b 24 3d 70 d9 a8 bd 33 ca 14 bd 91 a1 c8 bd
       0.04004958 -0.08244598 -0.036325645 -0.09796441
000330 54 86 88 3d 12 47 32 3c 3a 36 88 3d 07 a4 da 3d
       0.06666246 0.010881202 0.06650968 0.10675817
000340 5d 81 6d bd 01 d9 cb ba 6c c5 8f 3d e3 9e ef 3d
       -0.0579847 -0.0015552343 0.07020077 0.11700227
000350 d5 5b 11 3e 73 50 8c bd 52 a5 a2 bd 63 61 08 be
       0.14195187 -0.06851282 -0.079416886 -0.133184
000360 e5 14 9c 3d 12 23 8b ba c6 b7 78 bc 71 41 cd 3d
       0.07621173 -0.001061531 -0.015180534 0.100222476
000370 79 42 c9 bc 4a 3f 00 be 71 e7 a3 bd 58 05 12 bd
       -0.02456783 -0.12524143 -0.08003128 -0.035649627
000380 cc a0 0a 3e dd 3a 92 3d 2c 4a a4 3d 70 93 e7 bc
       0.13537902 0.071401335 0.0802196 -0.028268546
000390 35 5d 01 3d fe 80 ca bd c8 85 a5 bd 16 4e 34 3e
       0.03158303 -0.098878846 -0.080821574 0.17607912
0003a0 87 a0 3c 3d b7 27 0b 3e 8c db 1c 3d b1 7c 0c 3e
       0.04605153 0.13589369 0.038295314 0.13719441
0003b0 1f 6f fb bd c6 7b 06 bd 30 4d a9 3d d2 ce de 3d
       -0.12277054 -0.032832883 0.082666755 0.108792916
0003c0 a4 d0 5a 3d b8 05 d6 bb 17 d6 e5 bd 47 f1 e2 bd
       0.05342163 -0.0065314434 -0.11222475 -0.11081176
0003d0 47 66 d9 3d 74 10 0c be f7 73 a6 bd 7c 8e 9f 3d
       0.10615211 -0.13678151 -0.08127587 0.077908486
0003e0 6c 4f 5c bd 2e a2 a6 bd bf 39 a0 3d 50 9c fe bd
       -0.05378668 -0.08136402 0.07823514 -0.12432158
0003f0 1b 44 10 be 71 6f e3 bd 04 db 1f 3e 11 ee 02 3e
       -0.1408848 -0.1110524 0.15610892 0.12786128

bias f4 [32]
000000 97 eb 85 3c d8 e3 46 bc 4a 90 9c 3d ed 81 1d 3e
       0.01634769 -0.012139283 0.076447085 0.15381594
000010 28 cc 62 bd 68 9b 6f 3d d0 e8 d9 3d 09 72 ce bb
       -0.05537048 0.058497816 0.106401086 -0.006300215
000020 e2 a2 c2 3d 10 f6 ae 3d e6 a4 da 3c e2 29 29 bd
       0.09503724 0.085430264 0.026689958 -0.04129971
000030 7b 47 e9 bd d5 09 39 bd 79 cf 1d 3c 5b da d8 3d
       -0.11390587 -0.045175392 0.009631985 0.10588523
000040 3a 1a 23 3e 77 ae ce bd 37 c6 11 be e4 31 fc 3b
       0.15927973 -0.1009187 -0.14235769 0.007696377
000050 e1 3a c8 3d 0b 6a 64 bc f2 f9 b8 3d 9d 31 ac bc
       0.09776855 -0.013941298 0.09032048 -0.021019751
000060 de c6 07 be 7a 17 e3 bc 7b ce 5e 39 a9 d2 0b 3d
       -0.13259456 -0.027721155 0.0002124849 0.034136448
000070 02 0b 10 3c 5b 12 8f 3d b8 bf c8 bd 32 aa a6 bd
       0.008791687 0.06985923 -0.098021924 -0.08137931

weight f4 [6, 32]
000000 ad 82 54 3d 39 03 3a 3e d0 3c 10 be d9 e3 99 3d
       0.051882435 0.18165292 -0.14085698 0.075141616
000010 c8 cf 17 be 73 33 35 be 8f 47 26 be d6 f2 25 be
       -0.14825356 -0.17695408 -0.16238235 -0.16205916
000020 70 f5 31 be 54 39 4e 3d ef b2 da 3d 8f ac 7b bc
       -0.17378783 0.05034764 0.1067866 -0.015360965
000030 25 c7 30 be 94 2e 49 3d 29 aa 56 be f9 27 36 3e
       -0.17263468 0.049116686 -0.20963348 0.17788686
000040 4f 6d 04 be 31 ba b6 bd a9 3f 2d 3d 88 18 b3 bc
       -0.12932323 -0.08922232 0.04229704 -0.021862283
000050 f3 b2 3d 3d 87 56 21 3b dd fc 1d be 54 5a 0d 3e
       0.046313237 0.0024618225 -0.15428491 0.13803989
000060 52 0f 86 3c ec af 68 3d 5c a6 e6 3d 76 b3 93 bd
       0.016364727 0.056808397 0.11262199 -0.07211964
000070 42 a8 ea 3d 0a 44 4b be 5f b5 8b 3d de d0 30 be
       0.11457874 -0.19850174 0.06821703 -0.17267177
000080 0a 6f f7 bc cb 8f af bd 15 e1 5f 3e 5f 09 ac bc
       -0.030204315 -0.08572348 0.21863206 -0.021000562
000090 af eb 0d 3e 11 20 cd bd df c5 45 3e 74 ff eb bd
       0.13859437 -0.10015882 0.19313763 -0.11523333
0000a0 2e 66 e8 3c 4e a4 18 3d 53 44 e6 3d 25 5f 16 be
       0.028369036 0.03726607 0.112435006 -0.14684732
0000b0 4b 4c 15 3e 67 81 1c 3e b1 b9 24 be 64 ad 4e 3d
       0.14579885 0.15283738 -0.1608646 0.050458327
0000c0 91 2f f9 3d 22 46 be bd fa 1c 97 bc bf 46 2f be
       0.12167276 -0.092907205 -0.018446434 -0.17116831
0000d0 7b f0 25 be bb d0 a0 bd 29 55 26 be 80 fd cc 3b
       -0.16205017 -0.07852312 -0.16243424 0.0062558055
0000e0 59 d0 5d 3d 7e 02 35 bd 7c 7d 8f bd 18 06 94 3e
       0.054153774 -0.04419183 -0.07006356 0.289109
0000f0 98 b6 95 3d ec 67 93 3d b8 50 81 bd aa e0 25 3e
       0.073102176 0.07197556 -0.06314224 0.16198984
000100 03 e0 c1 3c 59 99 b7 3d 59 ac 6d 3d 33 f4 88 bd
       0.023666387 0.089647956 0.05802569 -0.06687202
000110 40 06 88 3d 79 b5 54 bd a3 b8 32 3c cb b5 e7 bc
       0.06641817 -0.05193088 0.010908279 -0.028284928
000120 2a 8d ce 3d 6f d5 93 3d 6a aa 38 3e ee e4 c8 bd
       0.10085519 0.072184436 0.18033758 -0.0980929
000130 db a5 15 bc ca ef 96 3c 49 2d 5e 3d 35 b8 d8 bd
       -0.009133781 0.018424887 0.054242406 -0.1058201
000140 04 9e d5 3d 7b 24 82 3d 9e 03 81 3c c0 79 e2 bd
       0.1043053 0.06354614 0.015748795 -0.11058378
000150 bd 4e 7f bc 39 ec b3 bd da 13 da bd 3e ca 85 bd
       -0.0155827375 -0.0878529 -0.10648318 -0.06532715
000160 05 dc 39 3d e1 d3 e9 bd af 9e 32 3c 3c bc 29 be
       0.045375843 -0.11417366 0.010902091 -0.16575712
000170 00 89 2c be 04 4d f3 3d 80 5e 23 be 32 a7 23 be
       -0.16849136 0.11879924 -0.15954018 -0.15981749
000180 ab 98 f9 3d 4e 98 30 be 19 f3 b1 bd 1d 2e 92 3d
       0.12187322 -0.172456 -0.08688945 0.07137702
000190 ff 68 16 be f6 80 fe bd ab 4f ca bc a7 16 63 3d
       -0.1468849 -0.12426941 -0.024696192 0.055441525
0001a0 9c 81 42 bd 5d 82 23 3e 58 5c 24 3e ad fd e7 3c
       -0.047486886 0.15967698 0.16050851 0.028319204
0001b0 01 81 06 be fb 72 21 be 98 2b 4e 3b 10 1b 33 bd
       -0.13135149 -0.15766518 0.003145909 -0.04372698
0001c0 bd 2d 41 bd d1 f1 14 be 83 dd 36 3c c4 a0 51 3b
       -0.04716276 -0.1454537 0.011161211 0.0031986693
0001d0 60 ce 02 3e a0 c8 60 bc ea 0e 40 3d 2e f8 82 3d
       0.12774038 -0.013719708 0.046889223 0.06394993
0001e0 a7 26 05 3e 29 a8 e4 bd 0a 58 e3 bd c7 aa 30 be
       0.13003026 -0.111648865 -0.111007765 -0.17252646
0001f0 85 95 84 bd 84 4e 5c 3d 6e c1 19 be a3 3c d1 bd
       -0.06473831 0.053785816 -0.15015194 -0.10216644
000200 cc 9c 04 3d e1 db e6 3d 46 37 27 3e 4a 13 0f 3e
       0.032376096 0.11272407 0.16329679 0.13972202
000210 a2 f1 d2 3d 9e 2d 00 be 04 3c db bd 10 6f 13 3e
       0.10299994 -0.12517402 -0.107048064 0.14397836
000220 a2 35 2c be d0 f5 16 3e f2 79 21 3d d4 8e 2b bd
       -0.16817334 0.14742208 0.039422937 -0.04188426
000230 96 b7 32 be 4d c8 b5 bd c0 de 07 3e 72 90 1f 3e
       -0.17452845 -0.08876095 0.13268566 0.15582445
000240 be 87 af 3d c0 c3 0b 3e 0f b9 98 3b 1f b4 9d 3d
       0.08570813 0.13648891 0.0046607326 0.07700371
000250 9f 64 17 be 54 9a 32 3d 00 42 a0 b9 d9 72 3c be
       -0.14784478 0.04360421 -0.00030566752 -0.18403186
000260 fc f9 ac bc 53 57 08 3e a2 5c 12 3d cf dd f8 3c
       -0.021115296 0.13314562 0.035732873 0.030379204
000270 04 f5 da 3d 00 d3 b8 bd 8b 57 89 3e 4e 67 29 be
       0.10691264 -0.0902462 0.26824602 -0.16543314
000280 25 25 f3 bd f5 ca 84 bd f4 b4 46 3d dd 13 f4 bd
       -0.11872319 -0.064840235 0.048512414 -0.11917851
000290 b0 c5 43 3d 1c 2b 15 3e 6e 0c ac 3d e3 7b 90 bc
       0.04779595 0.14567226 0.08400808 -0.017637199
0002a0 a6 61 c7 bd ce c9 ec 3d dd eb b4 bd d9 00 f1 bd
       -0.09735422 0.11561929 -0.0883405 -0.1176774
0002b0 f3 2f e2 3d fd a8 84 3c 86 49 03 3e c9 15 18 bd
       0.11044302 0.016193861 0.12821016 -0.03713015
0002c0 26 42 77 3c 02 bd d2 3c 99 50 32 3e eb 6b 11 3e
       0.015091455 0.025724892 0.17413558 0.14201324
0002d0 1c ba a2 bd c8 68 4c 3e 5b 70 57 3d 99 86 1e 3c
       -0.07945654 0.19961846 0.052597385 0.009675645
0002e0 45 e4 8a 3d 9c e5 88 bd b2 91 8b bd d2 45 80 3d
       0.0678182 -0.066844195 -0.068148986 0.06263317
0002f0 ad 22 e1 bd 71 af db 3d 15 e5 05 be 2d df 0b be
       -0.10992942 0.10726822 -0.13075669 -0.13659354

bias f4 [6]
000000 4b ef a6 bd 67 6d ef bc 74 74 65 bc bd de 32 bd
       -0.0815111 -0.029226972 -0.014004815 -0.04366945
000010 e1 42 4a 3d 1d a4 fa bc
       0.049380187 -0.030595833

weight f4 [2, 32]
000000 8b 3a 01 3e ae 97 16 be 0d 45 2f be 41 48 b8 bb
       0.12619989 -0.14706299 -0.17116185 -0.0056238477
000010 80 4b ae bc a6 14 e2 3d e2 cf 8d bd 2f 5f c8 bc
       -0.021276236 0.110390946 -0.06924416 -0.02445945
000020 ad 52 2b bd 74 49 c9 bd 9a f8 83 bc cd 29 c2 bd
       -0.041826893 -0.09828463 -0.016109753 -0.09480629
000030 6c 69 24 be a5 f0 22 be 91 80 18 be b7 6e c1 3d
       -0.1605584 -0.15912111 -0.14892794 0.09444945
000040 e1 65 e6 bd 3f 4a df 3c bc c4 01 be 16 74 2b 3d
       -0.112499006 0.027257083 -0.12672704 0.041858755
000050 0f 1a 1a bd 23 a1 f6 bc 46 4e 51 3c 69 fc a3 3d
       -0.037622508 -0.030106133 0.0127750095 0.08007128
000060 ed 61 fd bd 1f 98 13 bd 74 1e 12 bd 01 e0 ad 3d
       -0.123721935 -0.036033746 -0.035673574 0.08489991
000070 a6 df 31 be 3c 29 9d 3d 7a 2e 03 3e b7 ab 15 be
       -0.17370471 0.076738805 0.12810698 -0.14616285
000080 2f e5 9e 3d 21 49 ee bd 2b ab 69 bd 41 d2 b5 bc
       0.07758557 -0.11635042 -0.057048004 -0.022194983
000090 d0 96 a2 bc b7 bf f8 3d b9 03 35 3e 05 a8 cd 3c
       -0.019847304 0.12145942 0.17677201 0.025104532
0000a0 f7 f4 cc 3c f7 60 87 bd cc ba 04 3d 80 fd 87 3c
       0.025019152 -0.066102915 0.032404706 0.01660037
0000b0 0b a1 91 3d 6d c1 10 be d4 53 3c 3c fe 60 3b bd
       0.07110795 -0.14136286 0.011494596 -0.045746796
0000c0 6a a3 d5 bc dc de 18 3e 4b a1 f4 3d c4 ab 30 bd
       -0.026078898 0.14928764 0.11944827 -0.04313256
0000d0 44 67 c5 3c bb 7d e7 bd f4 7b a5 bd 20 4c 15 bc
       0.024097092 -0.11303278 -0.08080283 -0.009112388
0000e0 80 34 1c 3d 9a 58 51 3e cb de a1 bd 2a 06 43 be
       0.038136005 0.20443955 -0.079038225 -0.1904532
0000f0 52 d9 d7 bb b6 21 a5 bd 82 e9 4b 3d a1 05 08 be
       -0.006587186 -0.080630705 0.049783237 -0.13283397

bias f4 [2]
000000 a9 27 2c 3e ca fc 0e 3d
       0.16812004 0.034909047

weight f4 [1, 32]
000000 e2 7b b9 bc fb 22 bf bd 19 ed 14 bd af 5c 0a 3e
       -0.02264208 -0.09332844 -0.036358926 0.13511918
000010 1e 47 33 be 75 57 e8 bd a4 81 28 3d a7 8c 3f 3e
       -0.17507598 -0.11344806 0.04113926 0.18705998
000020 a7 09 a7 3d cb 61 14 3e 74 8c 24 3e fe 30 b9 bd
       0.08156138 0.1449043 0.16069204 -0.09042548
000030 87 ee 6b 3d 67 f1 35 3e e3 3f 43 3c fd 01 4f bd
       0.057600524 0.17767869 0.011917087 -0.050539006
000040 89 0a 51 3e 5d 51 a0 bd 6d b9 ad bd c2 dc c7 3c
       0.20414175 -0.07828019 -0.08482633 0.024397258
000050 b3 f5 54 3e 62 7f 19 3e 25 60 36 3e 69 32 e8 bd
       0.20796852 0.14989999 0.17810114 -0.1133774
000060 a2 b3 16 be 93 90 15 3d 0d bd 85 bd da 42 3e bd
       -0.14716962 0.03651483 -0.06530199 -0.046450473
000070 cb c0 67 bd 1a db ed 3d c8 04 f3 bd e1 ef d4 bd
       -0.056580346 0.11614056 -0.11866146 -0.10397316
